fixed_route_safe_slac/Safe_Slac_CARLA/logs/CarlaRlEnv-v0-run/slac-seed0-20241201-1119/models/step20000/actor.pth (torch, 508276 bytes, 6 tensors)

net.0.weight f4 [256, 232]
00000000: 9e11 543a bb0b 0a3d dbc0 73bc eba1 fabb
00000010: 4f48 423c 996e 073a 5ad1 523c 5fd4 9b3b
00000020: 379b c53c 5812 95bc 7b62 2e3d 9539 d2bb
00000030: 880f 64bc aba6 0dbc 2dd5 4c3d 75b6 b1bc
00000040: 703c a93b e2f0 833b 97d7 b8bc 23df b13c
00000050: 640e 4ebd dc08 143d f9d0 a93c 5a87 c23c
00000060: 9730 7b3c cb97 e7bc 5492 1abd be0a dc3b
00000070: b8ec 08bc 8cbe c6bb 0431 3e3c dc97 5e3b
00000080: d439 6a3e cadc 5b3e c58a 533d e618 f13c
00000090: 5db2 94bd 3ea3 45be a3e3 e1bd 7942 0fbe
000000a0: d319 40be bfa8 41be b3ec 9fbd 36fd 08be
000000b0: 9bdb d5be d468 833e cb0a 8d3e c316 a4bd
000000c0: fbe3 1abe 9331 64bd fad7 b03d efd4 a4bd
000000d0: b418 893e d542 6f3d 0038 81be b077 173c
000000e0: e272 1abc 2ac9 16be e8c1 71bd d4f5 7b3c
000000f0: a0bf 4bbe a509 0abd 4df2 7c3e d051 93bd
00000100: a30e 86bd 3015 7cbd 3088 b43b 8f51 4cbe
00000110: 363a 99bd 38dc 17be da0c 993e 8df3 a83c
00000120: 8bcd 2d3f 3cab 073e ae01 48be c405 efbd
00000130: 069c 8f3e cbec 143e 85cd a3bd 637e 643d
00000140: a76c d3bd 955c 883c 4cdf e93d 7fed e53d
00000150: b8fe e0bd 05b9 49bd b748 573e 20ce 953d
00000160: 6ada 863d f968 10bd 1221 6b3c 3c47 dcbd
00000170: 9e3b 293e 423d b1bd 8801 cc3d 2cb7 003e
00000180: 4bf0 773c bbf5 22be 0ac5 573d 9a7e bcbd
00000190: 5f74 e23c fa14 4d3e 7c0e 0dbe 9bde a53d
000001a0: 5334 31be 9bf0 3d3e c60e 4dbe 30b7 af3d
000001b0: 8439 a5be f763 bfbd e6d9 59be 1284 1b3e
000001c0: 0a71 c5bd f7dc 073e 5ccf 8bbd 442e d6bc
000001d0: 720f 09be 23f8 02be 6d64 9dbc dd00 073e
000001e0: 803f 5dbd d251 683c c3c7 c7bd 6cfd fdbd
000001f0: a1e6 353c 446b a8bc 2cf2 96bb e3db 0e3d
00000200: 955d 0abe 29ef a7bd 11e4 a73d c6d3 a4be
00000210: c9e3 3f3d 6fbc c5be 3528 5bbd d6c0 c6bd
00000220: 4508 9a3d 6200 363e 2596 4ebe d817 80be
00000230: da05 40be 9eb9 6e3e f570 1ebe 2c54 b1bd
00000240: 6ac7 0a3e efac e93c 017d 0d3d b51a 8b3e
00000250: 8cfb 93bd b0ac 80bd 5f4d 2d3e 7746 f9bd
00000260: 59b5 aabe 7b67 5b3d 2073 583e 1a34 1dbd
00000270: 0fe3 5bbd 35dd 33be c614 ad3e 6012 133e
00000280: b795 66bd 84ed 25be 7b47 143e 38a3 d7be
00000290: 4372 17be 5a8f 5f3c 3d2e 29be efb7 103f
000002a0: 6857 6e3e 5af3 e83d 7a1b 233d c321 6c3e
000002b0: 92ba ab3d 7bd7 8fbe fd74 383d c394 df3d
000002c0: 7a6d fd3d cea2 c73e ea77 aabd e1aa cb3d
000002d0: c5ce 91bc a896 2bbd 96b0 5bbe dda4 9bbe
000002e0: 41ae bd3e 7b7b e7bc 5b47 bb3c dc7b 0a3d
000002f0: 1316 bc3d 3f39 403e 1e7f 45bd 42ca a53d
00000300: 0eb1 5dbe f291 a0bd 6d99 0abf 8e0a 7abe
00000310: 94a5 c2be cd92 9dbe a95d 5f3e 0903 9abe
00000320: a3d6 d3ba 93ca a2be fe35 aebd f752 f53d
00000330: 1532 1cbe db61 c03d cdc3 de3d b3be 0d3c
00000340: eaa4 893e 6a1c a3bd 2007 063d 51c7 2fbd
00000350: 914b 503c 7952 c3be 47ad 8cbe dc7d 48bc
00000360: fe2d 343e d6bc cb3e b758 883c 2557 9f3d
00000370: 187b f23d 2f5b 54be a285 e539 a309 a13e
00000380: 2abc 1bbc 67f9 963e f844 84bd c031 1b3f
00000390: 758a 9fbe 20a0 bd3e 694d c6bc bce1 c13d
000003a0: 72fb 383d 03a2 e8bb 75aa 21bc 763d 7fbc
000003b0: 9198 2bbd 4804 09bc d6ca f5bb d409 bc3a
000003c0: e0f2 59be ae9e 503d 1a6a 66bd a6f6 f73b
000003d0: f3f2 133d 57c5 bebc f67d 12bd 8a2d fa3a
000003e0: 804f a83c a49e 0b3c a987 28bb 0659 81bc
000003f0: 2b75 fdb8 4b4e a0bd dfaa c93b 9a50 693c
0.00080897834 0.033702593 -0.014877523 -0.0076486967 0.01185806 0.00051663216 0.012867296 0.004755541
0.024121864 -0.018197224 0.042574387 -0.0064155557 -0.013919719 -0.008645694 0.050007988 -0.021693448
0.0051646754 0.004026518 -0.022563739 0.021712845 -0.050306693 0.03614126 0.020729529 0.023746181
0.015331409 -0.028270623 -0.037737206 0.0067151478 -0.008357219 -0.0060651954 0.011608366 0.0033965027
0.22873622 0.21470943 0.051646013 0.029430818 -0.072605826 -0.19300553 -0.110297464 -0.13990201
-0.18759851 -0.18912028 -0.07808819 -0.13377842 -0.41769108 0.25665915 0.27547297 -0.08012154
-0.1512603 -0.05571134 0.08634944 -0.08048426 0.2677666 0.058413345 -0.25238037 0.009244844
-0.009426804 -0.14725175 -0.059022814 0.015378434 -0.19897318 -0.033700604 0.24701805 -0.07193339
-0.065457605 -0.061543643 0.005509399 -0.19952987 -0.07481806 -0.148301 0.29892617 0.020623947
0.6789176 0.13248914 -0.19531891 -0.116710216 0.28048724 0.14543454 -0.07998184 0.055784594
-0.10323458 0.016645709 0.114195436 0.112269394 -0.10986084 -0.049248714 0.21023832 0.07314706
0.06584628 -0.03525636 0.014351146 -0.107557744 0.16526648 -0.08654262 0.099612296 0.12569875
0.015132974 -0.15914051 0.052678145 -0.09203835 0.02764338 0.20027533 -0.13775057 0.08099099
-0.17305116 0.18548815 -0.20025167 0.08579862 -0.32270443 -0.09345239 -0.21274528 0.151871
-0.09640701 0.13267885 -0.0682666 -0.026145108 -0.13384798 -0.12789969 -0.019212926 0.13183923
-0.054015636 0.014179664 -0.097548984 -0.12401852 0.0111023495 -0.02055896 -0.004606506 0.03487767
-0.13512261 -0.08199913 0.08197797 -0.3219282 0.046848092 -0.38620326 -0.05350514 -0.09704749
0.075211085 0.17773584 -0.20174463 -0.2501819 -0.18752232 0.23312995 -0.15472777 -0.08658633
0.13552633 0.028524844 0.03454304 0.27168813 -0.07225713 -0.062829375 0.16924046 -0.12171643
-0.33341482 0.053565484 0.21137667 -0.038379766 -0.053683337 -0.17564853 0.3380491 0.14362478
-0.056295123 -0.16203886 0.14480393 -0.42116714 -0.14789681 0.0136450175 -0.16521545 0.5653066
0.2327553 0.113745406 0.039821126 0.23059754 0.08385195 -0.28094086 0.045033444 0.10917046
0.123743966 0.38991398 -0.08323653 0.09944702 -0.01779879 -0.041891724 -0.21454081 -0.30399218
0.37047008 -0.028257122 0.022861173 0.033809528 0.09183898 0.18771838 -0.04821693 0.08095218
-0.21649572 -0.07840337 -0.5414036 -0.24418089 -0.3801695 -0.30776063 0.21813072 -0.3008044
-0.0016161989 -0.31795177 -0.08506392 0.11978715 -0.1525348 0.093936644 0.1087719 0.008651423
0.26883632 -0.07964404 0.03272164 -0.042914692 0.012713329 -0.3814886 -0.2747595 -0.012237038
0.1759567 0.39792508 0.016643865 0.077802934 0.118398845 -0.20737909 0.00043777848 0.31452665
-0.009505311 0.29487154 -0.06458467 0.6062279 -0.31160322 0.37036228 -0.024206834 0.094668835
0.045161672 -0.0070993914 -0.0098673 -0.015578618 -0.041893546 -0.008362837 -0.0075009866 0.0014346191
-0.21284056 0.05093258 -0.05625353 0.0075672446 0.036120366 -0.023287458 -0.035764657 0.0019087058
0.020545721 0.00852171 -0.0025715625 -0.01578952 -0.00012085804 -0.07827433 0.0061544026 0.014240408

net.0.bias f4 [256]
00000000: ed2b 5cbd 15f0 9dbe 9752 85bf 217a 7ebe
00000010: ae72 bebe 9468 21be 32ad 48be 9efd 33be
00000020: f296 04bf 1b56 c9be 77cf c0bd 7d6b eabe
00000030: 3c0f a9be 0ab6 80be 4ce1 79be 2673 a9bd
00000040: bd10 c3be 0529 d1bd c85b efbd fc10 84be
00000050: 785a a1be d392 4ebe 5ad7 b5be 84c6 4bbe
00000060: 4695 833b 9080 7cbe db5a 85be 8a9b c8bd
00000070: b9e1 36be 9385 aebd 38dd 98be 5883 35be
00000080: b38d 9bbe 566d 08bf 889a bebe 0b2d a6bd
00000090: 43a9 3ebe e051 bbbe 6939 dabe 7bd1 ffbe
000000a0: 3584 e6be 1201 633d 6a2b 6abe c841 d6be
000000b0: 9305 09bd c84a a3be 1473 cebe 06fe afbe
000000c0: 75d8 bcbe 5e9c 7ebd 32df afbd 3f46 86be
000000d0: 360f 8dbe 8e65 cbbe 0ab4 a3be df3a f6bd
000000e0: 7830 e1be a8ad dbbd 4736 053c 60aa eebe
000000f0: 3c24 c6be f3c6 3ebe addf 2cbe 12a9 0fbe
00000100: e6c0 9cbe 83c5 75be e57e 99be aecd 8abe
00000110: 4910 0fbe bed7 88be cdce 99be 5fe7 a8be
00000120: 4a21 6ebe 6172 8fbe 9eda 43be 539f 80be
00000130: 97d4 b0be 92a6 4bbe a1ab 12be 8382 0bbe
00000140: ff99 22be 1c90 8ebe 832a 98be eb6b 38be
00000150: d501 a2be c397 4cbe 2022 64be d200 08bf
00000160: 664c bebe fc9d 09be 6fd0 30bf 7241 64be
00000170: b244 27be e591 88be 81f4 31be 768c 99be
00000180: 3fbd 42be 3ed4 79be e026 d6bd daf2 ebbe
00000190: 8401 7cbe fe1c cbbe d1ff 7fbe 6137 a7be
000001a0: e86b 1cbe 8c5d a9be 170e c7be 0b90 31bd
000001b0: 43d7 abbe 4c0a 49be fcec 6ebe b74e 94be
000001c0: b3d7 31be 3358 bdbe b7af 6dbe 370c f8be
000001d0: 6ed2 a7be 66bb d9bc c3fb dabe aca4 a4be
000001e0: 42ae 94be e15b 9ebe 3627 b4be 0580 0fbf
000001f0: 4328 b4be 76e5 79be e72e 38be d915 d2be
00000200: 246e bdbe 55f8 87be 4f5b 4fbe b6c5 12be
00000210: b34a 14be b669 ccbe 566c 04bf db27 ebbe
00000220: 12cc c0be 317c 60be 9bdf e4be 6462 26be
00000230: 6720 e1be c90a 85be b87d 57be ff6c 97be
00000240: aa1f a4be 44e4 f8be b9e7 15bd 3a2c 9fbe
00000250: c8aa 78be ca02 64be 020e a2be 5f68 03bf
00000260: 46c9 0cbe 3f42 b0be 7b15 44be c346 99be
00000270: ec00 4fbe 6597 41be 4827 a5be 8524 60be
00000280: 017c 19be 20f1 6bbe a0bd a0be 43f9 40be
00000290: 2f30 82be 06d8 a8be 23d6 bbbe 65fe 89be
000002a0: 9f52 b8be 2a8d 84be e8e6 1cbe 7d3a 9abe
000002b0: aeee 61be c16d 49be f51d f8be b721 cabe
000002c0: 0f15 92be 668d 0ebf 01b2 d0be a506 d1be
000002d0: b356 95be 637e 38be 2989 99be 8012 d7be
000002e0: 6c16 aabe c6b5 13be b460 c6be 6ab8 cfbe
000002f0: 365b 4cbe ea97 23bf 3410 7abe c056 58be
00000300: 0dde dabe 287a fcbe 376e cabe f08a 59be
00000310: 0c97 36be 5280 91be 42e7 81be bc76 5dbd
00000320: cb5d 97be 0e6d 37be fbd3 b6be 61d2 4abe
00000330: d01d e9be a714 e2bd 2fc5 72be d686 88be
00000340: 9da6 83be 5b68 38be 9246 15be 7c4f 35be
00000350: 8a6f 06bf 129c 77be a6cb 83be 6ba3 9cbe
00000360: a9f1 e0be 9a18 6cbe 2884 24be d473 39be
00000370: 6849 80be 741c 6bbe 7616 2abe 263d aebe
00000380: 2e9a 7ebd 2b1b 80be fef1 62be 99b2 b7be
00000390: b2ce 8dbd 2a8d 9cbe 4633 67be f806 72be
000003a0: 3298 60be 7c8c 0ebe 5751 21be e2b8 31be
000003b0: c8b4 6bbe 9e5a 0fbe 4ce3 85be 10b9 31bf
000003c0: 8f19 6dbe 49a8 12bf 494d 15bf 4152 8abe
000003d0: dd55 8cbe cb18 bd3c c74e bcbe c1b5 aebe
000003e0: c29d 46be 2c78 01bf 1158 54bf 413a dabe
000003f0: 5865 84be d5f2 cdbe 7d04 19be 1006 29be
-0.05375283 -0.3084723 -1.041583 -0.24851276 -0.3719687 -0.1576255 -0.19597319 -0.17577216
-0.51792824 -0.39323506 -0.09414571 -0.45785132 -0.33019435 -0.25138885 -0.2440235 -0.08273916
-0.38098708 -0.10212902 -0.11687428 -0.25794208 -0.31514335 -0.20173196 -0.35515863 -0.19899946
0.0040155975 -0.24658418 -0.2604588 -0.09795292 -0.17859544 -0.08521571 -0.29856277 -0.17725885
-0.30381545 -0.53291833 -0.37227273 -0.0811406 -0.18619256 -0.36585903 -0.42621925 -0.49964508
-0.4502274 0.055420943 -0.22868124 -0.41847062 -0.03345258 -0.3189299 -0.40322173 -0.34373492
-0.36883894 -0.062160842 -0.08587493 -0.2622547 -0.27550668 -0.39725918 -0.31973296 -0.120229475
-0.4398229 -0.10726482 0.0081306165 -0.4661436 -0.3869952 -0.1863058 -0.168822 -0.14029339
-0.3061592 -0.24001126 -0.29979625 -0.27110046 -0.13971056 -0.26727098 -0.3004059 -0.32989022
-0.23254886 -0.28016952 -0.19126365 -0.25121555 -0.34537193 -0.1988776 -0.14323284 -0.13624005
-0.15879057 -0.27844322 -0.29719934 -0.18009917 -0.31642023 -0.19979768 -0.22278643 -0.5312625
-0.37167662 -0.13439173 -0.69068044 -0.2229059 -0.16334799 -0.2667381 -0.17378427 -0.29989976
-0.19017504 -0.2439737 -0.104566336 -0.4608372 -0.24609953 -0.39670557 -0.2499993 -0.32659438
-0.15275538 -0.33079183 -0.38877937 -0.04335026 -0.3356267 -0.19632834 -0.2333259 -0.28966305
-0.17367439 -0.36981353 -0.23211561 -0.4844682 -0.32777733 -0.026578616 -0.42770204 -0.32156885
-0.29039198 -0.30929473 -0.35186166 -0.5605472 -0.35186967 -0.24403939 -0.17986642 -0.41032293
-0.36998093 -0.2655665 -0.20249675 -0.14333233 -0.1448162 -0.399244 -0.5172781 -0.45928845
-0.37655693 -0.21922375 -0.44701847 -0.1624847 -0.43970034 -0.2598479 -0.21044052 -0.29575345
-0.32055408 -0.48611653 -0.03659794 -0.3108843 -0.24283898 -0.22266689 -0.31651312 -0.5133113
-0.13748655 -0.34425542 -0.19148819 -0.299368 -0.20215195 -0.18905409 -0.32256532 -0.21888931
-0.1498871 -0.230412 -0.31394672 -0.18845086 -0.25427386 -0.32977313 -0.3668681 -0.269519
-0.36000535 -0.2588895 -0.15322459 -0.30122748 -0.22063705 -0.19670774 -0.48460355 -0.39478847
-0.2853169 -0.55684507 -0.40760806 -0.40825382 -0.2916771 -0.18016963 -0.29987457 -0.42006302
-0.33220232 -0.1442481 -0.38745654 -0.40570384 -0.19956669 -0.6390368 -0.24420244 -0.21126842
-0.42747536 -0.49311948 -0.39537212 -0.21244407 -0.17831057 -0.28418213 -0.25371748 -0.054068312
-0.29563746 -0.17912695 -0.35708603 -0.19806816 -0.45530558 -0.11039095 -0.23708032 -0.26665372
-0.25713053 -0.18008558 -0.14577702 -0.17706102 -0.52513945 -0.2418063 -0.2574131 -0.30593428
-0.43934372 -0.2305626 -0.16066039 -0.18110591 -0.25056005 -0.22960073 -0.1661013 -0.34031028
-0.062158756 -0.25020728 -0.22162625 -0.35878447 -0.069241896 -0.3057645 -0.22578153 -0.23635471
-0.21933058 -0.13920778 -0.15753685 -0.17355683 -0.23018181 -0.13999411 -0.26149976 -0.6942301
-0.23154281 -0.5728803 -0.5832105 -0.2701588 -0.27409258 0.023083111 -0.36778852 -0.34123042
-0.19396117 -0.5057399 -0.8294688 -0.4262257 -0.2585857 -0.4022433 -0.14943118 -0.16506219

net.2.weight f4 [256, 256]
00000000: 6279 54bd 11b9 673d 4fb3 a13e e4b1 973e
00000010: 8917 a2be d8ea a93e 8f7b 64be 1c37 af3e
00000020: c988 5bbe 6398 afbd b883 a4be f3f0 c03d
00000030: 88c8 983e 7050 473e 5057 bc3d b9a1 4cbe
00000040: b5c7 30be 67b2 183e 12bc a4be 079a 69be
00000050: d86b a4be d844 f5bd e7cc 72bd 8336 e0bd
00000060: a69d 83bd c4db 07be 280f 88bb 1606 10be
00000070: 884d 54be 37ed 88be df49 01be 5cf7 103c
00000080: 27a2 b33d f217 273c f76a b6bb 4d6e cbbc
00000090: 9fb0 333b 7167 883e d6e2 aebd 9db5 88ba
000000a0: dcdb a53c 7dbb 1fbe 2934 343d dc8f 7a3d
000000b0: 287e c8bd 3920 abbd c9e9 073e ebe5 f93d
000000c0: 2e7b a93e 1c23 b4bd f28d 7bbd 6f34 b6bd
000000d0: 4ccd 6dbd 17eb af3d 9500 0a3e 68db da3d
000000e0: 8a78 6dbd 077f 15bd 7845 adbd 9b6b 45be
000000f0: 9073 dbbd 0742 3e3d 9d4f 193d 2e17 24be
00000100: 6839 dbbd 6db0 16be a03a 0dbd a28b 9b3c
00000110: 480e ccbd b20f 2bbe 9825 473e f57e 2fbe
00000120: 2a5d 9fbe 4c6b 073e 82d6 173e a122 d0be
00000130: a3a6 673b 50cf cfbc 1aa7 023e ab47 063c
00000140: 1118 443d e62b 543d 6653 023e 366b 42bc
00000150: 7cbf d4bd c190 81be 96d3 e9bc 68ed 253e
00000160: 6a33 71bd db7f 12be feeb 723e 633a 09be
00000170: 1cc5 ddbd 9812 e8bd 033b ab3e d854 743e
00000180: 7ed2 143e 463f c43e dab8 b9bd c979 5f3e
00000190: 9d78 b9be a298 1a3e 3f16 c7bd 94d9 1a3e
000001a0: f642 0e3e b0f7 b0bd f4b3 a23d 6e59 f5bd
000001b0: d1c4 a83e d2ec 6bbe 2052 71be 77f4 84bc
000001c0: 6aa1 98bd 6c3c 63bd 77e8 6abe bb6d d2bd
000001d0: ea27 033f 41b9 9fbd 83b3 99bc 1173 a2be
000001e0: 04a0 91be 6be6 babe e278 533e ab4c 353e
000001f0: ada9 54bd 1352 58bd 871f a5be a7a5 c53b
00000200: b57e 803d bc13 7abc d807 183d a64a 2fbc
00000210: 4975 7abd b2f1 48be 4654 70be fa89 883e
00000220: b8ef 933c bb2d ea3d 958b 0fbe 8e62 6bbe
00000230: 6c9b 4bbe 90a2 09bc 028f b3bc 8bf2 c9bd
00000240: eb94 003e db64 22bd 09f0 a1be eb22 3dbe
00000250: 2485 803e be1a 70bd 859b 40be 62a0 de3d
00000260: e037 01bd 1976 ac3e 5311 ecbc 20a8 19be
00000270: 5c8d 1abd 77f6 3bbe fca7 ac3d ca33 403e
00000280: 33a2 2bbe 4e3b 983e de5f 7cbc 0be7 f43d
00000290: 5ade cbbc c132 723e 9723 a03d e7f6 a6bd
000002a0: 51b2 ae3d ab68 b33c ccf6 81be 7a6a 0cbe
000002b0: ad91 053e fae3 65be 3eb2 123e 5d72 083d
000002c0: a694 10bb b545 a3be cc1c 92bd 74b6 d2bd
000002d0: 37fd 05be 02aa 3b3e 7b51 fd3a 855b e13d
000002e0: 5a1f a0bd 05d6 0ebe 383f cf3e f75a 67be
000002f0: 1ee4 9e3d 6a34 643e 38e0 efbd 7b90 d1bd
00000300: fa70 5fbe 8560 3fbc 951b afbe c99f 09be
00000310: 597c a3bc 08fc 133e aa8a 04be bc41 f4bb
00000320: 78fb 1cbe 6cad 433e bcd5 a73c 084c 393e
00000330: eaaa 88be 20e2 84bb 7e95 1dbe a0e2 edbd
00000340: add5 a83d 14d7 14bd 4ce5 a3bc 6a45 de3c
00000350: 5b12 963e 730c e53d 02e8 4f3d 135b 8e3e
00000360: 4f0f df3b e682 883e d448 26be 0e57 643e
00000370: 242d 91bd 1ae5 dd3d 855b 0fbe 23c8 6ebe
00000380: 6958 28be 7b37 38be 09ad b4be f5f5 883e
00000390: 4ea0 3abe 1568 333e cc4c e0bd 5742 55be
000003a0: c2c3 e7bb 3e47 b7bd efca 2abe 3259 873e
000003b0: a29d f9bd 1b7e 713e 0565 9a3e c2e5 183e
000003c0: 7529 5dbe 2235 ac3e 2292 babd f0bc 28be
000003d0: bddb b5be c8dc 23be d56f a83e 5da7 58be
000003e0: 2386 0c3e 1598 483d d538 d43e 1ed2 413e
000003f0: 56a9 d63c 428e 123e 9c10 5bbe df40 f63d
-0.051873572 0.056572977 0.31582114 0.29627907 -0.3165858 0.33186984 -0.22312759 0.34221733
-0.21438898 -0.08573987 -0.32131743 0.094209574 0.29840493 0.19464278 0.09196341 -0.19983567
-0.17263682 0.14911805 -0.32174736 -0.22812663 -0.32113528 -0.119760215 -0.05927744 -0.10947897
-0.064265534 -0.13267428 -0.0041521974 -0.14064822 -0.20732701 -0.2674348 -0.12625836 0.008848038
0.087711625 0.01019858 -0.0055669504 -0.024832869 0.0027418507 0.2664142 -0.08539359 -0.0010430102
0.020246439 -0.15598865 0.043995056 0.06117235 -0.097896874 -0.08355755 0.13272776 0.122020565
0.3310179 -0.08795759 -0.061414666 -0.0889672 -0.058057114 0.08589762 0.13476785 0.1068638
-0.057976283 -0.036498096 -0.08460516 -0.1927933 -0.10715401 0.046449687 0.03742944 -0.16024467
-0.10704309 -0.14715739 -0.034479737 0.01898748 -0.099636614 -0.16705206 0.19447935 -0.17138274
-0.31125766 0.13224524 0.14827922 -0.4065142 0.0035347126 -0.025367409 0.12759057 0.008195798
0.047874514 0.051799677 0.12727126 -0.011866381 -0.10388085 -0.2530575 -0.028543275 0.16203845
-0.058886923 -0.14306585 0.23722836 -0.13401179 -0.10828611 -0.113316715 0.3344346 0.2386049
0.14533421 0.38329524 -0.09068461 0.21823801 -0.36224833 0.15097287 -0.0972104 0.15122062
0.13892731 -0.08640993 0.079444796 -0.11979948 0.3296266 -0.23039559 -0.23566484 -0.016229851
-0.07452662 -0.055477545 -0.22940241 -0.10274836 0.5123278 -0.07799006 -0.018762356 -0.31728414
-0.28442395 -0.3650392 0.20651582 0.17705028 -0.051919628 -0.052812647 -0.32250616 0.00603171
0.062741674 -0.015263494 0.037116855 -0.01069895 -0.061147008 -0.1962345 -0.23469648 0.26667768
0.018058643 0.11434504 -0.1401809 -0.22986814 -0.19883507 -0.008400574 -0.021918777 -0.098607145
0.12556808 -0.039646965 -0.31628445 -0.18470351 0.25101578 -0.058619253 -0.18809326 0.10870434
-0.031547427 0.3368385 -0.028816855 -0.15005541 -0.037732467 -0.18355738 0.08430478 0.18769756
-0.16761093 0.29732746 -0.015403716 0.119581304 -0.024886299 0.23652174 0.07819288 -0.08152562
0.08530105 0.021900496 -0.25383604 -0.13712493 0.13043852 -0.22450247 0.14325806 0.03331219
-0.0022061258 -0.3188912 -0.07134399 -0.102887064 -0.13084875 0.18326572 0.0019326651 0.11003784
-0.0781848 -0.1394883 0.4047792 -0.22593294 0.07758354 0.2228562 -0.11712688 -0.102326356
-0.21820441 -0.011680727 -0.3420073 -0.1343986 -0.019956755 0.14451611 -0.12943521 -0.007454125
-0.15330303 0.19109124 0.020487659 0.1809541 -0.26692897 -0.0040552765 -0.15389058 -0.11615491
0.082438804 -0.036337927 -0.020006798 0.027132709 0.2931088 0.11184015 0.05075837 0.2780386
0.006807245 0.26662368 -0.16238719 0.22298834 -0.07088688 0.10834713 -0.13999756 -0.23318534
-0.16439976 -0.17989914 -0.35288265 0.2675015 -0.18225214 0.17520173 -0.10952148 -0.20826088
-0.0070728967 -0.08949135 -0.16678976 0.26435238 -0.12188269 0.23583262 0.30155197 0.14931396
-0.21597846 0.33634287 -0.09109904 -0.16478324 -0.3551921 -0.1600219 0.3289782 -0.21157594
0.13723044 0.04897316 0.4144961 0.1892781 0.026203793 0.1431208 -0.21393055 0.12024092

net.2.bias f4 [256]
00000000: 8e2f 87be 9bf8 91bd 5290 28be 6809 dcbe
00000010: 6ab8 7dbc c190 f9be f3f4 8dbe edf0 42be
00000020: 527f 283d 1e07 c1bd 6df5 15be 5b33 a1be
00000030: ad04 a8be af84 82be 57be 9cbd 246b 4bbe
00000040: bb51 37be d4d8 cd3d c02f 643e 7c9f b7bf
00000050: 7018 adbe 2357 d03c 51c8 62be bad7 8abd
00000060: d3c2 23bf 3e82 b5be 3dc6 94be 8085 c3be
00000070: 1f20 6abe 6484 fcbe b39e 4a3c 97da 63be
00000080: 5046 edbe 6e2b 74be 064b debc 6b3c 00bd
00000090: b5e4 0dbe 3235 36be 11f4 9e3e a67c f1b9
000000a0: 63a3 acbe 1f83 f13e c531 97be 009e e6be
000000b0: c566 c9be 50a5 abbd 55db 7dbe 2938 dfbd
000000c0: e32e f1be 0eb9 e13c 71bf 503d 6962 40be
000000d0: acab 903d 00de 1bbe 5b5d f5bd ab86 e1bd
000000e0: e99b e63d 56a1 0fbd 55fd 4c3d 4bb8 17be
000000f0: 9202 89be 6597 90be 7992 5dbe 2a28 efbd
00000100: 0ad6 25bd 85b7 f33d 4258 d2bc 3f83 90be
00000110: 06b1 f9be 1d8e f2bd 19df 9fbe 2c4a 77be
00000120: 55b3 36be 4fe2 8dbe 8944 49bf 544d 07bf
00000130: baa5 2fbf ccc9 d73d 8bcd 0bbe b177 72be
00000140: ccfb 26bf daa7 b7be a283 86be 1588 82be
00000150: 4bcb 6f3c fcbb 5f3a b2c2 c93d 4e7c 5abe
00000160: b122 93be b17c 91be cfbf 873d e54d 01be
00000170: 8467 f5bd fcb9 00bf 751a 3cbf 1069 01bf
00000180: cad3 8dbe 5bfa a3be fc57 c5be 6c7d 9cbe
00000190: 7ee0 33bf 9fa1 27be 77a7 04bf 4efa 24be
000001a0: dd8a 313c 4183 b4be dc1e e4be 2dfb 06bf
000001b0: d7bf 5dbe b663 eabd 6244 42be 0385 b43e
000001c0: c55a 5dbd e1eb 2ebf c48b 38be 3f0e 393c
000001d0: 542e 75be 9da6 c7be 1052 ffbe aade 10bf
000001e0: c4e7 cebe 4e96 30bf d077 cebe 096a 9ebf
000001f0: d8be 5cbf 7ea1 a7bf d6d5 23be edf1 f03d
00000200: f64a 43be cafb 4abe 3704 82bf cc7a 8bbe
00000210: ea21 3abd a434 96be 328f b3be 5376 a43c
00000220: f425 ac3e 4590 68be 708d 94be 35a2 7ebe
00000230: ea69 edbe d5f6 89be 8ebf 5dbe d1cc a7be
00000240: 6a34 dfbd aab6 dcbe 9244 12be 2831 a6be
00000250: 07c2 bebe 1f45 24bf 9ed8 4cbe 0a67 a3be
00000260: 011a 7ebe 4eed e8ba 1d8c 58be eae0 adbe
00000270: eb5c c2be eb2f 80be 89df 3cbe 4320 0fbe
00000280: ead0 80be 37c7 d2bd 69d8 2bbe b832 15be
00000290: 199d 03bf 8c26 3fbe 43a5 39bc d3f0 11be
000002a0: ee3f f8be 4553 9fbe b4f4 3cbf 36f2 ffbd
000002b0: 7657 62be 3fa7 45bf 9a32 20be 3286 8fbe
000002c0: 7f75 71be 0c68 b6be 2408 41be c80b 07be
000002d0: 7d47 f23c abca 00bf c560 bcbd a947 76bd
000002e0: d70f 95be 91bf 45be 1b3b cabe db87 27bf
000002f0: 3a36 94bd 2ff5 44bf 885a 27bf 2cea a5be
00000300: c231 7dbe 7720 bfbe 3b3b 0ebe dcd6 18bd
00000310: e3a0 88b9 1f81 ef3d f9e5 66be d223 d9be
00000320: af5c 5bbe 7ec9 963e 413e 71be 8f15 0fbe
00000330: c4a9 78be 95f1 dbbe 4039 b6be 4c27 6dbf
00000340: c98a 12bf a9fe 0dbe a87e 8fbd e7ed 29be
00000350: 6f6e 0ebf 51dd 42bf 8736 c33c bdbd 8fbe
00000360: c2d3 38be a21b 9fbe 639b 67be a53c febd
00000370: e694 fbbe ca69 503e a600 68bf 2496 0ebf
00000380: bddc 6fbe 43d6 93bb a591 3bbe 8487 91be
00000390: 9ba9 c0be a920 1ebf e35e 95be 23b9 e1bd
000003a0: a418 c8be a63b 67be 812e 05bf b002 ddbe
000003b0: 5738 83be 1ab1 28bf e86c a8be 1ef2 e0be
000003c0: c680 83be b9ef 86bd 4640 e8bd 79b3 c2be
000003d0: 32a5 333e 2790 88be 35aa 8fbe 3b6d 82be
000003e0: eb43 adbd 1626 3bbe 2aea 32bf 1213 9dbe
000003f0: fd1e 173d 5d75 88be 245b 453e 545f 98be
-0.2640347 -0.07127496 -0.16461304 -0.42975926 -0.015485862 -0.4874325 -0.27725944 -0.19037218
0.041137047 -0.094251856 -0.14644404 -0.31484494 -0.32816067 -0.25491855 -0.07653492 -0.1986509
-0.17902271 0.10051122 0.2228384 -1.4345546 -0.33807707 0.025432175 -0.22146727 -0.06779428
-0.63969153 -0.3545093 -0.29057494 -0.3818779 -0.22863816 -0.49319756 0.012366938 -0.22251354
-0.46342707 -0.23844692 -0.027135383 -0.03130762 -0.13856776 -0.1779373 0.31045583 -0.00046059972
-0.33718404 0.4717035 -0.2953016 -0.4504242 -0.3933622 -0.0838114 -0.247907 -0.108993836
-0.47106084 0.027554061 0.050963823 -0.1878754 0.07063994 -0.15221405 -0.11980697 -0.11012014
0.11260206 -0.03506597 0.050046284 -0.14816396 -0.26759773 -0.28240505 -0.21637906 -0.116775826
-0.040487327 0.11900238 -0.02567685 -0.28225133 -0.4876787 -0.11843512 -0.31224898 -0.24149388
-0.17841847 -0.27711722 -0.786202 -0.5285237 -0.68612254 0.105365366 -0.13652627 -0.23678471
-0.6522796 -0.35870248 -0.26272303 -0.25494447 0.014635871 0.0008534787 0.09851588 -0.21336481
-0.28737405 -0.28415444 0.066283815 -0.1262737 -0.11982635 -0.5028379 -0.7347787 -0.5055094
-0.27700645 -0.32026944 -0.3854369 -0.3056444 -0.7026442 -0.16370247 -0.5181803 -0.16111109
0.01083633 -0.3525639 -0.44554794 -0.52727014 -0.21655212 -0.114447996 -0.18971398 0.3525773
-0.054041643 -0.6832867 -0.18022066 0.0112949 -0.23943454 -0.38994303 -0.49867296 -0.5658976
-0.40411198 -0.68979347 -0.40325785 -1.2376109 -0.86228704 -1.3096159 -0.1599954 0.11764894
-0.19071564 -0.19822612 -1.0157536 -0.27242124 -0.0454425 -0.29337037 -0.35070187 0.020075953
0.33622706 -0.22711284 -0.29014158 -0.24866565 -0.4636987 -0.2694613 -0.21655104 -0.3277345
-0.10898669 -0.43108112 -0.1428397 -0.32459378 -0.37257406 -0.6416797 -0.20004508 -0.3191455
-0.24814607 -0.0017770918 -0.21147199 -0.33960658 -0.37961516 -0.25036559 -0.18444647 -0.1397715
-0.2515939 -0.102919035 -0.16781773 -0.14570129 -0.51411587 -0.18667048 -0.011330905 -0.14252023
-0.48486274 -0.31118217 -0.7381089 -0.1249737 -0.22103676 -0.7720832 -0.15644303 -0.2803207
-0.23579977 -0.35626256 -0.18850762 -0.13188088 0.029575104 -0.50309247 -0.09198145 -0.060126934
-0.29113647 -0.19311358 -0.3949822 -0.65441674 -0.072369054 -0.7693662 -0.65372515 -0.3240522
-0.24726012 -0.37329456 -0.13889782 -0.03731428 -0.0002605981 0.1169455 -0.22548665 -0.4241014
-0.21422075 0.294506 -0.23558904 -0.13973068 -0.2428351 -0.4295775 -0.35590553 -0.9263809
-0.5724302 -0.13866676 -0.0700658 -0.16594659 -0.5563726 -0.7611895 0.023829712 -0.28074446
-0.18049529 -0.3107577 -0.22617869 -0.12413911 -0.49137038 0.20352855 -0.9062599 -0.55697846
-0.23424049 -0.004511626 -0.18317278 -0.28423703 -0.376294 -0.61768585 -0.29173955 -0.1102164
-0.390813 -0.22581348 -0.52024084 -0.43166113 -0.2562892 -0.65895236 -0.3289559 -0.4393472
-0.25684184 -0.06588692 -0.11340384 -0.38027552 0.17543486 -0.2667248 -0.28059545 -0.2547396
-0.0846022 -0.18276247 -0.69888556 -0.30678612 0.036894787 -0.2665204 0.19273049 -0.2976023

net.last_linear.weight f4 [4, 256]
00000000: 2ac4 633d a98b b13d 04fe 533c 1764 8f3d
00000010: 6eb2 903d bb9a fcba 80ae 4a3d c818 b7bc
00000020: 399f 0dbd 1aa1 37bd b706 343d e00e 8b39
00000030: 21e1 833d ed4d 763c 67c5 08bc ce8f 93bc
00000040: 18c5 8c3d 4c04 133d 8238 a8bd c2d0 173d
00000050: 3240 68bc 4105 9ebc 74e2 07bd c769 dfbd
00000060: 1ffa b43c 36cf a4bc bc2b 2abd e2a5 a7bd
00000070: 31d7 bbbd 7a6b 2cbd 564b c83d fe13 b1bd
00000080: 6c65 843d 0ce7 b73d 76ad b3bc 473f 0b3d
00000090: 4980 f33c f3f2 6bbd d8a8 863d 1d50 723d
000000a0: cf1f a83d 250c 0c3d 6290 c0bd 370a 5bbc
000000b0: a866 33bc 3d19 acbd fff0 29bc 0b06 1a3d
000000c0: 460b 2dbd 386c 8f3d 29ce 363d 6bfd a73d
000000d0: 763a 143c 2f44 983d 7b03 443d 69dc c2bc
000000e0: 6f50 36bd 59a5 63bd e79a 5b3d efd0 c83d
000000f0: ff85 2dbc 7892 22bd 0046 8c3d c435 c83d
00000100: 3acb ef3c 7c23 dbbd 7338 7f3d 79a6 003d
00000110: 861c 32bc 414d 9cbd 786a 813d d341 66bd
00000120: ba55 a9bd a129 35bd 446d 3cbd 86e2 01bd
00000130: a3a2 a0bd 13fc a73d 48b7 c43a a989 c9bd
00000140: e845 9bbc 912a 60bd c33b 983c 2375 d4bd
00000150: 4d90 dd3d 9571 51bd f5e9 bb3c 7e18 70bd
00000160: 9c73 bcbd f061 6d3d 995f 253d 592e 21bd
00000170: 6f8c 8b3c e435 063d ae6a b4bb f8c5 053d
00000180: 8f62 96bc 64f8 34bd b00a 6a3c 0367 3c3d
00000190: 602e 7cbd 6dbc 44bd 0032 963d d08f 82bd
000001a0: d417 edb9 7d8d 983c 7024 22bd d235 c1bd
000001b0: 6fbd 8c3d 8cfd 3a3d 51eb 9a3c 99a0 bfbc
000001c0: 5d69 3dbd 4b47 babd b5a4 113d dfcf 653d
000001d0: b044 6c3d b684 6fbc 4ca2 62bd b2df e1bc
000001e0: 417c 943d 9b40 65bc bfdc 54bd 7529 13bb
000001f0: 2ccc 0dbd 25b6 6fbd f230 fe3d c0e7 993b
00000200: fb29 77bd 59f5 463d 0260 3bbd a3a4 813c
00000210: ba68 42bc ef8c 90bc 0239 d2bd cbc9 0abc
00000220: ae9d 8dbc 4f59 82bd f524 b9bd 1b46 8b3c
00000230: 49e2 96bc 9646 ac3d bd96 9a3d fc75 813d
00000240: ae03 b73c 53b3 b4bd 8761 cf3c 2d23 b93d
00000250: 63ac af3c 667e 4b3d a7ce eebc 2c33 c13a
00000260: 7680 513d 4d35 1cbc d6c8 a7bd c98c 9d3d
00000270: 47ff e5bd 85e0 483d 1911 833d 726c a03c
00000280: 4fe4 4d3d d0f1 8f3d 341a 12bd 3fa1 e63c
00000290: 5c30 70bd 0288 6e3b 5c9a 593b fd7a b13d
000002a0: 51e7 46bd 123d 96bc 3a7b b0bc b0fb 9abd
000002b0: ecda 82bd 70cc aabd 9310 0c3d 0573 d9bd
000002c0: e52c 22bd c44f f8bc 8294 713d 0110 423c
000002d0: d204 98bc 033e 343d cc8e fcbc bafc 6cbd
000002e0: 4915 bf3d 9279 9a3c 5ebc e5bc a83e 47bd
000002f0: 6a9e 0e3d b8ad 8dbc d333 52bd 7a7d 28be
00000300: 4188 62bd 024d 1fbc 6de1 803d a219 913d
00000310: dafb c13d 72cd 1bbc 17d3 653c dffd 863d
00000320: 49fb 07bd e83d a13d 6ce0 04bd 009c 5c3d
00000330: afd4 ebbd 91a0 9f3b df78 b73c 3863 27be
00000340: 5766 e7bd a72e 8f3d f389 6c3d 3a64 a53d
00000350: 2d0d 05be 9fee 323c 205c 1a3d b952 aabd
00000360: 6e83 0c3d 6cc9 44bd 462b 643d f528 a73d
00000370: 5dc5 943b b917 19bd c1bb 95bd 4769 a93d
00000380: 57ca 883d 4d51 24ba e912 1fbd 634d 9cbd
00000390: de2c d23a 0d32 0abd 645c 5bbc 8baf 733b
000003a0: d24a 8c3d a58d 06bc af73 81bd 14ac ddbd
000003b0: 2766 2b3c 3183 adbd 084e 4ebd b572 e13a
000003c0: 1646 efbc febc 06bc 1c58 78bc 1eb8 833d
000003d0: 6275 3d3d be3b 74bd 871a a03d 2b30 86bd
000003e0: 1623 893d 7379 333d af74 babd 5582 a5bd
000003f0: fc80 02bd d293 963c ca53 5b3d 4475 593d
0.055607 0.08669216 0.01293898 0.070015125 0.07065283 -0.0019272187 0.049482822 -0.022350684
-0.034575675 -0.044831373 0.043951716 0.0002652323 0.06439424 0.015033227 -0.008347846 -0.018012907
0.0687353 0.03589277 -0.08213903 0.03706432 -0.014175462 -0.019289615 -0.033174947 -0.10908847
0.022091923 -0.020118337 -0.041545615 -0.081859365 -0.09171904 -0.042094685 0.09779994 -0.08646391
0.06464657 0.089796156 -0.021933299 0.033995893 0.029724257 -0.05760474 0.06575173 0.059158433
0.08209192 0.03419127 -0.09402539 -0.013369135 -0.010949768 -0.08403251 -0.010372399 0.03760342
-0.04224708 0.07003063 0.044630203 0.082026325 0.009047141 0.0743488 0.04785488 -0.02378674
-0.0445103 -0.05557761 0.053614523 0.09805476 -0.010591029 -0.039690465 0.06849289 0.0977588
0.02927171 -0.107001275 0.062309694 0.03140876 -0.010871058 -0.076319225 0.063191354 -0.05621512
-0.08268304 -0.044229154 -0.04600264 -0.03171017 -0.078435205 0.08202376 0.0015008235 -0.0984071
-0.018954232 -0.054728094 0.018583184 -0.103739046 0.10818539 -0.05113371 0.022938708 -0.058617108
-0.09201738 0.05795473 0.040374372 -0.03935084 0.017034737 0.032766238 -0.0055058813 0.0326595
-0.018357543 -0.044182196 0.014284775 0.045996677 -0.061567664 -0.04803126 0.073337555 -0.06375086
-0.00045221916 0.018622154 -0.03958553 -0.094340935 0.06872069 0.045651957 0.018911036 -0.023392009
-0.04624306 -0.09095629 0.035557467 0.056106444 0.057682693 -0.014619043 -0.05533056 -0.027572487
0.07250262 -0.013992454 -0.051968332 -0.002245513 -0.03461854 -0.058523316 0.12411679 0.004696816
-0.06034277 0.048573826 -0.045745857 0.015825575 -0.011865789 -0.017645327 -0.102647796 -0.008470963
-0.017287102 -0.063646905 -0.09040252 0.017001202 -0.018418448 0.08411901 0.07548282 0.06321332
0.022340622 -0.08823266 0.02531506 0.090399124 0.021444505 0.04968109 -0.029151274 0.0014739982
0.0511479 -0.009534192 -0.08192603 0.07692868 -0.11230331 0.049042244 0.063997455 0.01958296
0.05026656 0.07028544 -0.03566952 0.02815306 -0.05863987 0.0036396985 0.0033203578 0.08666036
-0.048560444 -0.018339667 -0.021543134 -0.07567537 -0.06389412 -0.083397746 0.034195494 -0.10617641
-0.039593596 -0.030311473 0.05897952 0.011844636 -0.018556986 0.04400445 -0.03082981 -0.057858206
0.09330232 0.018856797 -0.028043922 -0.048643738 0.034819044 -0.01729475 -0.051318955 -0.16454116
-0.055305723 -0.00972295 0.062929966 0.07084967 0.09471865 -0.009509431 0.0140273785 0.06591391
-0.03319863 0.07873136 -0.032440588 0.05385971 -0.115151756 0.004871436 0.022396503 -0.16346443
-0.11298817 0.0699132 0.057748746 0.08075757 -0.12993307 0.0109211495 0.037685513 -0.08316559
0.03430503 -0.048043653 0.05570533 0.08162109 0.004540129 -0.03737614 -0.07311202 0.08272033
0.06679218 -0.0006268218 -0.038836394 -0.07631948 0.00160351 -0.03373914 -0.013388727 0.003718349
0.06850208 -0.008212482 -0.06320893 -0.10823837 0.010461367 -0.084722884 -0.050367385 0.0017200323
-0.029208224 -0.00822377 -0.015157726 0.06431602 0.046254523 -0.059627287 0.0781756 -0.06552156
0.06696145 0.043816995 -0.09104287 -0.080814995 -0.03186129 0.018381033 0.053546704 0.05309035

net.last_linear.bias f4 [4]
00000000: ca99 87bd a31a 933c 48f1 90bf 2f99 37c0
-0.0662113 0.017957037 -1.1323633 -2.8687246
