fixed_route_safe_slac/Safe_Slac_CARLA/logs/CarlaRlEnv-v0-run/slac-seed0-20241201-1119/models/step20000/safety_critic_target.pth (torch, 507786 bytes, 5 tensors)

net1.0.weight f4 [256, 234]
000000 49 d8 3d bd af 0b f6 3c 4b 66 5d bd 88 67 bf 3d
       -0.046348844 0.030034868 -0.054052632 0.09345919
000010 7c 36 36 bc e2 4f 97 bc 8b da 78 bd 0f d1 26 3e
       -0.0111213885 -0.018470708 -0.060755294 0.16290687
000020 b5 8c 2e be e9 e6 01 3c 79 e9 21 3e ef 60 1d bd
       -0.17045863 0.007928588 0.15811719 -0.03842252
000030 69 4d f4 bc 7c 90 e0 bc 33 4e 83 be 06 d6 44 bd
       -0.029822068 -0.027412646 -0.256456 -0.04805567
000040 3d de 47 bb bc f1 c8 ba 2a 92 60 3d 6e 2e 15 bd
       -0.0030497455 -0.0015330832 0.054826893 -0.036421232
000050 32 97 67 bd 75 52 81 3d f8 b8 a1 3c 02 e4 c9 bd
       -0.056540675 0.063145556 0.01974152 -0.09857942
000060 d6 6c 1a bd 1c 3e 5b 38 fe 32 8f 3d ef aa f5 bb
       -0.03770145 5.2271513e-05 0.06992148 -0.0074971835
000070 54 8b 48 be 21 cc 33 bd 2d 3a fa bc 5b db 1c bc
       -0.195844 -0.043895844 -0.030545318 -0.009573783
000080 4d 06 cb bd e2 60 28 3e 62 37 1d be 80 7a c1 3d
       -0.09913311 0.16443208 -0.15353158 0.09447193
000090 ac 31 07 bc f6 be f0 bc 06 31 7c 3d e7 18 70 be
       -0.008251589 -0.029387932 0.06157019 -0.23447
0000a0 08 30 17 3e 01 28 b3 be 22 bf d6 bc 11 5d 83 bd
       0.14764416 -0.34991458 -0.026214186 -0.064142354
0000b0 25 5d 83 3d 39 f2 ab 3e d6 98 b2 3d a1 82 e0 3e
       0.0641425 0.3358324 0.087205574 0.43849662
0000c0 e9 95 9d be 2d b8 e0 3d b4 8a b5 be e3 60 c6 3d
       -0.30778435 0.10972629 -0.35457385 0.096864484
0000d0 6d 54 1b bf 3c 5f 83 3d ef 83 79 3d 89 ee 4b be
       -0.606757 0.06414649 0.060916837 -0.19915213
0000e0 28 05 1f bd 51 5e 28 be ef 92 81 3e ac 15 8d bd
       -0.038823277 -0.16442229 0.25307414 -0.06888899
0000f0 0c 59 18 3f a1 22 b3 bd c3 3d dc 3d 7f c9 87 3d
       0.59510875 -0.08746839 0.107539676 0.06630229
000100 0b 89 8b bb be fc e2 be 41 83 e2 be 3f e1 d2 bc
       -0.00425828 -0.44333452 -0.44240764 -0.025742171
000110 5d a6 36 be ab 30 bc be 2e 3f da be 0f 7b 49 3f
       -0.178369 -0.3675588 -0.42626327 0.787034
000120 0e 99 1a 3f 0c bb d7 bd 82 13 0a 3e 0e c9 f9 3c
       0.6038979 -0.10533723 0.13484004 0.030491378
000130 b5 b6 61 3e 09 0b 2b be 6c a0 55 3d 56 28 3d be
       0.22042353 -0.16703428 0.052154943 -0.18472418
000140 f1 30 39 bf 36 bc aa bc c1 c1 c7 3e 79 58 79 be
       -0.72340304 -0.0208417 0.3901501 -0.24350156
000150 83 0a 21 3e f0 03 e0 3e 65 9a 93 be 00 de 6d 3e
       0.15726666 0.43753004 -0.2882873 0.23229218
000160 f6 7b 97 bf 91 aa 56 3e cb 7f d9 3d 19 cf 85 be
       -1.1834705 0.20963503 0.10620078 -0.26134565
000170 11 ed 9c be 88 2c 14 bf 92 f3 97 bc 1e 05 3c 3f
       -0.30649617 -0.5788045 -0.01854876 0.7344531
000180 2f 3b 59 3f 55 87 94 be 6a f2 b1 3e cb 77 f8 3d
       0.8485593 -0.290095 0.3475526 0.12132224
000190 59 69 6f be 31 d4 07 be 7e 32 88 3c fd b7 3a bf
       -0.2338003 -0.13264538 0.016625639 -0.72936994
0001a0 d0 8c 71 be 3d f0 e1 bc 03 97 74 be 9a ab 63 3e
       -0.23588872 -0.027580375 -0.23885731 0.2223343
0001b0 a0 9b 9c 3e ec 62 7b be 55 7b 89 3e 34 b2 95 3d
       0.30587482 -0.24549454 0.26851907 0.0730938
0001c0 44 23 34 be e1 fe c3 be 3e 37 dd 3e 14 de 5a 3e
       -0.17591578 -0.38280395 0.4320621 0.21373779
0001d0 de bc a1 3e 3e b5 e4 3e 52 e8 44 be 79 10 fa 3d
       0.31589407 0.44669527 -0.19229248 0.12210173
0001e0 7f 9c f7 be ce c8 12 bf 5a a9 c9 3e 2f 1d d3 3e
       -0.48361585 -0.57337654 0.39387017 0.41233203
0001f0 6d c4 20 3f da 9e e7 3e d1 c1 e5 be aa f8 1d bd
       0.6279972 0.45238382 -0.44874433 -0.038567223
000200 5a 02 f3 3e 38 65 b8 3e 88 58 34 be fa 8b e2 3e
       0.47462732 0.36014724 -0.17611897 0.4424742
000210 c5 ca a9 3d dd 21 f8 be 8e ca 95 3e 11 21 1a bf
       0.08290628 -0.48463336 0.292561 -0.60206705
000220 87 0e 68 3f 17 b2 0b be 6d 78 1f be 11 bc a5 3e
       0.90647167 -0.13642155 -0.15573283 0.32370046
000230 f0 61 1c bf 4d 21 73 be 67 8c 94 bf 65 e8 35 3f
       -0.6108694 -0.23743172 -1.1605347 0.7105773
000240 8c f0 21 3e 42 9f 79 bf aa f2 8d be 44 cb 72 3b
       0.15814418 -0.97508633 -0.277242 0.0037047425
000250 a5 eb ff 3d a1 78 9d be 08 fa ad 3e ab da 61 be
       0.124961175 -0.30756095 0.3397982 -0.22056071
000260 25 40 28 3e 55 5c 85 3e ba 74 17 be 96 6a 01 3e
       0.16430719 0.26047006 -0.14790621 0.12638316
000270 05 54 4f be 15 4b 58 bf 4d 35 45 3f 06 62 8e bd
       -0.20246895 -0.84489566 0.77034456 -0.0695229
000280 f9 e1 ce 39 59 be 10 3e 94 09 6f bf d9 6d 9f bc
       0.00039459745 0.14135112 -0.9337399 -0.01946156
000290 db d2 35 bf e8 51 f9 be 84 59 5f be 45 26 63 bf
       -0.71024865 -0.48695302 -0.21811491 -0.8873027
0002a0 a9 b2 20 3e 2d 18 3b bc 32 e3 f0 bd 46 70 9b 3d
       0.15693153 -0.011419338 -0.11762084 0.07589774
0002b0 f1 4d 47 3f 26 ae 9d 3d ad ca 9a be 4b 34 58 3d
       0.77853304 0.07699232 -0.30232754 0.052784245
0002c0 91 c4 1a be 74 90 cc 3e 14 01 d3 3d b5 24 86 3d
       -0.15114047 0.3995396 0.1030294 0.0654997
0002d0 04 48 28 3d 2f 19 49 3e 9d 88 fe bc 01 b0 aa bd
       0.041084304 0.19638513 -0.031071002 -0.08334351
0002e0 5b ff 31 3f 20 a1 dd be 46 c0 e1 3e b7 ab 8e 3d
       0.69530267 -0.4328699 0.44092005 0.06966346
0002f0 cb bc 3d bf 37 df 2b be f3 47 86 3d d4 21 84 3d
       -0.741162 -0.16784368 0.06556692 0.06451765
000300 fc de 4a bf db d1 83 be 89 16 d0 be 60 c3 80 bd
       -0.792465 -0.25746045 -0.40642193 -0.06287265
000310 c2 37 9e 3e 30 08 40 3f 12 3f d9 3e b4 1f b7 bd
       0.30901915 0.75012493 0.4243093 -0.08941594
000320 df ad be be 20 7d 1c bf 01 fc ff bd 1a 33 c8 3c
       -0.37242028 -0.61128426 -0.12499238 0.02443843
000330 99 3f 0e 3e a7 63 e5 3d 75 f1 1e be 11 37 99 bd
       0.13891448 0.11200648 -0.15521796 -0.07481206
000340 af 3b 9b 3e 40 6a c1 be af b6 80 3e e4 65 7f 3e
       0.30318972 -0.37776375 0.25139377 0.24941212
000350 17 78 39 3e 7d c2 b0 3b 9c 24 ba bb 03 66 0e 3d
       0.18112217 0.0053942786 -0.0056806337 0.034765255
000360 4e 68 48 3e 3e 9d 32 3f bf 72 8e be 9e 19 16 be
       0.19571039 0.6977118 -0.2782192 -0.1465821
000370 71 71 27 bd 50 47 56 bd e4 e9 ef be b8 6a 16 3e
       -0.04087967 -0.052314103 -0.46858132 0.14689147
000380 92 e1 17 3e 12 ab 18 3f 62 7b ee bd 8c 4b 43 3f
       0.14832142 0.5963603 -0.11644627 0.7628715
000390 fa 39 23 3f c9 d7 3b bf a7 f9 22 bf e3 6d 85 3e
       0.6376034 -0.73376137 -0.6366219 0.260604
0003a0 b6 93 36 3f 9f 1e 80 bf e2 6b af bc 86 a1 af be
       0.7131914 -1.0009345 -0.021413747 -0.3430292
0003b0 ae 85 a4 bd a3 e1 4f bc 0a cb b1 bd 7f ff 90 3b
       -0.0803331 -0.012688073 -0.08681305 0.0044249888
0003c0 e6 a5 91 bd a1 86 0e 3e 40 dc c2 be bf 2d d2 bc
       -0.07111721 0.13918544 -0.38058662 -0.025656579
0003d0 b6 ce 68 3e 80 dc 49 3c 93 50 5b bc 6a 2f 4f bc
       0.22735104 0.012320638 -0.01338591 -0.012645582
0003e0 64 9f f0 3e 31 92 ac bc 6b 4a dc bc 8e 44 0a 39
       0.46996605 -0.021065803 -0.026890954 0.00013186244
0003f0 25 90 88 3d e2 a0 43 3d 53 65 9d 3d b0 e4 2c 3d
       0.066681184 0.04776085 0.07685342 0.04221028

net1.0.bias f4 [256]
000000 ae eb d9 3d 28 e7 a2 be 5d 1f 21 bf 8d 95 03 bf
       0.106406555 -0.31816983 -0.6293848 -0.5140007
000010 00 9e 4a be cc 41 2d be de 9e 90 be 9b 89 91 3f
       -0.19786835 -0.16919631 -0.28246206 1.1370119
000020 06 3f 22 bf f3 9e 3f bf 26 b8 15 be 73 6f 85 be
       -0.63377416 -0.7485191 -0.14621028 -0.26061592
000030 38 bb 66 be b5 4c 12 bf 15 05 f4 be e6 6d 77 3e
       -0.22532356 -0.57148296 -0.47660127 0.24163017
000040 61 98 09 bf f7 bf 14 be c2 e2 4b bb 7a 68 3c be
       -0.53748137 -0.14526354 -0.00311105 -0.1839923
000050 5a 9a dc be 26 82 88 3b 14 a3 80 bd ba 07 d7 be
       -0.4308651 0.0041659055 -0.06281105 -0.41998082
000060 ef 1d cb be 46 af 0e 3d 9c e0 6b 3f 8f 0c 2f bf
       -0.39671275 0.034835123 0.921396 -0.6837854
000070 11 70 89 be ff 2f 2d bf 9e f0 0c bd 8e 9b a8 bc
       -0.26843312 -0.6765136 -0.034409158 -0.020581987
000080 a3 45 ca be f1 0a db 3d 7b f7 fc be 99 08 84 be
       -0.39506254 0.10695446 -0.49407563 -0.2578781
000090 ab aa b0 be c5 35 ee be 1f 58 a2 be 4a 8d b3 bd
       -0.3450521 -0.46525398 -0.31707856 -0.08767183
0000a0 55 7e 84 be dc f4 6b 3e f8 fd 7e 3d 54 ea f5 bd
       -0.25877634 0.23042625 0.062253922 -0.12007585
0000b0 24 d9 ea be 16 fb 41 be 6f a3 6c be 32 05 3f be
       -0.4586879 -0.18943438 -0.2310922 -0.18654326
0000c0 f5 e6 e5 be 3f b5 49 3e 0f 5c 49 be a4 70 1c 3e
       -0.4490277 0.19698046 -0.19664024 0.15277344
0000d0 a2 25 09 bf c8 d8 88 bd da 42 2f bf 9d c8 00 bf
       -0.5357305 -0.06681973 -0.6846138 -0.5030611
0000e0 0a 70 fc be 27 f6 4d bf 27 65 33 bf 3d 45 30 3d
       -0.4930423 -0.80453724 -0.7007622 0.04303478
0000f0 4d 88 4d bf f4 ca ba be d2 74 06 bf 48 6f 8c be
       -0.80286103 -0.36482966 -0.52522004 -0.2742865
000100 7e fe c1 be c3 83 a5 be f8 fb 19 bf 52 f1 78 bd
       -0.37889475 -0.3232709 -0.601501 -0.060777016
000110 8d fd f2 be a4 01 d7 be f0 97 c9 bd 78 19 dc be
       -0.4745907 -0.4199344 -0.09843433 -0.4298818
000120 f8 64 08 bf 16 dd b8 be ad 38 05 bf f6 fd 61 3e
       -0.53279066 -0.36106175 -0.52039605 0.22069535
000130 18 fa 74 bd 4c 4c 24 bd e5 8d a9 be 70 d4 e6 bd
       -0.05980882 -0.040111825 -0.3311607 -0.11270988
000140 77 0c 38 be 01 93 0e bf 00 40 00 bf ec 7a 5e bf
       -0.17973505 -0.5569306 -0.50097656 -0.86906314
000150 cd 85 0c bf 29 68 51 bf 59 c9 de be 76 5f c1 3d
       -0.54891664 -0.8179956 -0.4351299 0.09442036
000160 09 3f 4d be a1 1a f2 be c7 ad 83 bd a0 29 93 3e
       -0.20043577 -0.4728594 -0.0642963 0.28742695
000170 bb 0a 48 bf a2 ac 5c be 78 ae 3c be d7 61 17 bd
       -0.78141373 -0.21550229 -0.1842593 -0.03695854
000180 72 a3 2b bf ee 68 20 bf 5d eb 37 bf 62 28 c5 bd
       -0.6704627 -0.6266011 -0.7184351 -0.09626843
000190 3f c5 04 bf 83 57 1c bc 6b 8f f2 3d 8a c4 d1 be
       -0.51863474 -0.009542349 0.11843761 -0.4097026
0001a0 bd 52 b4 be e6 de 29 bf 0f 06 44 bf c4 7f 20 bf
       -0.35219374 -0.6635574 -0.76571745 -0.62694955
0001b0 45 b9 11 bf 8a ef 17 bf 74 ab 41 3d 93 7e 41 bf
       -0.56923324 -0.5934988 0.04728265 -0.7558376
0001c0 f2 53 33 be 69 49 19 bf 6d 95 3a bf 70 7f 25 bf
       -0.17512491 -0.5987764 -0.72884256 -0.6464758
0001d0 bd bf 40 3d d2 d9 db bd 00 ce c2 be 44 c6 ad be
       0.047057856 -0.10734905 -0.3804779 -0.33940327
0001e0 70 61 32 bf 4e 24 86 3f 76 80 02 3e 65 01 4c bf
       -0.6967993 1.0479829 0.12744316 -0.7968963
0001f0 c9 66 24 3d 88 4c a4 3e 3e 7d 13 bf 15 19 66 be
       0.040137086 0.3208964 -0.5761298 -0.22470506
000200 7c be 24 bf 82 65 1a bf 67 eb 66 be d8 ad 07 bf
       -0.64353156 -0.6031114 -0.22550736 -0.5299964
000210 7f 6f 05 bb b2 01 c8 3e 88 37 eb 3d 75 16 82 be
       -0.0020360646 0.39063793 0.11485201 -0.25407758
000220 fb 92 a4 3b 75 ec ad be 55 af f2 be 16 88 a6 be
       0.0050224042 -0.33969465 -0.47399393 -0.325257
000230 83 c9 c5 be 85 aa 08 bf c2 f7 2e bf cf c1 fc 3c
       -0.38630304 -0.5338519 -0.683468 0.030854134
000240 e0 39 f4 3c 35 f8 1b bf 4b 7e a8 be 20 87 19 be
       0.029812753 -0.6092561 -0.32908854 -0.14992952
000250 7f 35 be be 86 7f 5f be 70 1c ab bd 64 a5 3a bf
       -0.3715019 -0.2182599 -0.083550334 -0.72908616
000260 6d 2e 28 bf 2d 51 78 be 96 6f 0d be 6a cc 71 bf
       -0.6569584 -0.24249716 -0.13812098 -0.94452536
000270 b8 72 0c bf ad 97 30 bf 51 ca 65 3c ee bc 2c bf
       -0.54862547 -0.6898144 0.014025287 -0.67475784
000280 c7 d9 d0 be 65 c1 73 be ad dc b3 3c ce 9c fa bb
       -0.4079115 -0.23804243 0.021955812 -0.007648087
000290 21 fb a9 be 56 c2 8c bd 42 25 d0 be b9 d4 01 be
       -0.3319941 -0.06873004 -0.40653425 -0.12678804
0002a0 37 34 c2 bd 06 8f f2 be 7e 45 a6 3e ca ec c5 3e
       -0.094826154 -0.47374743 0.32474893 0.38657218
0002b0 e6 6e 9f be e5 27 bd be 3c ae 16 be 19 4f 9e be
       -0.31139296 -0.369445 -0.14714903 -0.30919722
0002c0 35 47 b4 be 7f 14 d1 be 2c 60 27 bf 60 f0 02 3f
       -0.35210577 -0.4083595 -0.6538112 0.51148033
0002d0 86 3f 25 bd 6f 90 33 be 01 46 de be ad fb 53 be
       -0.040343784 -0.17535566 -0.43412784 -0.20701475
0002e0 a3 28 99 3d c0 31 a1 be 25 8a 57 3d 26 c7 9a be
       0.07478454 -0.3148327 0.05262198 -0.30230063
0002f0 89 46 2a bd 01 3b 87 be e7 bd 8c bf 6f 70 6a be
       -0.041571174 -0.26412204 -1.0995454 -0.22894453
000300 26 aa 0c bf 10 32 5f bc e4 b1 0a bd f8 ec 9d 3e
       -0.54947126 -0.013622776 -0.033861056 0.30844855
000310 13 64 94 be 29 8d a7 be 06 a9 4f 3d de 55 3b bf
       -0.289826 -0.32724884 0.050698303 -0.731779
000320 5b a8 cb bd 0d 37 ef be 89 3e 10 bf ca 54 8e be
       -0.09944221 -0.46721688 -0.5634542 -0.27799064
000330 8f c5 99 3d 34 99 0e bf 8b fd a6 3e b0 70 34 bf
       0.075083844 -0.5570252 0.32615313 -0.7048445
000340 91 4a 9a be 56 21 22 bf 5d 93 03 be 51 92 4d bd
       -0.30135015 -0.63332117 -0.12849183 -0.050188366
000350 f1 a2 0e bf 2c ed 21 bf bf 95 28 be ba d9 51 bf
       -0.5571738 -0.6325252 -0.16463374 -0.8197285
000360 94 c0 50 be d2 30 da 3e 2a 76 54 bf 66 6f 80 bc
       -0.20385963 0.42615372 -0.82992804 -0.015678119
000370 7f 45 61 be bc fc 9d bd 7e f1 f4 3e e6 b0 4b be
       -0.21999167 -0.07714221 0.47840494 -0.198917
000380 61 61 00 bf cb ad f0 be 86 46 8e 3e e0 b1 91 3e
       -0.5014859 -0.47007594 0.2778818 0.2845602
000390 b2 9c bc bd ca f1 31 bf fa 5a f6 be 82 cd b4 bd
       -0.09209575 -0.69509566 -0.48116285 -0.0882826
0003a0 b2 f7 24 bf 95 1b ee be ba 29 c3 be d1 e1 29 bf
       -0.64440453 -0.46505418 -0.38117772 -0.66360193
0003b0 89 c5 24 be bd 2b 90 be c6 5c 24 be 1a 42 a2 be
       -0.16090979 -0.2815837 -0.16051015 -0.31691056
0003c0 2d 63 66 be 3d 9f c9 3e b7 68 6c be 61 a2 ce be
       -0.2249877 0.39379302 -0.2308682 -0.4035826
0003d0 58 00 17 bf dd d9 e2 bc 56 d1 8f be 0b 54 f4 be
       -0.589849 -0.027691776 -0.28089398 -0.4772037
0003e0 c3 dd 4f bf b2 9c b6 be e5 b3 57 be 28 21 4b be
       -0.81197757 -0.35666424 -0.21064718 -0.19836867
0003f0 d9 f0 6a 3d a7 dc ef 3c a0 8a 99 3e 63 b6 a6 be
       0.057358596 0.02928002 0.29988575 -0.32561025

net1.2.weight f4 [256, 256]
000000 53 95 94 3d a6 be f3 bd 7a 12 95 3d a0 2c 06 bf
       0.07255044 -0.11901598 0.07278915 -0.5241184
000010 fb 86 8f 3e 3d 73 96 be 8d 48 87 bc 97 60 ad be
       0.2803267 -0.29384795 -0.016514087 -0.33862755
000020 73 fd e5 3e 57 47 6a be ff b4 5b bf ac 0b 55 be
       0.4491993 -0.22878776 -0.85823053 -0.20805234
000030 18 80 e3 3d 84 3f d2 3e 07 aa 1b bd 60 99 15 be
       0.11108416 0.41064084 -0.038003948 -0.14609289
000040 53 07 24 bd 71 c9 ed be b5 5d 0f bf a1 8d f9 3b
       -0.040046047 -0.4644275 -0.5600236 0.0076157604
000050 bf 23 05 3e 2a d0 72 be b8 81 8c 3e c8 b9 e3 be
       0.13001917 -0.23712221 0.27442718 -0.44477677
000060 12 1c 34 3e 1d a7 fb 3e d1 d8 08 bf 54 3b 60 3f
       0.17588833 0.49150935 -0.53455836 0.8759053
000070 c6 9f ec be 97 79 10 3f b7 bf 99 be 8c f3 69 3e
       -0.46215647 0.5643553 -0.3002908 0.22846812
000080 d6 8f e4 bd 38 e4 a8 be d3 1e 84 be a0 10 89 3e
       -0.11160247 -0.32986617 -0.25804767 0.26770496
000090 76 d9 c7 3d dc 1a 57 3e 76 a8 df 3e e3 aa cb bd
       0.09758274 0.2100634 0.43683213 -0.099447034
0000a0 a3 73 a1 be f5 db 09 3e 3f a2 a5 3d 70 5b 3a 3f
       -0.31533536 0.13462813 0.080875866 0.7279577
0000b0 24 2b d6 be 1e 73 15 3d 78 6c 14 3f 59 80 1a be
       -0.4182979 0.036486737 0.5797801 -0.15088023
0000c0 40 6c 43 3f 08 48 5f 3e 2f 03 b9 be 9c 20 56 bf
       0.7633705 0.21804821 -0.3613524 -0.8364351
0000d0 69 8a 95 be 55 b9 3c be 81 bf 97 3a 05 50 b3 bd
       -0.2920716 -0.18430074 0.0011577458 -0.08755497
0000e0 da fc 5f 3e 45 85 10 bf 74 d8 45 bd 5c 61 3e be
       0.21873799 -0.56453353 -0.04830213 -0.18591827
0000f0 89 77 ec 3c d0 1b bf bc 5a ab 11 3f 02 19 0f bf
       0.028865593 -0.023328692 0.56902087 -0.55897534
000100 6e f5 2a 3f ab 39 64 bd 37 63 31 be 5e 7d 12 bd
       0.66780746 -0.05571906 -0.17323004 -0.03576409
000110 cb 2d a5 3d 0a 54 77 3f b6 b9 b5 3e d4 25 03 be
       0.08065375 0.9661261 0.3549325 -0.12807399
000120 a6 4f 0b bf 95 16 1b be b9 78 97 be 5e 50 14 be
       -0.5441841 -0.15145333 -0.29584292 -0.14483783
000130 fd b9 b0 3d 17 ff 85 be 62 95 98 be 25 ba 36 be
       0.086292244 -0.2617118 -0.2980147 -0.17844446
000140 d3 8c dd bc 0c 6a a0 be a1 68 c2 bd ba c8 04 bf
       -0.02704469 -0.31330907 -0.09492613 -0.51868784
000150 68 a1 9d bd 9d 14 89 3d 3e 7b 07 3e c4 69 d0 3d
       -0.076968014 0.06693385 0.13230607 0.10176423
000160 e8 45 ef bd 78 37 fb be ec c7 eb be 1b 48 bc be
       -0.116832554 -0.49065757 -0.46050966 -0.36773762
000170 e8 7c 78 be da e4 9a 3e 8e 86 28 bf 98 d0 19 bf
       -0.24266398 0.30252725 -0.65830314 -0.60083914
000180 98 90 c4 be 73 a4 32 3e 9c 87 b9 be 81 b7 0e bf
       -0.38391566 0.17445545 -0.36236274 -0.55748755
000190 a6 b0 79 bf 05 ca 0a be cb 19 df bc 0c be 94 be
       -0.9753517 -0.13553627 -0.027233979 -0.29051244
0001a0 b8 2e 0b be 18 5c 0a 3c 7b e3 32 3f b3 ce 10 be
       -0.1359204 0.008444808 0.6987836 -0.1414135
0001b0 1a c9 67 bd 65 d8 e5 be 17 52 2f bf e9 64 01 bf
       -0.05658827 -0.44891658 -0.68484634 -0.505446
0001c0 58 16 e7 bd 63 52 99 3e 0a d7 6f 3e ec 83 1d bf
       -0.112835586 0.2994567 0.23421875 -0.6152942
0001d0 f4 69 f0 3c 44 87 35 3c a1 d1 1d bf f5 46 91 be
       0.029347397 0.011079613 -0.61647993 -0.28374448
0001e0 6b 86 93 be 2e 0d 3c bf a8 6f ac be 36 ea f2 be
       -0.2881349 -0.7345761 -0.33678937 -0.47444314
0001f0 93 5c 2a bf ff b3 29 bf a5 04 cc be b1 8e a1 bd
       -0.6654751 -0.6629028 -0.39847293 -0.07888544
000200 ea 82 ed 3e cb 15 04 bf 6c a9 a2 bd b5 26 a1 3e
       0.46388942 -0.51595753 -0.07942471 0.31474844
000210 99 d2 39 bf 37 24 c0 be 98 a4 44 be b2 b5 9b 3d
       -0.7258697 -0.3752763 -0.19203413 0.07603015
000220 67 6a 49 bf bb 0b bc bd 83 20 f3 3e 71 3b 34 3e
       -0.7867798 -0.09181925 0.47485742 0.176008
000230 76 a2 c8 be 0d c0 cb 3c c2 ec e6 be 1f 5d 1c bd
       -0.39186448 0.02487185 -0.45102507 -0.038174745
000240 0e 35 d4 bd 1c 85 95 be 33 57 6a be e3 ef 9e 3e
       -0.10361682 -0.29203117 -0.22884826 0.31042394
000250 19 7f 06 bf 2b 93 97 be 5b bd bc 3e 9b 5a 1a 3f
       -0.52537686 -0.29604468 0.36863217 0.602945
000260 ca f0 49 be 9c 56 cc 3e 77 50 c3 be 38 06 be be
       -0.1972076 0.39909828 -0.38147327 -0.3711412
000270 fc 93 f6 be e0 a4 fb 3e fe 56 32 3c 3e 31 db be
       -0.48159778 0.49149227 0.010884998 -0.42811006
000280 1d e8 67 3e 19 83 ba 3e 1d f6 17 3e 52 2e 63 bc
       0.22647138 0.36428145 0.14839979 -0.013866024
000290 7d 3f 2f 3f 34 aa 42 3e 92 b1 d1 bd 08 f1 ae 3d
       0.6845625 0.1901024 -0.10238947 0.08542067
0002a0 e5 7b 1e be 52 94 c6 3e 86 7b cc be 07 31 f0 3c
       -0.1547695 0.38785034 -0.3993799 0.029320253
0002b0 50 10 6e bd 81 9c 3c be 27 c8 aa bc 88 e0 85 3e
       -0.058121026 -0.18419077 -0.020847393 0.26147866
0002c0 05 b7 f1 3d c9 21 3f be 62 cb de bc af 4f 25 bf
       0.11802486 -0.18665232 -0.02719659 -0.6457471
0002d0 6b 05 ce 3d 67 dc 55 bf e5 7c 11 3e de 4b b3 3b
       0.10059627 -0.8353943 0.142078 0.0054716906
0002e0 27 bd a7 3d df c8 e1 3d ef cc 8c be a0 c3 e2 be
       0.08190375 0.11024641 -0.27500102 -0.44289875
0002f0 1d 96 1f bf 47 b6 c6 bd 06 e5 cc be da 4a 96 3e
       -0.6233843 -0.097027354 -0.4001848 0.29353982
000300 b5 e7 ac 3e cb 36 c7 be 78 f6 04 be 9d c1 04 3e
       0.33770528 -0.3890899 -0.12984645 0.12964483
000310 1c 1d e5 be c2 fa 86 bc f3 cf 0d be f8 6f d1 3e
       -0.4474877 -0.016476993 -0.13848858 0.40905738
000320 8a 71 2d 3d 5b 17 ec be 0b 31 90 be 40 4a 8b 3e
       0.042344607 -0.4611157 -0.28162417 0.27205086
000330 cb 71 f0 3e bb e9 86 be d8 19 37 bf b8 fa 32 be
       0.46961817 -0.26350197 -0.7152381 -0.17478454
000340 d8 93 a9 3e fb c7 8f 3f 59 01 32 bf 68 42 38 3e
       0.33120608 1.1232904 -0.69533306 0.17994082
000350 77 20 21 bf 6c 1b 30 be 1b d7 d1 be ea 77 32 be
       -0.6294016 -0.1719796 -0.40984425 -0.17428556
000360 71 73 8c be c2 51 d6 be cc 89 46 3e 67 e8 37 be
       -0.27431825 -0.4185925 0.19388503 -0.17959748
000370 52 55 b4 3c e7 47 07 bf b7 6a 33 bf ab a9 49 be
       0.02201334 -0.5284409 -0.7008471 -0.1969363
000380 53 ab e0 be bf bb 2c 3f c5 cd 8a bb 4b 14 7d be
       -0.4388071 0.6747398 -0.0042359554 -0.24714772
000390 90 eb 22 bf fc 70 dc be be 64 53 3e 63 d3 0f be
       -0.6364069 -0.4305495 0.20643899 -0.14045481
0003a0 a6 bb 8f 3e 97 a7 b2 be 86 b3 81 bd fc 1e 17 3d
       0.28072852 -0.34893486 -0.063330695 0.036894783
0003b0 ac 8e 2d be e5 bb 2c 3f 40 a5 86 3b c3 da 4b 3e
       -0.16948956 0.67474204 0.004109055 0.1990767
0003c0 a7 06 31 bf c3 6d 32 be c9 32 7a bf 1d 81 0b bf
       -0.69150776 -0.17424683 -0.9773374 -0.54493886
0003d0 83 9d 9e be b9 f2 b6 3e 35 c4 04 bf 6e b9 1a bf
       -0.30979547 0.35732058 -0.5186189 -0.60439193
0003e0 20 b0 5d be d2 af e5 3e a6 e1 80 3d 8f 72 b6 be
       -0.21649218 0.44860703 0.06293039 -0.35634276
0003f0 22 1d 8f be f9 34 6d 3e 38 44 3b bf 27 e8 64 bf
       -0.27951914 0.23164739 -0.7315097 -0.89416736

net1.2.bias f4 [256]
000000 aa 92 8d 3e c0 ff 38 be ca b7 dd 3d 0f 14 ca bd
       0.27650958 -0.18066311 0.108260706 -0.09867107
000010 65 c8 b7 bd 30 1a 78 3d f8 e1 6d be 8a 64 40 3e
       -0.08973769 0.06057185 -0.23230731 0.18788353
000020 50 1f cc bd b6 2e 8a 3e 8a cd d0 3e 12 d2 3e be
       -0.0996691 0.26988763 0.40781814 -0.18634823
000030 5a c7 cb bd bb a3 01 be 51 4a 8b 3e ac 8b 68 be
       -0.09950133 -0.12660114 0.27205136 -0.2270953
000040 64 cb bf be 1c 98 79 39 f2 d6 6e be 5c 54 b0 3e
       -0.37459862 0.00023803156 -0.23324183 0.3443936
000050 d6 92 16 be 42 6a 88 be c3 46 42 3e 60 1b 39 3d
       -0.14704451 -0.26643568 0.18972306 0.045192122
000060 72 0a 84 be 02 f5 b9 3e 99 b6 14 be 8d 8a c9 bd
       -0.2578922 0.3631974 -0.1452278 -0.098408796
000070 34 d0 12 bd f2 ab 5d be 56 13 32 3c 70 8b 46 be
       -0.03584309 -0.21647623 0.010868868 -0.19389129
000080 69 39 b0 3d 61 27 3c 3e 01 d1 0c 3f d2 bf 4f bd
       0.086047 0.18374397 0.55006415 -0.050720043
000090 4e cb 05 be f8 38 bf 3e bb 8d 81 be a5 bc 54 3d
       -0.13065836 0.3734815 -0.25303444 0.051937718
0000a0 b8 38 aa 3e 82 1d 9a bd 7b 5e 14 be b7 ab 13 3e
       0.33246398 -0.075251594 -0.14489166 0.14420973
0000b0 f5 1a 16 3e ba bd 7b be ee 11 41 be 03 74 c8 3e
       0.14658721 -0.24584094 -0.18854496 0.3915101
0000c0 f6 5c 60 3e 40 f4 39 3e 34 51 72 be a8 dc 2d 3e
       0.21910462 0.1815958 -0.23663789 0.16978705
0000d0 42 79 36 be e6 2b 57 3d 2a a4 26 3d da 7e a6 3e
       -0.17819694 0.0525321 0.040683903 0.32518655
0000e0 49 db 03 be f6 e6 63 3e 58 b8 d7 3d 7e fa 79 be
       -0.1287662 0.22256073 0.10533208 -0.24411961
0000f0 62 bb 07 be 9f b1 f5 3b 6b e8 0c be fa 81 1d 3f
       -0.13255075 0.0074979807 -0.13760535 0.61526453
000100 6b 27 95 be 07 ab 70 3e e6 c3 06 3f 4a 52 a9 bc
       -0.29131636 0.23502742 0.5264267 -0.020669121
000110 a5 3e b1 3e f6 d2 55 3d 1b 36 c9 3e 08 e1 85 3e
       0.34618106 0.05220314 0.39299092 0.26148248
000120 bc 14 2e be 4e e2 a7 bd b1 57 91 3e f8 32 83 bd
       -0.17000097 -0.08197461 0.28387216 -0.06406206
000130 1b c3 6d 3e 60 99 28 be 38 c4 35 3e db 3f 27 be
       0.23218958 -0.16464758 0.17750633 -0.16332953
000140 89 78 7d be 79 3f 2d be 2d 6e 45 be 07 9e 64 3e
       -0.24753012 -0.16918744 -0.1928031 0.22325908
000150 6a d9 8f be ec 9d 0f be 26 28 6a bd 13 b1 21 3d
       -0.2809556 -0.14025086 -0.057167195 0.03947551
000160 b4 8f d7 3e d0 05 bd 3e 01 80 c7 3d ef 62 4c 3e
       0.42101824 0.36918497 0.09741212 0.19959615
000170 6b 1b 91 3e 9d a9 5f 3e 01 d2 c3 3e 7e 1f b6 be
       0.2834123 0.21842046 0.38246158 -0.35570902
000180 62 12 19 be 95 1a 9e 3e 33 69 ba bd 3e 11 89 3e
       -0.14948419 0.30879655 -0.091020964 0.26770967
000190 ed 8c a2 3e a1 a8 10 3e 41 19 5d 3e 36 20 07 be
       0.31748143 0.14126827 0.21591665 -0.13195881
0001a0 8a 0b 33 3e 43 35 e1 bd c3 ce 5b be 48 46 74 3d
       0.1748487 -0.10996487 -0.21465592 0.059637338
0001b0 b0 41 84 3e 2a b3 32 be 25 0a 76 be 85 c4 88 3e
       0.25831366 -0.17451158 -0.24027307 0.26712433
0001c0 f0 60 d5 bd 28 62 ae 3e 6b e5 ec 3e a8 41 65 3e
       -0.1041888 0.34059262 0.46268782 0.22388327
0001d0 e1 ce 10 be 72 24 d7 bd b1 e8 76 3e a6 c5 39 be
       -0.14141418 -0.10504998 0.24112202 -0.18141803
0001e0 52 c4 b0 bd fe be ae 3c 74 45 d7 be f2 b9 33 3e
       -0.08631195 0.021331307 -0.42045176 0.17551401
0001f0 8b 93 d7 3e 94 d9 74 39 37 a4 68 3d 73 e7 c2 3d
       0.42104754 0.00023350707 0.056797232 0.09516802
000200 8e 82 3a 3d 4a 96 d5 3e 1b b9 93 3e 82 4c a2 be
       0.045534663 0.41716224 0.28852162 -0.31698996
000210 98 18 02 3e fe 04 0f be 89 c6 b7 be fd 56 98 bd
       0.12704694 -0.13966748 -0.35893658 -0.07438467
000220 fb f8 9e 3e b7 3a 76 be 57 d9 7d be 61 39 af bd
       0.31049332 -0.24045835 -0.2478994 -0.08555866
000230 bc 9b eb bd 91 5b 2a be 7e 75 02 be 21 96 8d be
       -0.11504313 -0.16636492 -0.12740132 -0.27653602
000240 ad 0d 79 bc 7f 3c 91 3e a5 3b 4d 3e 24 f5 4c be
       -0.0152010145 0.28366467 0.20042284 -0.20015389
000250 f1 0d 71 be 0e 11 17 be 54 28 c2 3e c2 43 81 be
       -0.23540474 -0.147526 0.37921393 -0.25247008
000260 3e 64 f2 bd 5e 02 6e 3e 57 a8 52 bd 64 1a 7d be
       -0.11835526 0.2324309 -0.051430073 -0.24717098
000270 93 49 3c 3c d5 8c dc bd 4b c9 b3 be e2 83 ad 3e
       0.011492151 -0.10769049 -0.35114512 0.3388968
000280 ad 26 24 be 76 a0 bb be 69 e6 95 be af 54 c8 3d
       -0.16030379 -0.3664586 -0.29277351 0.09781777
000290 cb f7 5c 3e d4 8a 6c be ac e9 de bd ca e1 2b 3e
       0.215789 -0.23099834 -0.10884413 0.1678535
0002a0 93 e5 42 be 64 eb 34 be 92 9b 69 be b0 c4 1a 3e
       -0.19032888 -0.1766792 -0.22813252 0.15114093
0002b0 a2 81 08 be 07 18 26 be 71 91 a1 3e 95 88 8b 3c
       -0.13330701 -0.16220103 0.31556275 0.0170329
0002c0 59 24 4d be 9c b9 43 be 38 e6 8e 3e 36 9c 84 3e
       -0.20033397 -0.19113773 0.27910018 0.2590043
0002d0 21 0f 6a 3e 60 bc e2 bd 81 07 7e be 52 25 a0 3e
       0.22857334 -0.11071086 -0.2480755 0.31278473
0002e0 2a a6 d0 3c b7 ea e2 bd 89 9f 09 be d1 40 5c be
       0.025469858 -0.110799246 -0.13439764 -0.215091
0002f0 11 1e 3b 3e bf 75 be 3e a1 2c f3 3d 32 f3 b9 3e
       0.18273188 0.37199208 0.11873747 0.36318356
000300 9e 79 c4 3e c9 ed fb 3e 04 25 0d 3f fc d6 0d 3f
       0.38374037 0.49204853 0.55134606 0.55406165
000310 6b 97 1c 3e 9a 56 6b 3e c4 ca 8b be 64 55 9e 3e
       0.15292136 0.22982255 -0.27303135 0.30924523
000320 61 37 4c 3c ba d8 20 be cb 09 c0 3e 0d 6b 6f bd
       0.012464375 -0.15707675 0.3750747 -0.0584517
000330 00 55 07 3f 9a e7 f3 3e a1 75 b1 bd b3 0f c4 be
       0.52864075 0.47637635 -0.08665014 -0.38293228
000340 50 14 a5 3e c0 06 ce 3c 1c 69 30 3e a2 db 1e be
       0.3224206 0.025149703 0.17227596 -0.15513471
000350 d4 24 1a 3f 6c 04 6a be 3c 57 69 bd 91 eb 24 be
       0.60212445 -0.2285325 -0.05696796 -0.16105486
000360 f6 1c c5 3e a1 50 e5 3e 72 37 8a bd bf d1 42 3e
       0.38498658 0.44788077 -0.067488566 0.19025324
000370 90 93 b8 3e d5 ce b4 3e 28 af b3 3e 15 d7 bc 3c
       0.3605008 0.3531405 0.3509457 0.023051778
000380 a1 6e f4 3e d8 1b 97 bd fe 0a 92 3e dd 7d 94 be
       0.47740653 -0.07378358 0.2852401 -0.29002276
000390 63 f1 ab be ca 10 81 3e 7f f5 5f be 15 03 f9 bd
       -0.335826 0.25208122 -0.21870993 -0.12158791
0003a0 9c 52 bf 3e ca 7e 14 be db ea e8 bd c1 e1 0e 3f
       0.37367713 -0.14501491 -0.1137292 0.55813223
0003b0 0f 5d 69 be 55 f7 2a be 09 83 81 be 95 02 39 be
       -0.22789405 -0.16695912 -0.25295284 -0.18067391
0003c0 77 ce 52 3e 93 10 bf bd 6b 33 b7 bd f1 4e c2 be
       0.20586573 -0.09329333 -0.08945354 -0.37950853
0003d0 c5 03 c7 3e 41 bf 16 be 06 7f 3f be 8e 39 44 3e
       0.38870063 -0.14721395 -0.187008 0.1916258
0003e0 9d 73 85 be 7b 62 f5 3d b5 b8 52 bd 0f 8b 40 be
       -0.26064768 0.11981674 -0.05144568 -0.18803047
0003f0 87 74 41 be fc 19 6c 3e 51 4d 9b be 96 24 92 bd
       -0.18892108 0.23056787 -0.30332425 -0.071358845

net1.last_linear.weight f4 [1, 256]
000000 5f a7 76 bf eb 33 93 3f 9c c9 95 bf 81 4c ca bf
       -0.9634914 1.1500219 -1.1702151 -1.5804597
000010 b9 3f 8b 3f 65 4a 9f bf 74 0e 96 3f 04 5b 1d bf
       1.0878822 -1.2444578 1.1723161 -0.61467004
000020 dc bb 84 3f 94 76 8c bf 77 da b0 bf 91 28 ad 3f
       1.036983 -1.0973687 -1.381667 1.3528005
000030 46 8f be 3f f3 2c 7c 3f 74 e7 08 bf e1 fc 2f 3f
       1.4887474 0.9850609 -0.5347817 0.6874524
000040 1e 6c 93 3f 1e 24 11 bf d0 2d 57 3f 15 c4 df bf
       1.151737 -0.56695735 0.8405428 -1.7481714
000050 24 23 9c 3f ed 18 a1 3f ea 87 81 bf 2a 9e b7 3f
       1.2198224 1.2585732 -1.0119603 1.4345143
000060 4d 6c bd 3f ae 1f 2f bf ad a7 51 bf 9f f1 9a bf
       1.4798676 -0.68407714 -0.8189648 -1.2104987
000070 e9 a3 58 bf 99 df 88 3f c9 fe 3e bf 32 4c 8f 3f
       -0.8462511 1.0693237 -0.7460752 1.1195128
000080 17 5a 86 bf 75 a4 93 bf d7 62 51 bf 39 e6 89 bf
       -1.0496243 -1.1534563 -0.8179144 -1.0773383
000090 a7 d7 7d 3f 0b 87 9c bf 10 69 ac 3f fd 36 5d 3f
       0.99157184 -1.2228712 1.3469563 0.8641203
0000a0 37 eb 6a bf d5 51 76 3f 12 d0 a8 3f a6 d3 53 bf
       -0.9176516 0.96218616 1.3188498 -0.82744825
0000b0 f8 b6 bf bf 3c e4 82 3f 5c ab c1 3f ce 38 06 c0
       -1.4977713 1.0225902 1.513042 -2.097217
0000c0 5c b9 94 bf a7 8f b2 3f e6 e3 64 3f 28 5d 8d bf
       -1.1619067 1.3950089 0.89410245 -1.1044054
0000d0 f1 37 96 3f 4d 01 99 bf 48 9f c7 bf 7e 33 fa bf
       1.1735822 -1.1953522 -1.5595484 -1.9546964
0000e0 04 05 8c 3f 4a 5e c6 bf 9b e3 20 bf 68 90 b3 3f
       1.0939031 -1.5497525 -0.628473 1.4028444
0000f0 2c 86 ad 3f 37 87 5e 3f 89 63 b9 3f db e2 a0 bf
       1.3556571 0.8692507 1.4483501 -1.2569231
000100 45 4a 80 3f 67 e8 53 3f 33 68 07 bf e0 90 88 3f
       1.0022665 0.8277649 -0.5289337 1.0669212
000110 9d d2 d1 bf bc 2b 54 bf c8 ad 58 bf 1b 19 c9 bf
       -1.6392399 -0.82879233 -0.8464017 -1.5710787
000120 36 5b 9b 3f 8b 95 c7 3f 44 5b d3 bf de 75 a5 3f
       1.213721 1.5592512 -1.6512227 1.2926595
000130 02 34 a6 bf a7 af 01 bf f8 ce e1 3f c8 2f 9f 3f
       -1.2984622 -0.5065865 1.7641287 1.2436457
000140 43 8f 9c 3f 8f 8f 97 3f e4 f9 7c 3f c7 31 f7 bf
       1.223122 1.1840686 0.988188 -1.9312066
000150 3a 53 d1 3f db 7a b9 3f ee c6 7c bf 54 f1 54 bf
       1.6353524 1.4490618 -0.9874104 -0.8318074
000160 63 fd a4 bf b4 92 69 bf 2d e4 43 3f 46 d1 8f 3f
       -1.2889827 -0.91239476 0.76520044 1.123574
000170 35 60 bc bf 11 35 ec bf 2e 83 a0 bf 49 78 a7 3f
       -1.471686 -1.8453695 -1.2540033 1.3083583
000180 04 ab 17 3f 6f d3 cd bf 3f 8e a7 3f 9f c5 40 bf
       0.59245324 -1.608015 1.3090285 -0.75301546
000190 a5 ae 51 bf 57 36 88 3f 33 eb 4a bf 47 b2 a6 3f
       -0.8190711 1.0641583 -0.79265136 1.3023156
0001a0 f7 eb b2 be 15 e3 a8 3f f6 77 86 3f f9 33 b6 bf
       -0.34945652 1.31943 1.0505359 -1.4234611
0001b0 04 6b 0b bf 37 4d b2 3f 1b 0c 74 3f 69 95 c4 bf
       -0.5446017 1.3929814 0.9533097 -1.5358096
0001c0 54 c3 98 3f fe af 54 bf ce 58 8e bf b7 3f 23 bf
       1.193461 -0.8308104 -1.1120851 -0.63769096
0001d0 f7 25 54 3f b0 1a 83 3f a6 40 d1 bf 19 3d aa 3f
       0.8287043 1.0242519 -1.6347854 1.3299896
0001e0 67 c9 aa 3f 54 58 fc bf 6e 62 92 3f 48 8d 56 bf
       1.3342713 -1.9714456 1.1436288 -0.8380933
0001f0 f4 6a cc bf ea e5 75 3f 46 ec a0 bf ec 5c 70 bf
       -1.597014 0.96053946 -1.2572105 -0.9389179
000200 28 0c 8e 3f 68 99 b2 bf 01 72 90 bf 5d 62 66 3f
       1.109746 -1.3953066 -1.1284791 0.8999384
000210 d6 af 7f bf 54 a0 7a bf e1 70 34 3f df ec a7 bf
       -0.9987768 -0.9790089 0.7048474 -1.3119162
000220 10 bb e5 bf d9 1c 97 3f 69 75 81 3f b2 d5 b1 3f
       -1.7947712 1.1805679 1.0113956 1.389334
000230 2e 4c a0 3f f0 7b 9c 3f 7b 0b c6 3f 91 be 74 3f
       1.2523248 1.2225323 1.5472254 0.9560328
000240 be 4f d6 bf 94 60 a1 bf 07 8f 93 bf 1f 1c 8b 3f
       -1.6743085 -1.2607598 -1.1528023 1.0867957
000250 4f 79 d4 3f 56 39 a2 3f 20 51 ce bf 04 56 46 3f
       1.659952 1.2673748 -1.6118507 0.77475
000260 40 0d 75 3f 0a 5a 8d bf 02 0f 7b bf 5b 27 8f 3f
       0.9572334 -1.1043103 -0.98069775 1.1183885
000270 0b 23 71 3f 39 62 a2 3f 62 51 82 3f 0d 92 8a bf
       0.94194096 1.2686225 1.0181086 -1.0825821
000280 08 eb b9 3f 0d ea 8f 3f b0 77 98 3f 8d 16 79 bf
       1.4524851 1.1243302 1.1911526 -0.97300035
000290 5c c2 9c bf 61 1d 76 3f 08 44 ca 3f 6b dd cb bf
       -1.2246814 0.9613858 1.5802011 -1.5926946
0002a0 43 74 b2 3f e7 f3 c9 3f 68 76 6e 3f a8 c4 2e bf
       1.394173 1.5777558 0.93149424 -0.68268824
0002b0 41 e6 a2 3f 7e 5c 96 3f af d7 9a bf fa 48 9b 3f
       1.2726518 1.1746976 -1.2097071 1.2131646
0002c0 ec 27 9b 3f f4 ed 8d 3f 02 4c a1 bf d8 51 56 bf
       1.2121558 1.1088243 -1.2601321 -0.83718634
0002d0 49 d1 a3 bf 88 bb a3 3f 6c 4c 9e 3f f6 8b be bf
       -1.2798244 1.2791605 1.2367072 -1.4886463
0002e0 02 e4 79 bf a7 bb ce 3f 33 f4 8e 3f a3 e2 a4 3f
       -0.9761354 1.6151017 1.1168274 1.2881664
0002f0 f5 35 fa bf aa 2e 90 bf 57 3c 79 bf bc ae d0 be
       -1.9547716 -1.1264241 -0.97357696 -0.40758312
000300 1d b1 3b 3f 34 34 6d bf c8 42 c5 bf b7 dd 54 bf
       0.7331713 -0.9265778 -1.5411005 -0.8315081
000310 cb 19 b5 bf 6e a5 88 bf 5d 0d 9d 3f 97 ec 4b bf
       -1.4148496 -1.0675485 1.2269703 -0.7965788
000320 9a 8a 11 bf 91 3e 77 3f fc 47 12 c0 b6 2c 87 3f
       -0.56852114 0.96579844 -2.2856436 1.056052
000330 af cf a0 bf 06 d2 00 bf e8 7a b6 3f 59 6b a3 3f
       -1.256338 -0.5032047 1.4256258 1.2767135
000340 28 50 a4 bf e9 f1 87 3f 56 9f d6 3f 50 a5 13 3f
       -1.2836962 1.06207 1.6767375 0.5767412
000350 fe 48 b8 bf aa 85 a7 3f b7 a8 ae 3f e7 d9 81 3f
       -1.4397275 1.3087666 1.3645238 1.0144624
000360 95 5b 6c bf ad 01 f2 bf bf 55 7b 3f 69 cf 99 bf
       -0.92327243 -1.8906761 0.98177713 -1.2016422
000370 fd 9d 88 bf 9c f3 b4 bf 56 fd 6b bf 39 06 b5 3f
       -1.0673214 -1.4136844 -0.92183435 1.4142524
000380 80 6e f0 bf 93 76 c8 3f d9 bc 70 bf e9 ba 1e 3f
       -1.8783722 1.5661186 -0.9403816 0.6200395
000390 24 0a 60 3f 3c 34 73 bf 78 f2 9c 3f 13 ec 76 3f
       0.87515473 -0.9500158 1.2261496 0.9645397
0003a0 36 c0 ba bf aa 34 c0 3f 93 62 8e 3f 71 27 9b bf
       -1.4589908 1.5016072 1.1123832 -1.2121412
0003b0 e2 a8 b4 3f 32 db 67 3f 6e d3 c2 3f 8c ec b2 3f
       1.4114039 0.9056884 1.5220773 1.3978438
0003c0 d5 08 98 bf 25 81 35 3f 2b c9 85 3f ee ed bc 3f
       -1.1877695 0.70900184 1.0452017 1.476011
0003d0 ff ce b2 bf bd 18 9e 3f 22 29 5d 3f 0f 2c 07 c0
       -1.396942 1.23513 0.8639089 -2.1120641
0003e0 7b 91 89 3f 8a b8 ca bf 58 b1 d7 bf e8 3e 45 3f
       1.0747522 -1.5837567 -1.6850996 0.7704911
0003f0 c8 f6 8c 3f d3 33 1d bf 29 f8 2e 3f ef 14 9d 3f
       1.1012812 -0.614072 0.6834741 1.2272013
