fixed_route_safe_slac/Safe_Slac_CARLA/logs/CarlaRlEnv-v0-run/slac-seed0-20241201-1119/models/step20000/safety_critic.pth (torch, 507716 bytes, 5 tensors)

net1.0.weight f4 [256, 234]
00000000: ce27 37bd 994a ee3c 8d44 5bbd a2a2 c03d
00000010: 0d8a 50bc bab4 a5bc 72b2 7abd 2b9e 273e
00000020: 29c1 2dbe 1759 f63b b750 213e 128f 20bd
00000030: 97d1 ebbc f3e0 cdbc 4d4e 83be 9c13 3ebd
00000040: e86b 08bb b672 c0ba b323 663d 8d16 0fbd
00000050: 083d 67bd 65bf 7d3d c5f0 b23c d3b7 c9bd
00000060: 02e1 1bbd b800 a2ba 5ba2 8f3d e672 fcbb
00000070: 1fa9 49be 0125 31bd f3bc f4bc d81c 19bc
00000080: f0a9 cabd e8df 283e e4a7 1dbe 9f2e c03d
00000090: 7bb3 13bc 8641 f4bc 08b1 7c3d 008e 70be
000000a0: c038 173e f5c2 b2be 0b3a d8bc 9cff 84bd
000000b0: a11d 833d 7a5f ab3e a32c b53d 4ee5 e03e
000000c0: 7b08 9ebe 4183 db3d 0ded b5be 0af5 c13d
000000d0: d368 1bbf 14e4 853d 9cdd 7f3d 7c9b 4cbe
000000e0: 2a81 20bd 88c4 27be 9e9f 813e af7f 8ebd
000000f0: 187a 183f 0ec4 b2bd 06e8 de3d 9eb2 853d
00000100: f08b 90bb bcaa e2be df41 e2be 4d2b ddbc
00000110: 26fc 36be a32d bdbe 7f31 dabe c529 493f
00000120: bc82 1a3f 85a7 d8bd 972f 093e 7b23 063d
00000130: addc 603e cc34 2bbe cbcb 5a3d 75a9 3bbe
00000140: 380e 39bf edfe b4bc d4f5 c73e 1c12 7bbe
00000150: 2298 213e 1907 e03e 20e3 93be 6996 6d3e
00000160: d88e 97bf cfd7 543e a4d6 da3d 42d7 85be
00000170: 5e71 9dbe 47e8 13bf 1365 a1bc 58b7 3b3f
00000180: 2dc9 583f bbc1 94be 3184 b13e fd2d f93d
00000190: ddf3 6ebe 117e 06be 9901 903c 2804 3bbf
000001a0: 1b1a 71be ced9 e8bc 23cd 75be f961 643e
000001b0: 40fa 9c3e c4b1 7bbe d743 893e cad6 953d
000001c0: c9f4 35be 6d94 c3be 67a4 dc3e 48e6 5a3e
000001d0: 3094 a13e e89d e43e 8023 45be 8a86 f93d
000001e0: dc83 f6be d47c 12bf 2c2d c93e cfec d33e
000001f0: ae12 213f c719 e73e b65b e6be 3171 1fbd
00000200: 8e89 f23e 5f8a b83e d282 33be c428 e23e
00000210: ee87 a83d 6661 f8be 458c 953e a033 1abf
00000220: 0235 683f e803 0bbe 4447 1ebe 9b62 a63e
00000230: 8156 1cbf 6d5e 74be f2ac 94bf 6fa0 353f
00000240: 321b 213e 73b0 79bf a020 8ebe f78f 843b
00000250: 0256 fd3d 5374 9dbe ef0b af3e 9915 62be
00000260: 8f6c 293e bb98 843e ab32 17be 0e29 023e
00000270: c4ff 50be 4546 58bf 8380 453f da8d 90bd
00000280: 735a 83b9 02f9 113e 040e 6fbf 3725 94bc
00000290: 2ac1 35bf c7fd f8be 969b 5ebe 5bda 63bf
000002a0: 2c43 213e 4129 3ebc 0a4a eebd 1dbb 973d
000002b0: d6fa 473f eeca 993d a17f 9abe 7c41 573d
000002c0: 8f65 19be 192c cc3e 6a81 cb3d 6654 843d
000002d0: 2d1d 283d c1b2 483e 1317 f1bc 499e abbd
000002e0: 08c7 313f e5ee ddbe be13 e23e df34 8f3d
000002f0: 6035 3ebf 0a91 2cbe 27de 843d 3b04 813d
00000300: 5751 4bbf 8e94 84be aa01 d0be b638 84bd
00000310: 4afd 9d3e 0e24 403f 1ec3 d83e 9037 b9bd
00000320: efe3 bebe 9881 1cbf b6e5 febd 52d4 c03c
00000330: 777f 0f3e f3d3 e03d 9541 1ebe 079f 96bd
00000340: 0d0d 9c3e 28ed c1be 48f9 803e eab2 7f3e
00000350: c17f 393e 03d9 903b 173c b8bb 532d 0f3d
00000360: 8fd5 473e 0d2e 323f a594 8ebe 3b03 16be
00000370: a94c 26bd 0df7 56bd 2ee8 efbe b717 163e
00000380: eff8 173e 35cf 183f 58c4 eabd e236 433f
00000390: babf 233f 9f95 3bbf 1b3d 22bf 7ec4 853e
000003a0: 04ca 363f ba63 80bf 8d3a bcbc 1d7a afbe
000003b0: c255 a0bd b1e9 61bc 6a6f b2bd f85b 433b
000003c0: ffe5 92bd 23ff 0d3e 8988 c3be 96e3 e1bc
000003d0: 6350 6a3e e179 593c 61bf 4bbc 920d 43bc
000003e0: 9056 f03e b27f aabc 158a e4bc 35da 823a
000003f0: 1d09 8b3d 93b0 423d c3cb 9b3d 1d11 2f3d
-0.044715695 0.029088305 -0.053532172 0.0940602 -0.012728226 -0.020227779 -0.061205335 0.1636893
-0.16968216 0.0075179446 0.15753447 -0.039198942 -0.028786464 -0.025131678 -0.25645676 -0.04640542
-0.002081627 -0.0014682624 0.05618639 -0.034933615 -0.05645469 0.061950106 0.021843323 -0.09849515
-0.03805638 -0.0012359833 0.07013389 -0.0077041266 -0.19693421 -0.04324818 -0.029875254 -0.009345256
-0.09895694 0.16491663 -0.15396076 0.09383892 -0.009014959 -0.0298164 0.061692268 -0.23491669
0.14767742 -0.34914365 -0.026394865 -0.06494066 0.06402136 0.3347128 0.088464044 0.43924946
-0.30865845 0.10718394 -0.35532418 0.094705656 -0.60706824 0.06537643 0.062467203 -0.19981188
-0.03918568 -0.16383564 0.2531709 -0.069579475 0.595613 -0.08728801 0.10884099 0.06528209
-0.004411213 -0.44270885 -0.4419088 -0.026998186 -0.17869624 -0.3694888 -0.42615888 0.7857936
0.60355735 -0.10578827 0.1339706 0.03274868 0.21959181 -0.16719359 0.05341701 -0.18326361
-0.7228732 -0.022094214 0.3905474 -0.24518627 0.1578069 0.43755415 -0.2888422 0.23201908
-1.1840467 0.2078545 0.10685471 -0.2614079 -0.30750555 -0.577763 -0.019701516 0.73326635
0.8468197 -0.29054055 0.34671167 0.12166975 -0.23335214 -0.13134028 0.017578887 -0.73053217
-0.23545115 -0.02842417 -0.24004035 0.22302999 0.30659676 -0.24579531 0.2680957 0.073163584
-0.1776916 -0.38199177 0.4309418 0.21376908 0.3155837 0.44651723 -0.19251823 0.121838644
-0.48147476 -0.5722172 0.39292276 0.41391608 0.6291913 0.45136854 -0.44991845 -0.038926307
0.4737057 0.3604307 -0.17530373 0.44171727 0.082290515 -0.4851181 0.2920858 -0.60235023
0.90705884 -0.13575709 -0.15456873 0.32497105 -0.61069494 -0.23864146 -1.1615279 0.7094793
0.1573303 -0.97534865 -0.27759266 0.0040454823 0.1236992 -0.3075281 0.34188792 -0.22078551
0.16545318 0.25897774 -0.14765422 0.12710974 -0.20410067 -0.8448222 0.7714922 -0.07058306
-0.00025053657 0.14255145 -0.9338076 -0.018084152 -0.7099787 -0.48631117 -0.21739039 -0.8900506
0.1574828 -0.011606515 -0.116352156 0.07408736 0.7811712 0.07509409 -0.30175498 0.052552685
-0.14980148 0.39877394 0.09936793 0.0646141 0.04104345 0.19599439 -0.029429948 -0.083798
0.6944432 -0.43346325 0.44155687 0.06992506 -0.74300194 -0.16852203 0.06487685 0.06299635
-0.7942099 -0.25894588 -0.4062627 -0.06456129 0.30857307 0.75055015 0.42336363 -0.09043801
-0.37283275 -0.61135244 -0.12446158 0.023538742 0.14013468 0.10977926 -0.15454705 -0.07354551
0.30478707 -0.37876248 0.25190187 0.24970594 0.1811514 0.004420401 -0.0056223976 0.034955334
0.1951506 0.6960152 -0.27847782 -0.1464967 -0.040600453 -0.0524817 -0.46856827 0.14657484
0.14841054 0.5969117 -0.11463231 0.7625562 0.63964427 -0.7327518 -0.6337449 0.26126474
0.71402 -1.0030434 -0.022977138 -0.34272853 -0.07828857 -0.0137886265 -0.08712657 0.0029809456
-0.071727745 0.13866858 -0.38190106 -0.027574342 0.22882228 0.013273687 -0.012435765 -0.011905091
0.46941042 -0.020812843 -0.027897874 0.0009983244 0.067888476 0.047531676 0.07607224 0.04274093

net1.0.bias f4 [256]
00000000: 1250 db3d 80b3 a2be 6d07 21bf 3916 03bf
00000010: 29aa 4abe e708 2cbe 9ea8 90be 6ca6 913f
00000020: 50b9 22bf f7d5 3fbf e0b6 13be 16ff 85be
00000030: 8df3 65be ed5c 12bf d139 f3be d4e8 773e
00000040: e179 09bf 3cad 15be 34c3 03b7 e046 3dbe
00000050: 34d2 dcbe 725d b93b 4e2e 81bd bb96 d6be
00000060: 2e5f cbbe 64d6 073d b13f 6c3f 73b9 2fbf
00000070: 94be 89be 0e57 2dbf bf51 09bd 1326 9fbc
00000080: d4a0 cabe 3182 de3d f0eb fcbe ac10 84be
00000090: e24b b1be 67b2 eebe f6c4 a1be 92e1 b0bd
000000a0: b0d0 83be 3eca 6b3e 7620 7f3d a706 f7bd
000000b0: 19cd eabe e6ee 41be 67e5 6cbe 9ff9 3bbe
000000c0: 7e1f e6be 2779 483e c0ee 47be bc06 1d3e
000000d0: 8dd5 08bf e599 87bd c81a 2fbf 2712 01bf
000000e0: 8cfa fbbe 1007 4ebf 8785 33bf c7d7 2d3d
000000f0: f4cc 4dbf ab34 babe 8a7a 06bf eb00 8dbe
00000100: a9d0 c1be d33e a5be 96b1 19bf 155e 72bd
00000110: e2ef f3be 4585 d7be 87d1 c7bd 4efe dbbe
00000120: a67c 08bf a361 b9be 9505 05bf dbbb 603e
00000130: ae50 78bd 3542 19bd 3074 a9be cd26 e6bd
00000140: 8850 38be 5264 0ebf 6127 00bf 5cca 5ebf
00000150: 4384 0cbf 66a0 51bf 90df dfbe 45a3 c03d
00000160: 9564 4cbe 7d9d f1be 4cb7 81bd 5959 943e
00000170: be22 48bf ad1f 5dbe 5782 3bbe cc6d 12bd
00000180: b2b6 2bbf 5361 20bf 2a4d 38bf ea25 c4bd
00000190: 274e 04bf de6b 2dbc 7497 f53d 930c d1be
000001a0: 3958 b4be 94b8 29bf 22e9 44bf c624 20bf
000001b0: 5489 11bf c8e2 17bf 14e9 443d a714 41bf
000001c0: ff70 32be 808a 18bf 50c0 3abf 889d 25bf
000001d0: de98 423d e35b dfbd e8cc c2be 2468 adbe
000001e0: 0855 32bf 4f84 863f 9f09 033e 980e 4cbf
000001f0: b25f 2d3d 9d0a a53e 7728 13bf fff4 64be
00000200: b3f0 24bf 8b3a 1abf b611 67be 029c 07bf
00000210: c207 71ba 9920 c93e 1bfe ed3d ab05 82be
00000220: 5b65 9e3b 7508 aebe 22a5 f3be 2eff a6be
00000230: 9193 c5be b07c 08bf a5ab 2ebf 1c41 f73c
00000240: ddb1 f93c 5644 1cbf e9a4 a8be dd02 1bbe
00000250: 202c bebe 20bb 60be 74f3 a5bd 7b8b 3abf
00000260: c13d 28bf 1973 78be 9f45 0bbe 2eea 71bf
00000270: 05ad 0cbf fef0 30bf 0983 703c 9672 2cbf
00000280: cb94 d0be 875b 74be f79e bd3c 651f cdbb
00000290: 6db1 a9be d554 8dbd 3c98 cfbe 7bff 00be
000002a0: 0620 c1bd 8b8d f2be 6091 a63e e3bb c63e
000002b0: 89b6 9fbe cb85 bdbe a5ad 15be 8b2f 9fbe
000002c0: e728 b4be aca8 d1be 31e4 26bf 3b9a 033f
000002d0: 306c 25bd e59b 32be d886 ddbe 890d 53be
000002e0: 7e6c 973d 4d8f a0be 2526 573d 220a 9abe
000002f0: 36d8 28bd dc3e 86be 8fc4 8cbf 883b 69be
00000300: f754 0cbf 539a 58bc a546 0bbd c5d7 9d3e
00000310: fd6d 94be 37a4 a8be 8f25 553d b945 3bbf
00000320: 1f2b cabd cf1f efbe 243d 10bf 6ca2 8fbe
00000330: adfe 9b3d 2457 0ebf f494 a73e 9acf 34bf
00000340: ea52 99be 0ffe 21bf 6fce 03be 7114 48bd
00000350: f4e6 0ebf b50e 22bf 9794 29be 97bb 51bf
00000360: 2cb5 4cbe 9496 db3e 831f 54bf 542f 8abc
00000370: 1163 60be 2ca4 98bd 348e f53e 94b9 4bbe
00000380: 4397 ffbe 7366 f1be e8c2 8e3e 45b8 923e
00000390: 6505 b8bd fb1a 32bf f7c2 f5be 1ef8 b4bd
000003a0: 423f 25bf 61df edbe 21f4 c2be e717 2abf
000003b0: 9148 24be 2dc3 8fbe 1a56 24be 03bc a2be
000003c0: 38cf 64be f996 c93e 1254 6abe 3636 cebe
000003d0: ab6b 17bf 7ba8 f6bc 8829 8fbe 35b1 f4be
000003e0: 5461 4fbf 1e19 b7be caa5 58be 39a6 4bbe
000003f0: 96e7 713d e191 fa3c 2184 9a3e 0b02 a7be
0.107086316 -0.31777573 -0.62901956 -0.51205784 -0.19791473 -0.16800271 -0.28253645 1.1378913
-0.63564014 -0.7493586 -0.1442523 -0.26171178 -0.22456188 -0.57173043 -0.47505048 0.2420991
-0.537016 -0.14616865 -7.853658e-06 -0.18484068 -0.43129122 0.0056568915 -0.0630766 -0.41911873
-0.39721054 0.033163443 0.92284685 -0.6864235 -0.26903212 -0.6771096 -0.033525225 -0.019427335
-0.39575827 0.10864676 -0.49398756 -0.2579397 -0.34628206 -0.46620485 -0.31595582 -0.08636774
-0.25745153 0.23026368 0.062286817 -0.12061816 -0.45859602 -0.18938789 -0.23134385 -0.18356942
-0.44945902 0.19577466 -0.1952467 0.153346 -0.5345085 -0.0662115 -0.6840024 -0.50418323
-0.4921459 -0.80479527 -0.7012562 0.04244211 -0.8039086 -0.36368307 -0.5253073 -0.27539763
-0.37854508 -0.32274494 -0.600366 -0.059171755 -0.47643954 -0.42093864 -0.09756761 -0.42967457
-0.533152 -0.36207303 -0.5196164 0.21946661 -0.060623817 -0.037416656 -0.33096457 -0.112378694
-0.1799947 -0.55621827 -0.5006009 -0.87027526 -0.54889315 -0.81885374 -0.43725252 0.09406141
-0.19960244 -0.47190467 -0.06333789 0.28974417 -0.7817801 -0.21594115 -0.1831144 -0.03574924
-0.67075646 -0.62648505 -0.71992743 -0.09577544 -0.5168175 -0.0105848 0.11991778 -0.40829906
-0.3522356 -0.6629727 -0.7691823 -0.6255611 -0.5685017 -0.59330416 0.048073843 -0.7542214
-0.17425917 -0.59586334 -0.72949696 -0.646935 0.047509067 -0.10906198 -0.38046956 -0.33868515
-0.69661 1.0509127 0.12796639 -0.7970977 0.04232759 0.3223466 -0.5748362 -0.22359084
-0.6442978 -0.6024558 -0.2256535 -0.52972424 -0.00091945764 0.39282683 0.116207324 -0.2539495
0.00483386 -0.33990827 -0.47586924 -0.32616562 -0.38589147 -0.5331526 -0.6823066 0.030182414
0.03048032 -0.6104177 -0.32938316 -0.15137811 -0.3714304 -0.21946383 -0.081030756 -0.7286908
-0.6571923 -0.24262656 -0.13600777 -0.94497955 -0.54951507 -0.69117725 0.014679679 -0.67362344
-0.4073852 -0.2386304 0.02314709 -0.006259846 -0.33143178 -0.06900946 -0.40545833 -0.12597458
-0.09429936 -0.47373614 0.32532787 0.3881522 -0.3119395 -0.37016138 -0.14617021 -0.3109096
-0.35187456 -0.40949 -0.6519194 0.5140721 -0.04038638 -0.17442282 -0.4326694 -0.20610632
0.0739374 -0.3135933 0.05252661 -0.30085856 -0.04122182 -0.26219833 -1.0997485 -0.22776616
-0.54817146 -0.0132203875 -0.03400292 0.30828682 -0.28990164 -0.32937786 0.05203777 -0.73153263
-0.09871506 -0.46703956 -0.56343293 -0.28053606 0.07616935 -0.55601716 0.3273083 -0.70629275
-0.2994607 -0.6327829 -0.12871717 -0.04884762 -0.55821157 -0.6330369 -0.16560589 -0.81926864
-0.19990987 0.4288832 -0.82860583 -0.016868271 -0.21912791 -0.07453188 0.47960055 -0.19895011
-0.4992009 -0.47148475 0.27883077 0.28656211 -0.08985404 -0.6957242 -0.4800031 -0.08836387
-0.6454965 -0.46459487 -0.3807688 -0.6644272 -0.16043307 -0.28078595 -0.1604847 -0.31784067
-0.22344673 0.39372995 -0.22883633 -0.40275735 -0.59148663 -0.030109635 -0.27961373 -0.47791448
-0.81007886 -0.3576135 -0.21156994 -0.19887628 0.05905875 0.030587139 0.3017893 -0.32618746

net1.2.weight f4 [256, 256]
00000000: 2de4 913d ce66 f3bd 6fc5 943d ed5d 06bf
00000010: 9971 8f3e f271 96be 19c6 8dbc c182 adbe
00000020: fca4 e73e 3e67 69be 54aa 5bbf 4d03 54be
00000030: 4368 e33d 098d d23e 7ea6 17bd ddb9 16be
00000040: 5a6b 21bd 0578 edbe daef 0ebf c527 e43b
00000050: 344a 063e 918a 72be 254f 8c3e 10f1 e3be
00000060: e88d 333e caf5 fb3e aad5 08bf ea07 603f
00000070: a1a9 ecbe 777a 103f 14b3 99be d436 6b3e
00000080: 7841 e8bd 41e9 a8be 760b 84be 6259 893e
00000090: 990b c33d 20a1 573e ef15 e03e d32e cbbd
000000a0: b19d a1be 3a87 093e 0ae6 a43d 6399 3a3f
000000b0: 2b88 d6be 4232 1a3d 6e9c 143f df19 18be
000000c0: 5029 433f 6f1e 5e3e 8775 b9be 3e29 56bf
000000d0: 3c2b 95be 31d7 3cbe 8f99 453a db1d b4bd
000000e0: cfdf 5f3e fc52 10bf a2b9 44bd 0ffe 3dbe
000000f0: 1114 f43c 96e2 bbbc 16c5 113f b8c7 0ebf
00000100: b5d2 2a3f 60bb 67bd dbec 31be 44b5 0abd
00000110: ec79 a73d 0542 773f 5b7d b53e aa92 04be
00000120: 1a49 0bbf d2a5 19be 4723 97be 3621 15be
00000130: b99b ae3d e604 85be 027f 98be 582c 36be
00000140: a960 ddbc f657 a0be b594 c2bd 3c5f 04bf
00000150: 4237 a0bd 9714 893d 523f 063e f1aa d03d
00000160: 29cc efbd 3c79 fbbe 9292 ebbe 005a bcbe
00000170: ccac 78be d4dd 9a3e 6978 28bf 703c 1abf
00000180: 8c69 c5be 0317 323e 3c7f b9be abf0 0ebf
00000190: f9a8 79bf 7408 0cbe d95a dbbc c963 94be
000001a0: 4482 0cbe 37e9 fe3b b11f 333f 5081 12be
000001b0: 039b 68bd 16f3 e5be 7d27 2fbf c382 01bf
000001c0: 2982 e5bd e421 993e e869 703e 8b7e 1dbf
000001d0: 21ed e83c d86a 2d3c a70a 1ebf 0536 91be
000001e0: d233 93be f7bd 3bbf e136 adbe 58ac f2be
000001f0: 6c61 2abf d4ef 29bf 8569 cbbe a3a7 a2bd
00000200: ecdc ec3e 1f15 04bf 5ec8 a3bd 5719 a13e
00000210: 8a9b 39bf 2bc9 bfbe b75e 44be d342 993d
00000220: ba73 49bf e9e8 b9bd 4194 f23e df88 333e
00000230: b734 c9be f9bb c53c b447 e8be 839d 1ebd
00000240: 08aa d3bd f623 95be 0825 6abe f455 9d3e
00000250: c8d0 06bf 20c6 97be 5fdf bc3e 7d52 1a3f
00000260: 9924 4abe 8dba cc3e d34f c3be d29d bdbe
00000270: 753f f6be cd41 fb3e 0979 233c c1b8 dbbe
00000280: f7a2 673e 2c08 ba3e 8dd9 183e 7310 67bc
00000290: 462f 2f3f 225e 413e a422 d3bd 29bf ad3d
000002a0: 7fdc 1fbe 0868 c63e 7e2e ccbe 74d2 fa3c
000002b0: a000 70bd 3c7f 3dbe f271 b8bc 37e3 853e
000002c0: e44a f13d adec 3ebe 5f7a e5bc 0b15 25bf
000002d0: 0136 ce3d 73e4 55bf 8d8a 113e 1f01 9f3b
000002e0: 82d9 a83d 8c59 df3d d9bd 8cbe 75e3 e2be
000002f0: 44c7 1fbf d89e cabd 84f3 ccbe b5cd 953e
00000300: d415 ac3e d017 c7be 23e9 05be df34 053e
00000310: 3bf1 e4be a53f 9dbc 8300 0fbe 1170 d13e
00000320: ed1b 2f3d 1fad ebbe 6578 90be b93a 8a3e
00000330: bc11 f13e cf41 87be c66b 37bf 2282 32be
00000340: 0c75 aa3e 09f7 8f3f 9bb0 31bf 2476 383e
00000350: 57ce 20bf e623 2fbe b7c6 d1be 6760 31be
00000360: 567e 8bbe a26f d6be 3fe2 473e 57f1 37be
00000370: bcb5 b23c aa7b 07bf fcb3 33bf a8f8 4abe
00000380: 67e6 dfbe 32a3 2c3f 058d bdbb 8c0d 7dbe
00000390: 4bff 22bf 674f dcbe f76b 543e c18f 0fbe
000003a0: 2f2c 903e 5c11 b2be b84c 82bd 5ec1 1b3d
000003b0: 751b 2fbe 329a 2c3f 6a01 c63b 1138 4b3e
000003c0: 2318 31bf 26b5 31be a2a6 7abf 59b2 0bbf
000003d0: dc08 9ebe 08ac b53e 51ed 04bf f7cb 1abf
000003e0: 5639 5dbe 9dd1 e53e d486 7f3d bcba b5be
000003f0: 05e5 8ebe 5b79 6e3e c3cd 3abf 95a4 64bf
0.07123599 -0.11884843 0.0726422 -0.5248707 0.28016356 -0.29383808 -0.017306374 -0.3388882
0.4524306 -0.2279329 -0.85806775 -0.20704384 0.11103871 0.41123226 -0.037024014 -0.14719339
-0.03940902 -0.4638063 -0.55834734 0.0069627487 0.13114244 -0.23685671 0.27404132 -0.44519854
0.17534602 0.4921096 -0.53451025 0.87512076 -0.46223167 0.56436867 -0.30019438 0.22970134
-0.11340612 -0.3299046 -0.25789994 0.26826006 0.095236965 0.21057558 0.43766734 -0.099210404
-0.31565621 0.13430491 0.08051689 0.728903 -0.41900763 0.037645586 0.5805119 -0.14853619
0.7623491 0.21691297 -0.3622248 -0.8365668 -0.29134548 -0.18441464 0.00075378356 -0.08794757
0.2186272 -0.56376624 -0.048028596 -0.18553947 0.029794725 -0.022935193 0.56941354 -0.55773497
0.66727763 -0.05657518 -0.1737551 -0.033864275 0.081775516 0.9658511 0.354472 -0.12946573
-0.5440842 -0.15004662 -0.29519102 -0.1456345 0.085257955 -0.259803 -0.297844 -0.17790353
-0.02702363 -0.3131711 -0.0950102 -0.51707816 -0.078230396 0.0669338 0.13110092 0.101888545
-0.11708862 -0.49115932 -0.46010262 -0.36787415 -0.24284667 0.30247366 -0.6580873 -0.6024847
-0.38557088 0.17391591 -0.36229885 -0.5583598 -0.97523457 -0.136751 -0.026776718 -0.2898238
-0.13721567 0.007779266 0.6997023 -0.14307141 -0.056788456 -0.44912022 -0.6841963 -0.5059015
-0.11206467 0.2990867 0.234779 -0.61521214 0.028433384 0.010584556 -0.61735004 -0.28361526
-0.28750473 -0.7333674 -0.33830932 -0.47397113 -0.66554904 -0.66381574 -0.39728943 -0.079421304
0.462623 -0.5159473 -0.079972014 0.31464645 -0.7250296 -0.37458166 -0.19176756 0.07483449
-0.7869221 -0.09077627 0.47378734 0.17532681 -0.3929803 0.024137484 -0.45367205 -0.038724434
-0.10335165 -0.29129 -0.22865689 0.3072964 -0.52662325 -0.29643345 0.3688917 0.6028212
-0.19740523 0.39986077 -0.3814684 -0.3703447 -0.4809529 0.4907364 0.0099775875 -0.42914394
0.2262076 0.3633436 0.14926739 -0.014103043 0.6843151 0.18883565 -0.103093415 0.084837265
-0.15611456 0.38751245 -0.3987922 0.03061793 -0.058594346 -0.18505567 -0.02251527 0.26149914
0.117818624 -0.18644972 -0.028012453 -0.64485234 0.10068894 -0.8355171 0.14213009 0.0048524286
0.08244611 0.109057516 -0.27488592 -0.4431416 -0.6241343 -0.09893578 -0.40029538 0.29258505
0.33610404 -0.38885355 -0.13077216 0.1300845 -0.44715294 -0.019195387 -0.13965039 0.40905812
0.04275124 -0.46030518 -0.28216854 0.26997927 0.47083843 -0.26417395 -0.71648824 -0.17432454
0.33292425 1.1247264 -0.69410104 0.18013817 -0.6281485 -0.17103538 -0.4097192 -0.17321931
-0.27244824 -0.41882044 0.195199 -0.17963158 0.021815173 -0.5292307 -0.7019651 -0.19821417
-0.4373047 0.67436516 -0.005784633 -0.24712199 -0.63670796 -0.4302933 0.2074431 -0.14019682
0.2815871 -0.3477887 -0.06362289 0.038026206 -0.17100318 0.67422783 0.006042649 0.19845606
-0.69177455 -0.17354259 -0.9791051 -0.5456901 -0.30866134 0.35482812 -0.51924616 -0.60467476
-0.21603903 0.44886485 0.06238444 -0.3549403 -0.27909103 0.23288481 -0.7297022 -0.8931363

net1.2.bias f4 [256]
00000000: bf85 8d3e 89bc 38be a541 dd3d bb67 cbbd
00000010: 72e6 b7bd 783d 773d 5212 6ebe 5b4f 403e
00000020: d217 cdbd 7423 8a3e c0fd d03e 4369 3ebe
00000030: cac2 cbbd d7b5 01be 1e3f 8b3e 8272 68be
00000040: 758a bfbe 7f62 c539 59be 6ebe 2027 b03e
00000050: 5f7a 16be 05d8 88be 6aee 423e 33e5 333d
00000060: 12ff 83be b8bd b93e 28ce 14be c39e c7bd
00000070: 292f 13bd deac 5dbe 2257 2f3c 0478 46be
00000080: 871b b23d 0ce5 3b3e d5f6 0c3f 7c50 4cbd
00000090: 15b2 05be 0839 bf3e 7e84 81be 75bf 583d
000000a0: 332d aa3e a57d 9dbd 6d3b 14be f69a 133e
000000b0: 2426 163e dccf 7bbe d772 41be b645 c83e
000000c0: 521f 603e d8b8 393e 4145 72be 84c5 2d3e
000000d0: b256 36be 90bd 553d 0788 253d 5668 a63e
000000e0: d2c2 03be 97ab 633e 506a d93d 760a 7abe
000000f0: 05ea 07be 40ff e93b 4bcd 0cbe 341d 1d3f
00000100: 770c 95be b367 703e 9cdf 063f 1b8e a8bc
00000110: d75a b13e 1275 553d 3627 c93e 1466 853e
00000120: 3849 2ebe bf40 aabd 26a2 913e 0d3e 83bd
00000130: dbab 6d3e 36ed 28be ccbb 353e dfcb 26be
00000140: 3db8 7cbe f326 2dbe ca59 45be d8ac 643e
00000150: 24d5 8fbe 028f 0fbe 02ec 67bd e255 213d
00000160: 73c9 d63e 4cd8 bc3e a715 c53d ab70 4c3e
00000170: 40d8 903e 9985 5f3e 0ff9 c33e 0b1f b6be
00000180: b70c 19be 9a94 9d3e 53f0 b9bd 5f04 893e
00000190: 4693 a23e 74ad 103e 7402 5d3e e442 07be
000001a0: 2c08 333e 6322 e1bd c2fb 5cbe 1ca9 6f3d
000001b0: 3537 843e c73d 33be 4c01 76be e9f0 883e
000001c0: 0c30 d5bd ad72 ae3e c4c2 eb3e 012b 653e
000001d0: 8ad2 10be 40f3 d6bd e9ca 763e 46ae 39be
000001e0: bde8 b0bd c9d5 af3c 1041 d7be a3cd 333e
000001f0: 9121 d73e b9c2 853a 8844 693d efb9 c23d
00000200: 7885 3d3d 413a d53e c696 933e e789 a2be
00000210: 3b49 023e f0f9 0ebe b1ba b7be 89f3 98bd
00000220: 8a1c 9f3e 6810 76be c5c0 7dbe 575a aebd
00000230: 77b0 ebbd e76e 2abe 2903 02be cf89 8dbe
00000240: 9489 8fbc 4dcd 903e f521 4d3e 8806 4dbe
00000250: 7168 70be 2621 17be 9d0d c23e 6936 81be
00000260: 2fa6 f3bd a490 6e3e d121 54bd ca3b 7dbe
00000270: 778d 3b3c 82b7 dbbd 22d0 b3be 830b ae3e
00000280: 0015 24be a96d bbbe 2eda 95be 9726 c83d
00000290: 7e6f 5d3e 5de3 6cbe 94e4 debd ea6a 2b3e
000002a0: 4df0 42be 48c9 35be ecb1 69be e721 1a3e
000002b0: bbb6 08be 5871 28be 9707 a13e 0c62 8b3c
000002c0: f350 4cbe 7f9d 43be cacb 8e3e 0691 843e
000002d0: 0ca2 693e e05f e2bd 1ff5 7dbe 0112 a03e
000002e0: 01ed cf3c b0dc e3bd 7bd2 0abe b82b 5cbe
000002f0: 15a8 383e 36df be3e c4fa f13d f1cf b93e
00000300: 27c9 c33e 621e fb3e 3c6c 0d3f 38f5 0d3f
00000310: d41c 1c3e 0b49 6b3e 86f2 8bbe 787f 9e3e
00000320: f46d 4a3c b0cc 20be 49f1 bf3e d1a1 6fbd
00000330: 3015 073f 45d7 f33e 2064 b1bd 7b03 c4be
00000340: 530e a53e f94f cb3c 2b59 303e f91d 1fbe
00000350: 6571 1a3f 47ee 69be 1df9 68bd afed 24be
00000360: dd10 c53e 35b7 e43e 6e06 8abd 2fdc 423e
00000370: 49bd b83e d043 b43e baa3 b33e 71d8 b13c
00000380: c891 f43e ed57 97bd 8ccf 913e 8266 94be
00000390: 38f3 abbe ab04 813e 0ddd 5fbe f5d3 f8bd
000003a0: 48bb be3e 8b66 14be 7abf e8bd b95e 0e3f
000003b0: 5f47 69be 7193 2abe 45b6 81be 9457 39be
000003c0: 9f4f 523e b6de bebd 2a58 b7bd dd3e c2be
000003d0: 7fcd c63e 690b 17be 3063 3fbe ed63 443e
000003e0: 5767 85be 098e f43d 9f4c 52bd 8e85 40be
000003f0: 63e7 41be 0302 6c3e 4c41 9bbe dc04 92bd
0.27641103 -0.1804067 0.10803536 -0.099318944 -0.08979501 0.060361356 -0.23249176 0.18780272
-0.10014309 0.26980174 0.40818596 -0.18594842 -0.099492624 -0.12667023 0.27196592 -0.22699931
-0.37410322 0.00037648153 -0.233148 0.3440485 -0.14695118 -0.2672731 0.1903626 0.043919753
-0.2578054 0.36277556 -0.14531767 -0.09747078 -0.035933647 -0.21647975 0.010701926 -0.1938172
0.08696657 0.18349093 0.55064136 -0.049881443 -0.13056214 0.373482 -0.25296396 0.052916963
0.3323761 -0.076899804 -0.14475794 0.14414582 0.14662987 -0.24591011 -0.18891464 0.39115685
0.21886948 0.18136919 -0.23659231 0.16969877 -0.17806509 0.052182734 0.04041293 0.32501477
-0.12867287 0.22233425 0.106159806 -0.24418053 -0.13272865 0.007141024 -0.13750188 0.61372685
-0.29111072 0.23477058 0.5268495 -0.020575574 0.34639618 0.0521136 0.39287728 0.26054442
-0.17020118 -0.083131306 0.28444022 -0.064083196 0.23210089 -0.16496739 0.1774742 -0.16288708
-0.24679656 -0.16909389 -0.19272533 0.2233156 -0.280923 -0.14019397 -0.05662156 0.039388545
0.4195057 0.3688377 0.096232705 0.19964854 0.28289986 0.21828307 0.38275954 -0.3557056
-0.14946257 0.30777436 -0.09079041 0.26761147 0.31752986 0.14128667 0.21582967 -0.1320911
0.17483586 -0.10992887 -0.21580413 0.058510885 0.2582337 -0.17504035 -0.24023932 0.267463
-0.10409555 0.34071866 0.46047032 0.22379686 -0.14142814 -0.10495615 0.24100842 -0.18132886
-0.08638141 0.021464245 -0.42041826 0.17558913 0.42017797 0.0010205127 0.056950122 0.0950812
0.046269864 0.41646007 0.28825969 -0.31745836 0.12723248 -0.13962531 -0.35884622 -0.07468326
0.3107646 -0.24029696 -0.24780567 -0.08513325 -0.115082674 -0.16643868 -0.12696518 -0.27644202
-0.017521657 0.28281632 0.20032485 -0.20022023 -0.23477341 -0.14758739 0.3790101 -0.25236824
-0.118969314 0.23297364 -0.051790062 -0.24729839 0.011447302 -0.10728361 -0.3511973 0.33993158
-0.16023636 -0.36607102 -0.2926802 0.097729854 0.21624562 -0.23133607 -0.108834416 0.16740003
-0.1903698 -0.17752564 -0.22821778 0.15051995 -0.13350956 -0.16449487 0.31451103 0.017014526
-0.19952755 -0.19103049 0.27889854 0.25891894 0.22815722 -0.11053443 -0.24800538 0.31263736
0.025381567 -0.11126077 -0.13556854 -0.21501052 0.18032868 0.3727967 0.11815408 0.3629146
0.38239405 0.49046618 0.5524328 0.554523 0.15245372 0.22977082 -0.27333468 0.30956626
0.012355316 -0.15703082 0.37488773 -0.05850393 0.52766705 0.47625175 -0.086616755 -0.38283905
0.3223749 0.024818407 0.17221515 -0.15538777 0.60329276 -0.22844802 -0.056878198 -0.16106294
0.38489428 0.44671026 -0.067395076 0.19029306 0.36081913 0.35207987 0.3508585 0.021709653
0.47767472 -0.073898174 0.28478658 -0.28984457 -0.33584 0.25198874 -0.21861668 -0.121498026
0.3725226 -0.14492242 -0.11364646 0.55613285 -0.22781132 -0.16657807 -0.25334373 -0.18099815
0.20538186 -0.093198225 -0.08952363 -0.37938586 0.38828656 -0.14750446 -0.18690181 0.19178744
-0.26055405 0.119411536 -0.051342603 -0.18800947 -0.18935923 0.23047642 -0.30323255 -0.07129833

net1.last_linear.weight f4 [1, 256]
00000000: 7d9c 76bf 3533 933f 3dc2 95bf 143e cabf
00000010: b43f 8b3f 5240 9fbf c912 963f 0e4e 1dbf
00000020: 52c1 843f e372 8cbf 60ef b0bf 3c2a ad3f
00000030: 7a90 be3f 6029 7c3f 9bc5 08bf 6000 303f
00000040: 1e70 933f 8511 11bf 1d24 573f 0db0 dfbf
00000050: 3125 9c3f 9e17 a13f 5f7a 81bf 5571 b73f
00000060: 1958 bd3f 08da 2ebf 75a7 51bf e1dc 9abf
00000070: 768c 58bf d4e2 883f 49fb 3ebf 044d 8f3f
00000080: f753 86bf 99a3 93bf 5927 51bf e5ef 89bf
00000090: 61db 7d3f 2482 9cbf 8065 ac3f 6f2c 5d3f
000000a0: 07da 6abf a7f6 753f b4cf a83f 55eb 53bf
000000b0: a6a9 bfbf 0be7 823f 62a8 c13f d930 06c0
000000c0: 6aab 94bf 9e84 b23f b3e4 643f 285d 8dbf
000000d0: d337 963f 7ffa 98bf 9e8b c7bf 6c2f fabf
000000e0: 8905 8c3f c651 c6bf 4ffa 20bf 8991 b33f
000000f0: 6a85 ad3f 937f 5e3f 3f45 b93f 9ec4 a0bf
00000100: 0548 803f 06d3 533f 884b 07bf 658f 883f
00000110: b5d9 d1bf ba13 54bf 33dd 58bf 4b28 c9bf
00000120: 0252 9b3f 367e c73f b854 d3bf 8179 a53f
00000130: 2538 a6bf e6af 01bf 7fd1 e13f f42e 9f3f
00000140: 1f93 9c3f ab92 973f 59f4 7c3f 8142 f7bf
00000150: 8055 d13f d174 b93f 3fa4 7cbf c4d6 54bf
00000160: 70e4 a4bf 7069 69bf bdc7 433f 16c5 8f3f
00000170: 2b66 bcbf 2930 ecbf ea81 a0bf 8d63 a73f
00000180: 20a7 173f e1c4 cdbf 3b93 a73f e0b0 40bf
00000190: 87b2 51bf dd2e 883f 86cf 4abf ecac a63f
000001a0: 3bc7 b2be 4be7 a83f b154 863f fb0c b6bf
000001b0: 2146 0bbf 972d b23f 930c 743f bd97 c4bf
000001c0: 98c1 983f 5791 54bf 5448 8ebf 8423 23bf
000001d0: 8025 543f 931f 833f 1b3d d1bf 5f36 aa3f
000001e0: ebcc aa3f 1762 fcbf e06a 923f 6b88 56bf
000001f0: b775 ccbf 43de 753f ecdc a0bf b642 70bf
00000200: f824 8e3f d08c b2bf 105e 90bf b362 663f
00000210: 4caa 7fbf 39af 7abf 7260 343f c0ce a7bf
00000220: 4ba3 e5bf 3022 973f b274 813f 2edb b13f
00000230: 0b4a a03f 9581 9c3f b615 c63f 72bd 743f
00000240: 8d3f d6bf 0b42 a1bf 628d 93bf 6e19 8b3f
00000250: 5a78 d43f 203b a23f a859 cebf 0151 463f
00000260: 2eef 743f 5a5b 8dbf ed04 7bbf 3f2b 8f3f
00000270: eefc 703f cf64 a23f 5454 823f b090 8abf
00000280: 1df0 b93f 8cf3 8f3f a476 983f cf07 79bf
00000290: c7c9 9cbf 4520 763f 0f4c ca3f afc9 cbbf
000002a0: 8277 b23f 98ef c93f b875 6e3f dfae 2ebf
000002b0: 6dce a23f e7fb 953f 97c0 9abf 8747 9b3f
000002c0: 152a 9b3f bef2 8d3f 4047 a1bf 1b4c 56bf
000002d0: a6d5 a3bf 1aab a33f 8a4a 9e3f 3e8d bebf
000002e0: 1edc 79bf bdb1 ce3f b8ec 8e3f 0de8 a43f
000002f0: b21c fabf 4f47 90bf af2b 79bf ee91 d0be
00000300: 0d46 3b3f 650f 6dbf 0d49 c5bf 53cd 54bf
00000310: a90e b5bf b06b 88bf 0c0c 9d3f f1d5 4bbf
00000320: 2990 11bf c649 773f ce5d 12c0 ae2c 873f
00000330: dfc8 a0bf 4ac3 00bf 8681 b63f 4167 a33f
00000340: 1a42 a4bf e5f1 873f de8f d63f f658 133f
00000350: 8c5b b8bf 3489 a73f 16a5 ae3f dadb 813f
00000360: 9e4a 6cbf dbdb f1bf 5445 7b3f 34cc 99bf
00000370: fa95 88bf 32e7 b4bf 88ed 6bbf 25ac b43f
00000380: 0778 f0bf 5163 c83f e9ad 70bf d2b0 1e3f
00000390: 930b 603f 9f15 73bf 75f4 9c3f fbd9 763f
000003a0: 7aa9 babf 3e3e c03f 4261 8e3f 2814 9bbf
000003b0: 6eaa b43f a5cf 673f 36d1 c23f 5edd b23f
000003c0: 3f01 98bf b87b 353f 4dcc 853f 17e6 bc3f
000003d0: 9ed1 b2bf 3a17 9e3f 9f1c 5d3f 942c 07c0
000003e0: 4090 893f 58c3 cabf c295 d7bf eb39 453f
000003f0: 97f4 8c3f bb29 1dbf 8cf0 2e3f 6819 9d3f
-0.9633253 1.1500002 -1.1699902 -1.5800195 1.0878816 -1.2441504 1.1724483 -0.61447227
1.0371497 -1.0972561 -1.3823051 1.3528514 1.4887841 0.98500633 -0.5342652 0.6875057
1.151859 -0.5666736 0.8403948 -1.7475601 1.219885 1.2585332 -1.011547 1.4331461
1.479251 -0.6830144 -0.81896144 -1.2098657 -0.84589326 1.0694222 -0.7460218 1.1195378
-1.0494374 -1.1534301 -0.81700665 -1.0776335 0.9916287 -1.2227216 1.3468475 0.86395925
-0.91738933 0.96079487 1.3188386 -0.82780963 -1.4973648 1.0226759 1.5129511 -2.0967314
-1.1614811 1.3946722 0.8941147 -1.1044054 1.1735786 -1.1951445 -1.5589483 -1.9545722
1.0939189 -1.5493705 -0.6288194 1.4028789 1.355634 0.8691341 1.4474257 -1.2560003
1.0021979 0.8274387 -0.52849627 1.066876 -1.6394564 -0.828426 -0.84712523 -1.5715421
1.2134402 1.5585392 -1.6510229 1.2927705 -1.2985884 -0.50659025 1.7642058 1.2436204
1.2232398 1.1841635 0.98810345 -1.931717 1.6354218 1.4488775 -0.9868812 -0.83140206
-1.2882214 -0.9117651 0.7647665 1.1232021 -1.4718679 -1.8452197 -1.2539647 1.3077255
0.5923939 -1.6075708 1.3091806 -0.7526989 -0.81913036 1.0639302 -0.79222906 1.3021522
-0.34917626 1.3195585 1.0494596 -1.4222711 -0.54403883 1.3920163 0.95331687 -1.5358807
1.193408 -0.8303427 -1.1115823 -0.6372607 0.8286972 1.0244011 -1.6346773 1.3297843
1.3343786 -1.9717435 1.1438866 -0.8380191 -1.5973424 0.9604227 -1.256742 -0.9385179
1.1105032 -1.3949223 -1.1278706 0.89994353 -0.9986923 -0.9792362 0.70459664 -1.310997
-1.7940458 1.1807308 1.0113738 1.3895013 1.2522596 1.2227045 1.5475376 0.9560157
-1.6738144 -1.259828 -1.1527522 1.0867136 1.6599228 1.2674294 -1.6121111 0.7746735
0.9567746 -1.1043503 -0.9805439 1.1185073 0.9413594 1.2687014 1.0181985 -1.0825405
1.4526402 1.12462 1.1911206 -0.9727754 -1.2249078 0.9614299 1.5804461 -1.5920924
1.3942721 1.5776243 0.93148375 -0.6823558 1.2719246 1.17175 -1.2090024 1.2131203
1.2122217 1.1089704 -1.2599869 -0.8370988 -1.2799575 1.2786591 1.2366498 -1.4886854
-0.976015 1.6147991 1.1165991 1.2883316 -1.9540007 -1.1271762 -0.9733228 -0.40736336
0.73153764 -0.92601615 -1.5412918 -0.831258 -1.4145099 -1.0657864 1.2269301 -0.79623324
-0.56860596 0.96596944 -2.2869754 1.056051 -1.2561301 -0.5029799 1.4258277 1.2765886
-1.2832673 1.0620695 1.6762655 0.5755762 -1.4402938 1.3088746 1.364413 1.0145218
-0.92301357 -1.889522 0.9815266 -1.2015443 -1.0670769 -1.4133055 -0.9215932 1.4115034
-1.878663 1.5655309 -0.94015366 0.61988556 0.8751766 -0.94954866 1.2262102 0.9642636
-1.458297 1.5018995 1.1123431 -1.2115526 1.4114511 0.90551215 1.5220096 1.3973806
-1.187538 0.70891905 1.0452973 1.4757718 -1.397022 1.2350838 0.863718 -2.1120958
1.0747147 -1.5840864 -1.6842577 0.770415 1.1012143 -0.613918 0.68335795 1.2273378
