safe_slac_parallel _version/Safe_Slac_CARLA/models/actor.pth (torch, 508276 bytes, 6 tensors)

net.0.weight f4 [256, 232]
000000 58 b7 3d bd 48 89 59 bd 93 f9 89 3d f7 a2 1f bd
       -0.04631743 -0.053109437 0.06737056 -0.038973775
000010 f7 77 03 3d 20 a2 21 bd 73 95 33 bd fa 56 4b 3d
       0.03209683 -0.039461255 -0.043843698 0.049643494
000020 93 73 fc 3c 1b d4 b5 3d b1 e0 c0 3d 68 0d 92 bb
       0.030816829 0.088783465 0.094178565 -0.0044571646
000030 8f ed 07 3d c5 e2 93 3d ab 47 6e 3d 52 4c 83 bd
       0.033185538 0.07220987 0.058173817 -0.06411041
000040 f9 92 aa bd f8 e6 bc 3d ed 6a 05 be e1 2f 83 bd
       -0.08328814 0.09223741 -0.1302907 -0.064056166
000050 e9 21 93 3d ea 36 a8 bd 1b cc ad 3d ac 35 20 be
       0.07184202 -0.08213599 0.08486196 -0.15645474
000060 3e e0 9f 3b d3 2d 6a 3d 4f 35 98 bd 13 d2 99 bc
       0.0048790267 0.057172608 -0.07432043 -0.018776929
000070 0e 53 c8 bb c3 78 3e bb e8 7f 4e 3d 89 4c 77 bc
       -0.0061134165 -0.0029063679 0.05041495 -0.015093931
000080 18 a7 29 ba f4 1b 8a bc e0 b7 67 bc 48 00 ba 3c
       -0.0006471737 -0.016859032 -0.01414296 0.022705212
000090 be b2 ec 3d a0 40 05 be b4 28 18 bc 17 6d 8b bb
       0.1155753 -0.13012934 -0.009287048 -0.004254948
0000a0 a3 63 9a 3c 41 c8 f1 3d 35 b1 0d bc 95 d8 da bc
       0.018846339 0.118057735 -0.0086482065 -0.026714602
0000b0 a6 60 13 bd 00 bb 94 bd de c3 8f 3c b0 73 42 bd
       -0.035980843 -0.0726223 0.017549451 -0.04747361
0000c0 97 00 6e 3d 1d fb 02 3e 26 26 a6 bc 22 1e 2c be
       0.05810603 0.12791105 -0.020281862 -0.1680837
0000d0 7d a5 1b be be ad 6b bd 90 11 22 bd a1 d3 97 3b
       -0.15199848 -0.05753874 -0.03956753 0.0046333824
0000e0 8a 02 6b 3d 87 f2 87 bc ae 61 e5 bd da 0f 30 bc
       0.05737547 -0.016595138 -0.112002715 -0.010745967
0000f0 3e a4 7b bc 05 5d c4 3d 0d 1c ac 3c 53 d3 43 bc
       -0.015358983 0.095880546 0.02100947 -0.011952239
000100 41 36 0f 3c 7c c5 96 bc a7 7e bb 3d 8a 47 4a be
       0.0087409625 -0.018404715 0.091550164 -0.19753852
000110 cd 65 0b bd 9e 83 b9 3c c1 c1 38 3d a5 27 78 bd
       -0.03403263 0.022645768 0.045106653 -0.060584683
000120 6e fc 9b 3c d1 6b e9 3c ab c6 a7 bd 96 da 24 be
       0.019041266 0.028493794 -0.0819219 -0.16099009
000130 4d 02 bb 3d 73 f6 2b 3d a3 82 df bd cd c1 05 bd
       0.09131298 0.04198308 -0.10913589 -0.032655526
000140 1e db ad 3b 6f 86 a0 3d d8 86 84 3d 3d 3f 08 be
       0.005305662 0.07838141 0.06471032 -0.13305373
000150 a6 15 99 bd a5 af 10 3e a0 31 75 bd e4 5e 23 3e
       -0.07474832 0.14129503 -0.05986178 0.15954167
000160 9d bd 88 bd 0f da e4 bd 33 2f 8b bc 23 cc 19 3d
       -0.06676791 -0.11174404 -0.01699028 0.037548196
000170 3a a4 20 bd 85 1e f9 bd b3 13 33 bc f5 54 66 3d
       -0.03921912 -0.12164024 -0.01092999 0.056233365
000180 cd d8 bb 3b 0e 27 f7 bc d6 1d 17 3d 58 fa 17 be
       0.005732632 -0.03016999 0.03689369 -0.14841592
000190 ae 1f b7 3d 0c 62 8f bc 1a 44 b8 3b 5c 6c 34 3a
       0.08941589 -0.017502807 0.0056233527 0.0006882602
0001a0 5d 0c d0 3d da e7 2c 3d a6 1b ee 3c ec 70 87 bd
       0.10158608 0.0422133 0.029065918 -0.06613335
0001b0 e9 b2 e6 3d 62 de 3b 39 ed 5e c0 3d 46 a8 ff 3d
       0.11264593 0.00017916554 0.09393106 0.124832675
0001c0 39 80 15 bd 5b 51 c7 3c c2 1f 0f 3e 66 7a b7 bd
       -0.036499236 0.024330785 0.13976958 -0.089588925
0001d0 1d 4b e4 3d 82 43 bd 3d 62 b9 6b bd c8 4e 92 bd
       0.11147139 0.09241392 -0.05754984 -0.071439326
0001e0 8c d7 8b 3d c8 59 83 bc f7 fd b3 bd 2d 49 e7 bd
       0.06828222 -0.016034022 -0.08788674 -0.11293254
0001f0 8f 1c ab 3d 33 af bf 3c 16 89 bb 3d dc ce 22 3d
       0.083550565 0.023398971 0.091570064 0.039748058
000200 e1 1f 56 3d ef b5 83 bd 6e dc cd 3d cd 8d 5b 3c
       0.052276496 -0.064311855 0.10051809 0.013400507
000210 99 0e 13 be 77 db 2e bd ad 1c 5c 3c 12 e1 4b bd
       -0.14361037 -0.042689767 0.013434571 -0.04977519
000220 90 9f 4c bd f7 df 3e bd 47 c3 48 3d e7 1b 51 3d
       -0.04995686 -0.04660031 0.049014356 0.051052
000230 22 47 1a 3c 0e 00 8b 3c 06 4d b2 bd 83 e9 8d bd
       0.009416373 0.0169678 -0.08706097 -0.069293045
000240 99 2c 1e 3e 7e b3 51 bd c6 df 07 3d 69 3a 04 3e
       0.154467 -0.051196568 0.03317239 0.12912907
000250 e7 28 02 be 97 2e f6 bd e2 86 50 bd 26 90 c0 bd
       -0.12710916 -0.12020605 -0.050909884 -0.09402494
000260 2d c1 bd 3d bf a1 4a bd 19 4d f8 3c d5 9e 69 bd
       0.09265361 -0.04947066 0.0303102 -0.05703624
000270 f3 49 b7 3c d6 d6 b0 bb 0c 5a 80 3d 03 18 b9 3c
       0.022374129 -0.005396704 0.06267175 0.022594457
000280 2a e2 b2 bc a4 1b 48 bd 41 47 94 3d c9 b5 85 bd
       -0.021836359 -0.048854485 0.07240153 -0.065288134
000290 3e 52 43 3d ef 60 7f bc 64 96 28 be 81 59 94 3d
       0.047685854 -0.015587076 -0.1646362 0.07243634
0002a0 f4 27 81 3d 92 c0 34 be 51 3a ee bc 2c 50 4c be
       0.063064486 -0.17651585 -0.029080542 -0.19952458
0002b0 2f f8 93 3c 37 95 f5 bd 44 d4 be 3d 97 61 a9 3d
       0.01806268 -0.11991351 0.0931783 0.08270567
0002c0 f6 96 e7 bd 2f 05 30 3d 83 53 c7 3d 19 a8 32 3c
       -0.113080904 0.042973693 0.097327255 0.010904335
0002d0 11 12 aa 3b 18 7b e9 bc 36 c9 6f 3d 6b 3f 33 bd
       0.005190142 -0.028501078 0.0585415 -0.043761652
0002e0 50 60 ba 3d 75 5b d5 3c 30 66 74 3c 66 1c 70 3d
       0.091004014 0.026044587 0.0149169415 0.058620833
0002f0 e3 8d d7 3d db 96 98 3c da a4 ec bc a1 65 85 3c
       0.105251096 0.018626621 -0.028887201 0.016283812
000300 99 b9 2b 3e be db 0b 3e f2 c2 aa 3d 75 ca 7b 3b
       0.16770019 0.13658044 0.08337964 0.0038420234
000310 e5 31 b7 bd 30 a0 47 bd 44 6e 57 bc 40 2e ea bd
       -0.089450635 -0.04873675 -0.013148848 -0.11434603
000320 1d ca aa bd 87 53 2d 3c 23 24 aa 3c 97 11 22 3d
       -0.08339331 0.0105789965 0.020769184 0.039567556
000330 59 12 ea bc 5d 6c e0 3c 02 25 2c 3d af ee 4d 3d
       -0.028573202 0.027395422 0.04202748 0.050276455
000340 bc 9b ff 3c 92 6d 89 bd e8 e0 b3 3d a4 7e a9 bc
       0.03120219 -0.06710352 0.08783132 -0.02069027
000350 da 58 ab 3d b9 4d 7d bc b9 85 fd bd 6c 1b 13 3c
       0.083665565 -0.015460425 -0.12379021 0.008978706
000360 c8 08 9d 3d 13 65 c6 3d 29 28 96 bd 6a a0 23 3e
       0.076676905 0.09687247 -0.07331879 0.15979162
000370 b5 9f e8 3d 50 73 4b 3d 40 95 6c bd d7 51 a8 3d
       0.11358587 0.049670517 -0.057759523 0.08218735
000380 6f 73 e6 bd ff ae fe bd a0 8c ae bd e6 d1 19 3e
       -0.11252486 -0.124357216 -0.08522916 0.15021476
000390 65 75 f5 bd 84 2a 0d 3e 97 b2 ef 3d 78 41 c8 3d
       -0.11985282 0.1378575 0.11703985 0.09778112
0003a0 2b e6 a4 3d 3c 89 95 bc dd a4 2c 3c a9 2e 50 bd
       0.080517136 -0.018253915 0.010537353 -0.05082575
0003b0 c4 91 86 bb 85 be ad bd b5 64 78 3d d8 f3 01 3e
       -0.004106732 -0.08483604 0.060642917 0.12690675
0003c0 96 b4 4f 3c 53 71 05 3b e8 83 99 3d 54 63 96 3d
       0.012677332 0.0020361736 0.07495862 0.07343164
0003d0 d3 77 04 bd d0 42 5c bd 76 b7 8d bd d9 a9 ec bd
       -0.032340836 -0.053774655 -0.06919758 -0.11555833
0003e0 52 8b 9f bd 18 18 9e 3b b2 ae 1b 3d 19 25 a8 bd
       -0.07790245 0.0048246495 0.0380084 -0.08210201
0003f0 c2 fc 82 3c aa a4 99 3c c3 c5 aa 3c 35 82 36 bd
       0.015989665 0.018755276 0.020846253 -0.04455777

net.0.bias f4 [256]
000000 7f 44 26 bd 24 86 06 bd 79 d7 81 bc 89 18 d4 bd
       -0.040592667 -0.03284277 -0.015849816 -0.10356242
000010 3a 00 a9 bd 0c 97 81 bd 27 33 84 bd 2f ae 88 bd
       -0.08251996 -0.06327638 -0.06455069 -0.06673848
000020 3d 42 3d bd 85 5c 84 bd f0 34 56 bd 03 cd 13 bd
       -0.046205748 -0.06462959 -0.05229658 -0.036084186
000030 f5 6e 9e bd 39 2d 3b bd 79 75 b0 bd d6 37 c2 3c
       -0.07736007 -0.045697425 -0.08616156 0.023708265
000040 0c b2 b6 bd b9 bc 52 bd 2d 14 70 bd b4 c3 2a bd
       -0.089206785 -0.05144951 -0.05861299 -0.041690543
000050 ab b4 91 bd 57 f1 14 bd a3 03 90 bd c3 d7 73 bd
       -0.07114538 -0.036362972 -0.07031944 -0.05953194
000060 09 21 b5 bc 1e a6 a1 bd af 44 df bd 6e 5c 9c bd
       -0.022110479 -0.078930125 -0.10901772 -0.07634817
000070 38 ed ba bd 52 46 c0 bb a6 35 58 bd 1e 90 93 bd
       -0.09127277 -0.005867758 -0.052785538 -0.072052225
000080 99 26 aa bc 4d 2c 6e bd 76 6b 21 bd 1d 08 59 bd
       -0.020770358 -0.058147717 -0.039409123 -0.052986253
000090 f6 f9 f3 bc 80 49 f7 bc bc b3 4c bd 72 5c 09 bd
       -0.029782277 -0.030186415 -0.049976096 -0.03353543
0000a0 dd eb 5e bd cf 79 99 bd 9a cf 8f bd 84 42 02 be
       -0.054424156 -0.07493936 -0.07022019 -0.12720686
0000b0 03 1f 22 3d 96 11 04 be 39 05 d7 bc c8 9d 89 bc
       0.039580356 -0.12897334 -0.026247608 -0.016798869
0000c0 72 eb d2 bd 50 1f 18 bd a5 07 7f 3d 0c 01 97 bd
       -0.10298814 -0.037139237 0.06226315 -0.073732466
0000d0 94 f8 b0 bd 35 f7 fc 3c 1b 1c 9c bd c8 45 90 bd
       -0.086411625 0.030879596 -0.07622548 -0.0704456
0000e0 e5 6c e7 bc 9d 1b 54 bd f2 95 94 bc 85 46 4b bd
       -0.028250167 -0.051784147 -0.018137906 -0.0496278
0000f0 79 06 4e bd 71 31 de bc 85 ff b0 bd d2 32 e4 bd
       -0.05029914 -0.027123185 -0.086424865 -0.11142506
000100 76 94 9f bd a3 6a af bd 66 b7 fa bc dc a7 34 bd
       -0.077919886 -0.08565261 -0.03060503 -0.044105396
000110 78 cb 42 bc 39 9d ca bd 3f d4 a8 bd 89 fe ce bd
       -0.011889331 -0.09893269 -0.08243608 -0.101071425
000120 c5 36 4a bd 5a 64 c4 bd c4 cc 8d bd 51 3f 4e bd
       -0.04936864 -0.09589453 -0.069238216 -0.050353352
000130 d1 da c9 bd 89 41 a1 bd 73 30 53 bd 91 7a 96 bc
       -0.09856189 -0.07873828 -0.051559877 -0.018368991
000140 b9 85 a1 bc 8f e1 b8 bd b2 02 e6 bd fb f7 97 bd
       -0.019717084 -0.09027397 -0.11230983 -0.074203454
000150 e0 a7 d3 bd 9a 33 74 bd 24 5e d5 bd ea b7 a9 bd
       -0.10334754 -0.059619524 -0.104183465 -0.08287032
000160 a5 41 7d bd d5 5c b8 bd 1d 93 c9 bd e2 24 f3 bd
       -0.06183018 -0.09002081 -0.09842513 -0.11872269
000170 9b dc 98 bd 26 46 c3 bc 2b a4 5d bd 8e cd 7b bd
       -0.07463952 -0.02383716 -0.05411164 -0.06147533
000180 16 bf ba bd 7c 8c 37 bd ef c9 b6 bd 52 b6 bd bd
       -0.09118478 -0.04481171 -0.089252345 -0.092632905
000190 19 27 a4 bd 17 06 8c 3b 6b a4 bb bd 08 99 0b bd
       -0.0801527 0.004273187 -0.091622196 -0.03408149
0001a0 22 fa 3f bd c4 2b 96 bd b5 9a 93 bd 24 c4 7c bd
       -0.046869405 -0.073325664 -0.072072424 -0.06171049
0001b0 a7 51 c0 bd 83 b9 04 3d fc 5c 7c bd 5b c5 83 bd
       -0.09390574 0.03240348 -0.061612114 -0.06434127
0001c0 41 1c 89 bd d1 ec a0 bd 8d f6 b4 bd 54 78 89 bd
       -0.06694842 -0.07857669 -0.08836088 -0.06712404
0001d0 ea de b8 bb 71 6e df bd 6e e4 99 bd 27 f5 34 bc
       -0.005641808 -0.10909737 -0.07514273 -0.011044777
0001e0 e9 04 1d bd a0 75 59 bd 4c da 6c bb e9 1f ca bd
       -0.03833476 -0.05309069 -0.0036140857 -0.09869368
0001f0 7e 4e a9 bd 75 a9 a1 bd 1a d3 d4 bd 74 d3 ae bd
       -0.08266924 -0.078936495 -0.10391827 -0.08536425
000200 c9 54 35 bd b8 4a 6e bd 3e 6e 8c bd 2b bc 6a bd
       -0.04427031 -0.058176726 -0.068569645 -0.057308357
000210 a8 35 83 bd cc fc 80 bd 5d e1 f4 bd c3 e3 07 bd
       -0.064067185 -0.06298217 -0.11957047 -0.033176195
000220 a2 a7 f1 bc 3a 4e b3 bd 9f 55 ae bd 77 70 7e bd
       -0.029498879 -0.08755155 -0.08512425 -0.062118974
000230 f0 cb 92 bd ed 83 b7 bc e9 d8 a0 bd 26 ce fa bd
       -0.07167804 -0.022401774 -0.07853872 -0.12246351
000240 45 64 f1 bd 3e e4 85 bc 3d c7 7b bd e6 8d b7 bd
       -0.11786703 -0.016344186 -0.061469305 -0.08962612
000250 80 c1 a7 bc ba 88 4e bd fc af 43 bd a7 75 ed bd
       -0.02047801 -0.05042336 -0.047775254 -0.11594706
000260 e4 ae e6 bb 75 10 a9 bd 21 a4 91 bd 96 34 c0 bd
       -0.0070398916 -0.08255092 -0.07111383 -0.0938503
000270 e4 14 5d bd 37 e4 b6 bc b7 a3 f1 bd 17 7d 47 bd
       -0.053975 -0.022325618 -0.11798804 -0.04870328
000280 fa 99 3b 3b 51 0b f7 bc 85 41 d4 bd f9 5b 74 bd
       0.0028625713 -0.030156763 -0.10364059 -0.059658024
000290 76 10 2a bd 95 6a bf bd c2 21 a9 bd a3 19 7a bd
       -0.041519605 -0.09346501 -0.08258392 -0.061059605
0002a0 25 3f 95 3b 15 f2 73 bd 0d 9d 6a bd c7 eb 1d be
       0.0045546466 -0.05955704 -0.05727868 -0.15421973
0002b0 f0 4f 9b bc bc 2c 8a bc cd fd c2 bd a6 1b 89 bd
       -0.018959016 -0.016867034 -0.09521065 -0.06694727
0002c0 85 21 da bd ad dc c1 bd 04 e7 cc bd 15 c1 87 bd
       -0.106509246 -0.09465919 -0.10005 -0.06628624
0002d0 27 da ae bd 3b aa e5 bd d4 91 74 bd eb 2f 2e bd
       -0.08537703 -0.112141095 -0.059709385 -0.042526167
0002e0 e2 bc cf bd e4 5f 0e bd f8 01 14 bd f7 68 34 bd
       -0.101434484 -0.034759417 -0.03613469 -0.044045415
0002f0 8d 56 fc bc d8 65 58 bd 59 4c 27 3c f6 c5 c5 bd
       -0.03080299 -0.0528315 0.010211074 -0.09656899
000300 a4 59 f7 bd 0d a2 d2 bd a3 7d 9e bd 02 f6 e3 bd
       -0.120776445 -0.10284815 -0.07738807 -0.11130907
000310 74 2d 3a bd 60 5a d3 bd 40 f1 a3 bd 4c 2e b3 bb
       -0.045453504 -0.10319972 -0.08004999 -0.0054681655
000320 ee 58 8f bd 09 31 20 bd 23 9c 10 bd c4 c0 a9 bd
       -0.06999384 -0.039109264 -0.035305154 -0.0828872
000330 fd a1 d7 bd 02 c0 02 be 44 3a 3a bd 6e 7f 32 bd
       -0.10528944 -0.12768558 -0.045465723 -0.043578558
000340 60 d5 14 bd 40 12 ae bd d6 5d 30 bd 49 47 1e 3d
       -0.036336303 -0.08499575 -0.04305824 0.0386422
000350 ed b7 b0 bd fb 9f c8 bd 86 fd 74 bd 94 a8 2b bd
       -0.08628831 -0.09796139 -0.05981209 -0.041908816
000360 c6 fc 04 be 43 d1 a7 bd d1 a1 d0 bd ed a5 9b bd
       -0.1298705 -0.081942104 -0.10187114 -0.07600007
000370 13 d4 c5 bd 15 6b bf bc 17 71 a1 bd 4b 39 6a bd
       -0.096595906 -0.02336649 -0.07882898 -0.057183545
000380 57 c7 82 bd 07 74 38 bd 29 df 98 bd 48 05 9c bd
       -0.06385677 -0.045032527 -0.074644394 -0.07618195
000390 9b f0 94 bb 12 da 8b bd 3c 03 94 bd 67 9f 74 bc
       -0.004545284 -0.06828703 -0.072271794 -0.014930583
0003a0 d3 37 4d bd 5b 82 98 bd 11 94 93 3b f3 23 89 bd
       -0.050102066 -0.07446738 0.004503735 -0.0669631
0003b0 b0 05 60 bd 79 41 21 bc ee 04 4c bd a5 ba b8 bd
       -0.054692924 -0.00984227 -0.04980939 -0.090199746
0003c0 d2 73 05 bd 93 8d cf bd a8 a7 c1 bd 71 da 33 bd
       -0.032581158 -0.10134425 -0.09455806 -0.043909494
0003d0 9e 13 ba bd 42 0a a2 bd f8 3a e3 bd 44 65 8f bd
       -0.09085773 -0.07912113 -0.11095232 -0.07001737
0003e0 5a 04 b9 bd 68 c5 9c bd 3f 03 71 bd fd 2a a1 bd
       -0.09034033 -0.0765484 -0.058840986 -0.078695275
0003f0 82 f7 ec bb ba 94 ac bd b9 57 53 bd 3c ad 79 bd
       -0.0072316537 -0.08426805 -0.05159733 -0.060956225

net.2.weight f4 [256, 256]
000000 34 2d 8e bd ed e3 d0 bd 98 90 5d 3c 6d be 18 3e
       -0.069422156 -0.101997234 0.013523243 0.14916392
000010 d7 d3 74 bd 61 93 5a 3d 0b 92 a1 bd 6b 94 9d 3d
       -0.05977234 0.053363208 -0.078891836 0.07694324
000020 cf f9 18 3d de 75 2e bd c8 66 b0 3d ce bb b0 3d
       0.03734761 -0.042592876 0.08613354 0.08629571
000030 fe 03 c0 3d 2d b5 ee bc 73 1f 9e 3d 0d f4 a8 ba
       0.093757614 -0.029139126 0.07720842 -0.0012890116
000040 d7 38 5f 3d b4 64 39 3d 62 be 69 3d 87 cf 1c 3d
       0.054497566 0.045262054 0.05706633 0.03828385
000050 ff 1e 92 bd cd d8 2e bd 1a 27 15 3c d8 cd 22 be
       -0.07134818 -0.042687226 0.009103561 -0.15898836
000060 ec 94 36 be c2 58 40 bd db 96 11 3d 94 2f 84 3d
       -0.17830247 -0.046959646 0.035544258 0.06454387
000070 4d 6d a3 3c b4 98 2d bc c5 a7 e9 3d bb ab dc 3b
       0.01994958 -0.010595489 0.114089526 0.006734339
000080 dc 6c 90 bd c9 c5 54 bc 81 95 61 3d 3b 79 03 3e
       -0.07052013 -0.012986609 0.05507422 0.12839215
000090 25 f2 19 3d dc 3e 9b 3d 5f 3b 46 3c fd f5 b9 bd
       0.037584443 0.07580349 0.012099116 -0.09080122
0000a0 3e 20 27 3e f5 6f 5c bd 68 84 93 3d 0e 02 5d 3d
       0.16320893 -0.053817708 0.07202989 0.053957038
0000b0 69 76 62 bd 93 b4 7e bd fa 04 e9 3d 9b bb 9e bd
       -0.055288706 -0.062183928 0.11377902 -0.07750627
0000c0 6b 46 94 bc c9 94 df bd 6c 42 c8 bc ff 85 87 3d
       -0.018099984 -0.109170504 -0.024445735 0.066173546
0000d0 28 7b 88 3d eb 83 9c 3d 72 aa 0e bd e3 80 2d bd
       0.06664115 0.07642349 -0.034830518 -0.042359244
0000e0 00 c0 db bc fc a3 0f 3e d0 45 b0 bd c3 c5 0b 3c
       -0.026824951 0.14027399 -0.08607066 0.008531037
0000f0 e1 41 fc 3d 7d 67 f0 bc 43 3c 75 3b ce 4b ef bd
       0.12317253 -0.029346222 0.0037419952 -0.116843805
000100 03 d2 c2 bc 6e 02 b9 bd 76 e6 d4 bc 2c fe ca bc
       -0.023781782 -0.090336666 -0.025988799 -0.024779402
000110 f2 9e 76 bd 03 f4 41 bd 31 fc fa bb 38 94 07 3d
       -0.060210176 -0.04735185 -0.007659458 0.033100337
000120 9a 83 49 bd 2f 65 66 3d 3d ab 5c bd d0 b6 c3 bd
       -0.04919777 0.05624884 -0.053874243 -0.09556353
000130 b2 40 74 bd 3b 88 09 3e ca 87 89 3d b5 f7 4c 3d
       -0.05963201 0.13430874 0.06715353 0.05004092
000140 5e 2d 03 3d 43 c6 e2 3c 2a 75 2c 3c 7c 02 dc bb
       0.032025687 0.02768243 0.010525981 -0.0067141633
000150 17 fc 14 bd 54 10 a1 bd 6b e3 c5 3d be 47 04 3d
       -0.036373224 -0.078644425 0.09662517 0.03229498
000160 25 fe 4f 3d 38 d4 5f 3d 32 19 81 3d 61 4e 03 3e
       0.05077948 0.054645747 0.06303634 0.12822868
000170 90 71 7a bd af 15 4f bd b3 97 04 3e 19 a8 d4 3d
       -0.061143458 -0.05055779 0.12948494 0.103836246
000180 7a f4 21 3d 12 9b 3a bd df 66 77 bd 47 b5 ab bc
       0.03953979 -0.045558043 -0.06040084 -0.020960463
000190 db 0b f8 3b e3 ab f1 bd 62 df 8a bd 9e b4 0c be
       0.0075697727 -0.11800363 -0.06780888 -0.13740775
0001a0 80 16 7f 3d 33 b1 21 bc 35 5a 2e bd 6a bc 0c bd
       0.062277317 -0.009868908 -0.042566497 -0.034359373
0001b0 c1 28 be 3d ff 7a 38 be f1 9d b4 bd 10 36 8e bd
       0.09285117 -0.1801567 -0.088191874 -0.06943905
0001c0 c4 0f 16 3c 37 b9 57 bd ee ab 6a 3d 4c bc 14 be
       0.009159032 -0.05266687 0.05729287 -0.14524955
0001d0 96 5a 06 3d 70 25 be bd 13 27 3f 3d e7 a8 e7 bc
       0.032801233 -0.092844844 0.046668123 -0.028278781
0001e0 d4 42 2a be a4 89 e4 bc 2d c5 8e bc 97 a2 1a bd
       -0.16627055 -0.027897663 -0.017428005 -0.037752714
0001f0 0e c3 93 3d 2d dd 05 ba d6 d9 fb 3c 69 5d 97 bd
       0.07214938 -0.0005106505 0.03074352 -0.073908634
000200 fc 7b b4 3d 80 df 59 3d 67 8a 89 3c 65 41 34 3d
       0.08812711 0.05319166 0.016789628 0.044007678
000210 1c 49 a9 bc 33 ce 95 bd 20 1f e7 3d 11 c5 9b bd
       -0.020664744 -0.0731472 0.112852335 -0.07605947
000220 79 dc e4 bc 0a d8 10 3c bf e4 b8 3d 55 93 76 bd
       -0.02793716 0.00884057 0.09028005 -0.0601991
000230 7a a9 85 bd 13 ad bb 3d 1c 0c a3 bd 18 03 e7 3d
       -0.06526466 0.09163871 -0.07961294 0.11279887
000240 25 ec 21 3d 58 3c 22 be b6 c1 c5 3b 9f 4d b1 3d
       0.039531846 -0.15843332 0.006035055 0.08657383
000250 e0 b8 e7 3d 88 c0 db 3d 79 dd 0e 3e a0 9a a4 3d
       0.11314559 0.10730082 0.13951673 0.08037305
000260 ba 95 32 bd 20 c0 a9 3c 23 94 1a bc fe 8c 1c 3d
       -0.04359982 0.020721495 -0.009434733 0.038220398
000270 84 ee 2c bd 30 9e c3 3d 12 72 39 3d f5 94 b5 3d
       -0.042219654 0.09551656 0.0452748 0.08866302
000280 95 89 78 bc c7 67 20 bd 77 5a e2 bd 47 92 1e 3d
       -0.015169521 -0.03916147 -0.11052411 0.03871372
000290 ea e5 d2 bd 2b 48 ea bc 0a 5d fb 3d d9 1d 82 3c
       -0.10297759 -0.028598865 0.12273605 0.015883373
0002a0 ba 95 20 3d 27 48 0f 3e 93 07 05 bd 30 58 01 3e
       0.03920529 0.13992368 -0.032477926 0.12631297
0002b0 73 ff d8 3d 57 70 a3 bd ec ca b2 bd 71 73 e7 3d
       0.10595598 -0.079804115 -0.087301105 0.113013156
0002c0 64 3b 01 3d df 27 27 be 1f 58 1c 3e 6a 4f 05 3d
       0.03155078 -0.16323803 0.1526799 0.03254644
0002d0 cf 47 e7 3d 05 d8 8f 3d 28 8e 05 3d 08 fa 22 be
       0.11292993 0.07023624 0.032606274 -0.15915692
0002e0 36 ec c8 bc fd bd bf bc 41 fe 46 bd 5a 26 b0 3d
       -0.024526697 -0.023406023 -0.04858232 0.08601065
0002f0 92 29 9f bd a7 6d ca 3d 49 e2 9e 3d d3 60 13 3e
       -0.07771601 0.09884196 0.07758004 0.14392404
000300 97 bc 60 3d 4f 23 81 bc 78 ae a4 bd 3a be f8 bc
       0.054867353 -0.015763907 -0.0804109 -0.030364145
000310 d5 b5 1f bc 8f ef a5 bd 44 f1 38 3d a9 06 ad bc
       -0.009747942 -0.08102333 0.045151964 -0.02112134
000320 b8 94 ac bb 33 67 2c 3c 33 54 6c 3d ec 89 8e 3d
       -0.005266752 0.0105226515 0.057697486 0.069599
000330 b6 35 27 bd ef 7a 23 bc 4b be e7 3c 5e bd f4 bd
       -0.040822707 -0.00997804 0.028288981 -0.119501814
000340 47 2a d3 bc 9d 00 0a 3e 58 4d 5d bd 4b a6 c6 3c
       -0.025776995 0.13476796 -0.05402884 0.024249217
000350 0c 40 b0 3d e3 0e 2f 3d a5 db 19 3e b8 3b 30 3d
       0.08605966 0.042738806 0.15025194 0.043025702
000360 5c 7f 75 bd 44 37 83 3d 29 6f 23 bd 8f d3 c1 bc
       -0.059935912 0.064070255 -0.039900932 -0.02366045
000370 50 ca b5 bd 67 97 70 3d b3 34 a4 bd 96 4e b4 bd
       -0.08876479 0.05873814 -0.08017864 -0.088040516
000380 34 64 0c bc f1 58 5d be bb b0 a7 bd d2 05 6c 3d
       -0.008568812 -0.2161596 -0.081880055 0.05762274
000390 67 1e 5e 3d 3c 35 71 3c 91 5b 02 be b3 a6 78 bd
       0.054228213 0.014722165 -0.12730242 -0.06070585
0003a0 83 3d 6d bd 2c 8a cb 3d 60 60 0e be e2 c6 9b 3d
       -0.05791999 0.099384636 -0.13903952 0.07606293
0003b0 13 a2 5b be dc f9 19 be 9b 78 9f bd d4 69 09 3e
       -0.21448545 -0.1503672 -0.077866755 0.13419276
0003c0 e7 5a 0b be f9 b8 b6 3d a3 81 51 bd 9f 7f c4 3c
       -0.13608895 0.089219995 -0.05114902 0.023986636
0003d0 8e dd f2 3d e1 23 c5 bd 90 2b 4e 3d 2c 87 6f bd
       0.118586645 -0.09625984 0.050334513 -0.05847852
0003e0 4e 87 00 3d ca 7e 0c 3b 2c 7b 4f 3d 58 84 ea 3d
       0.031379037 0.0021437877 0.050654575 0.11451024
0003f0 4c f8 5e bd b1 05 e7 3d b5 23 06 3e 6c 3a ce bb
       -0.054436013 0.112803824 0.13099559 -0.0062935855

net.2.bias f4 [256]
000000 09 4f b3 bd eb e3 9d bc 17 91 ca bd a7 6c bb bd
       -0.08755309 -0.019273719 -0.09890955 -0.09151583
000010 8e 97 c8 3d cd ad 0a be f3 7e 2b be 5e 86 8e bc
       0.09794532 -0.13542862 -0.16747646 -0.017398056
000020 8c 80 d1 3d 4e ae 9d bd 77 4d ca 3d 18 5e 8d 3c
       0.102295965 -0.076992616 0.098780565 0.017256781
000030 ca 2e 28 be 71 16 b7 bd b1 f3 5e bb a3 70 bb bd
       -0.16424099 -0.08939827 -0.0034019763 -0.09152343
000040 8e a2 31 bd d7 a0 fa bc b2 ad 8b 3d 6d 4e 67 be
       -0.043367915 -0.030594273 0.06820239 -0.22588511
000050 bd 97 86 bd f6 b3 a6 3b 8d 53 87 bd 86 20 35 bd
       -0.065719105 0.005087371 -0.06607733 -0.04422047
000060 04 6e 01 be 6b 7b 1a be f0 ab 38 be d3 03 80 bd
       -0.12639624 -0.15086143 -0.18034339 -0.062507294
000070 74 2d 4f bc 45 dc c5 bc 17 07 8d 3d 22 f5 77 bd
       -0.012645114 -0.024152884 0.06886118 -0.06053651
000080 64 ca e3 bd 13 ed 07 be 8f 69 9d 3d b7 f3 c5 bd
       -0.11122587 -0.1327403 0.07686149 -0.096656255
000090 a0 6a da bd 1c b7 1d 3d d4 46 4f 3c 44 53 9c bc
       -0.10664868 0.038504705 0.012651164 -0.019082673
0000a0 aa ce a8 3c 0d f5 df 3d 79 84 bc bd b0 ef 6a bd
       0.020606358 0.109354116 -0.09204955 -0.05735749
0000b0 2c 44 99 bc 2e 25 d1 bd eb 9e 00 bd 7a 47 8f 3d
       -0.018709265 -0.102121696 -0.031401556 0.06996055
0000c0 34 4d 7b be c8 47 89 bd 7f f8 dc 3b 4d 6a fc 3c
       -0.2454117 -0.06703144 0.00674349 0.030812407
0000d0 11 a6 07 3e 0b c4 f3 bd 34 a2 83 3d 09 85 d2 bc
       0.13246943 -0.119026266 0.06427422 -0.025698202
0000e0 07 9f 19 3d a3 89 25 bd 0b 02 64 bc 36 28 e5 bd
       0.037505176 -0.040414464 -0.013916503 -0.1118931
0000f0 63 91 2b be 15 ed 82 bd 20 25 9e bd 34 c9 7b bd
       -0.1675468 -0.06392876 -0.07721925 -0.06147118
000100 27 82 8a bc 8e 31 0b bc 99 10 86 bd 0f 73 53 bd
       -0.016907765 -0.0084957015 -0.065461345 -0.0516234
000110 87 a4 77 bd 81 b3 bc 3c 22 c3 f2 bd 5f 75 b0 bd
       -0.06045964 0.023034813 -0.11853625 -0.08616137
000120 47 8c d4 bd 91 30 69 bd 17 fe 22 be 0a be 5d bd
       -0.10378318 -0.056931082 -0.1591724 -0.054136313
000130 f9 db 02 be 1a cb 07 3d 3e df c9 3d 8b 92 b0 bd
       -0.12779225 0.033152677 0.09857033 -0.08621701
000140 7f 1e 03 be 65 30 af bc d9 1d 49 bc a0 eb 59 bd
       -0.12804602 -0.021385381 -0.012275183 -0.053203225
000150 21 d6 0b 3c 73 35 9b 3c 6d 8a 91 bc a6 e6 fc bc
       0.008534939 0.018946385 -0.017766202 -0.0308717
000160 14 aa 1b bc df 02 f0 bc e0 ef 1a bd 29 79 f6 bc
       -0.009500999 -0.029298244 -0.03782642 -0.03008707
000170 d0 38 57 3d f6 79 3f be 36 e9 08 be af 8d 52 be
       0.052544415 -0.18698868 -0.13370213 -0.2056186
000180 36 dc 2a bd 91 be 94 3c e9 b1 a7 bd 4c 09 61 be
       -0.041713916 0.018157275 -0.081882305 -0.21976203
000190 17 b7 28 be 45 ae df bc d3 27 33 3b a3 da de 3b
       -0.16476093 -0.027304778 0.002733697 0.006800966
0001a0 6d 65 03 be 91 d1 39 3c 0a e5 57 3d 8d 9b ba bc
       -0.1283166 0.011341468 0.052708663 -0.02277925
0001b0 04 97 2d 3d 40 82 fb bc 38 88 dd 3d df ed 3d 3d
       0.042380348 -0.030701756 0.10816997 0.04636943
0001c0 26 b1 42 bd 8a 89 81 bb c2 6c 4f b9 c5 49 9a 3d
       -0.047532223 -0.0039531635 -0.00019781574 0.07533602
0001d0 71 ac e7 bb 75 67 aa bc ee 61 15 bd 93 dd 03 be
       -0.007070117 -0.020801285 -0.036470346 -0.12877493
0001e0 23 58 8c bd 81 69 ab bb 4b 33 e8 3d 07 dc 4c be
       -0.06852748 -0.005231083 0.11337908 -0.20005809
0001f0 93 b2 30 be fb e6 44 be d6 dc 63 bd 36 23 e0 3c
       -0.1725562 -0.19228737 -0.055630527 0.02736054
000200 e9 48 55 be 5c 7d d3 bd 2f 01 1b bd 7d 1e 4b 3e
       -0.20828594 -0.10326645 -0.037842926 0.19835849
000210 f9 7d 55 3d 78 90 ba bd 7f 0f 84 3d e2 6e 7c 3c
       0.05212209 -0.091095865 0.06448268 0.015407296
000220 2e 2e 33 bd 6e ee 47 3c 98 a7 22 bc a2 94 bc 3b
       -0.043745212 0.012202842 -0.009927653 0.005755023
000230 93 56 04 be 5e c4 eb bc a4 dd 03 be 45 a5 81 3d
       -0.1292365 -0.028780159 -0.12877518 0.06330351
000240 1d be 98 bd 86 88 79 bd 7a 11 8a bd 38 89 08 be
       -0.07458136 -0.060921215 -0.06741615 -0.13333595
000250 93 f5 ad bd 9a e8 c2 bd f2 3c 26 be 83 4b e6 bd
       -0.08494105 -0.095170215 -0.16234186 -0.112448715
000260 0d af fd bd ae c1 30 3d f0 22 c3 3d e1 7a 10 be
       -0.12386904 0.043153457 0.09528148 -0.14109375
000270 03 f6 52 be bf 52 44 be 03 8e b6 bd 1e 3a 37 3d
       -0.20601659 -0.1917219 -0.08913805 0.04473316
000280 96 7f be bd 51 fe 69 3d 59 7c c9 3d ec 07 f0 3b
       -0.09301679 0.0571273 0.098381706 0.007325163
000290 7d d3 1c be 44 79 36 bd 62 54 5e bc 0b 2a 6a bd
       -0.15315051 -0.04454924 -0.013569923 -0.057169
0002a0 f8 16 bc bd 1b 8d c4 bd f6 e2 2a be b1 6e 16 be
       -0.091840684 -0.09597226 -0.16688141 -0.14690663
0002b0 dd b8 8b bd 09 20 3f be 45 58 f9 bd 7e 96 d9 bd
       -0.06822369 -0.18664564 -0.12175039 -0.10624407
0002c0 18 fb a5 3d 7c cd ee 3d 56 7c 5e bc 8b 8d 0d bd
       0.08104533 0.11660287 -0.013579449 -0.034558814
0002d0 03 a8 8c bd d7 fd 0c 3d 44 5a bb bd 20 ee 6f 3c
       -0.06867983 0.034421768 -0.09148076 0.014644176
0002e0 d3 fb 73 bc 54 6b 1f bc 38 96 08 bd b7 f7 de bd
       -0.014891583 -0.009730179 -0.033346385 -0.108870916
0002f0 a9 f6 e8 3d 59 c1 17 be 7d a1 52 be 9a d8 16 bd
       0.11375172 -0.1481985 -0.20569415 -0.03682766
000300 c9 6c 88 bd da 6f 90 bd 21 19 9f 3c fe 51 a2 bd
       -0.06661374 -0.07052584 0.019421162 -0.07925795
000310 e0 33 62 3c 49 1f bc 3b 41 05 68 bc 82 f1 d4 bd
       0.013806313 0.005741034 -0.014161409 -0.103976265
000320 ba 22 1b be dc 5c 4f bb fa d3 56 bd ad fb 38 bc
       -0.15149966 -0.0031641042 -0.05244825 -0.011290473
000330 25 06 62 3d ec 8a 88 bd 99 d1 02 be 8a c1 64 be
       0.05518164 -0.06667122 -0.12775268 -0.22339454
000340 cf df b7 bd 95 26 f0 bd 9e 51 ca 3d 7c 1a cd bd
       -0.08978235 -0.11726109 0.098788485 -0.10014817
000350 16 1e 96 be 5d 91 c9 bd ca fd 0e be e5 7a cc 3c
       -0.2931983 -0.09842179 -0.13964 0.024960944
000360 8d c7 25 bc d6 7e 9e 3b 76 b7 93 bd 8a 42 61 be
       -0.010118377 0.0048368974 -0.07212727 -0.21998039
000370 fb ba 84 bd a9 fc 81 bd 7b ae f4 bd e7 47 7c bd
       -0.06480976 -0.06347019 -0.11947342 -0.06159201
000380 d8 38 63 bc ee d9 ba 3b 71 d2 65 bb a5 48 8d ba
       -0.013868533 0.005702249 -0.003506806 -0.0010779096
000390 63 87 22 be e7 b9 ec bd 41 85 6e bc 0f 46 1a ba
       -0.15871958 -0.115588956 -0.014558137 -0.00058850733
0003a0 31 a0 26 be c7 21 c6 bd 13 18 b5 bd 9f 00 87 bd
       -0.16272046 -0.09674411 -0.088424824 -0.06591915
0003b0 03 06 16 3d 9a ea f1 bd a4 88 86 bd 9a db e3 bd
       0.036626827 -0.11812325 -0.06569031 -0.1112587
0003c0 21 98 ff 3c eb ce 9b 3c 3c ba d2 3d de 26 20 be
       0.03120047 0.019019565 0.10289428 -0.15639827
0003d0 34 3b 36 bd 0e 53 3e 3c 4d 8d b7 3b d2 75 7e bd
       -0.044490054 0.0116164815 0.005601561 -0.06212408
0003e0 e0 7f 43 bd 5a 64 57 be 5f 47 1e be 92 66 77 bc
       -0.047729373 -0.21034375 -0.15456913 -0.015100138
0003f0 b2 7f 8d 3d 45 51 17 3c f3 df 39 3d 2d 3d cf bd
       0.069091216 0.009235685 0.04537959 -0.1011909

net.last_linear.weight f4 [4, 256]
000000 31 ae 9c 3d 12 56 92 3b 98 84 03 3d c5 6e b9 3b
       0.07650412 0.004465827 0.032108873 0.0056589567
000010 e5 91 e2 bd e6 1f 9d 3c e6 17 a1 3d e4 e0 76 bc
       -0.110629834 0.01918025 0.078658864 -0.015068267
000020 10 2d a5 bd b3 9c bd 3d e3 8c b7 bb 26 86 14 3c
       -0.080652356 0.09258404 -0.005601512 0.009065187
000030 71 c1 41 3b 12 6f 97 3d 6c 91 8b 3c 33 81 1c 3c
       0.0029564763 0.07394232 0.017037116 0.009552288
000040 13 af e1 3c d1 c8 93 3c 59 9b 5a 3c 92 f1 d7 bb
       0.027549302 0.018040093 0.013342702 -0.0065900767
000050 b3 e5 b8 3c af f7 ab 3b 40 4a b6 3c d6 db c9 3c
       0.022570467 0.005248032 0.022252202 0.024640959
000060 19 d8 36 bb d9 fa 86 bb 19 61 2f 3c 21 5a 01 bc
       -0.00278998 -0.004119259 0.010704302 -0.007895024
000070 88 7b e8 bb 1f 57 1b be 98 61 1f 3d dd eb c8 3c
       -0.007094804 -0.15169953 0.038911432 0.02452653
000080 61 6e b3 bd e3 76 8e 3b 7f c1 01 3d ca 5e 1f bb
       -0.087612875 0.0043476685 0.031678673 -0.0024317973
000090 6d 2a 6a 3c f0 20 81 b9 6a a6 06 3c 73 8c b2 ba
       0.014292342 -0.00024629338 0.008218387 -0.0013622179
0000a0 69 47 fd bc f8 d0 66 3c 5c 99 b3 3c 04 2d 79 3c
       -0.03091784 0.014087908 0.021923713 0.0152084865
0000b0 75 7e 9c bc 20 f3 5b 3c 6b 4d 3e bc 6e e6 81 bb
       -0.019103268 0.013424665 -0.011615138 -0.003964237
0000c0 3e 93 69 3c f4 82 6f 3c ec 72 f3 3c 99 63 e9 ba
       0.014256297 0.014618624 0.029717885 -0.0017806172
0000d0 67 18 93 bc d7 0c d5 bb 81 8c bd bd 0b e1 ac 3c
       -0.017955972 -0.006501775 -0.092553146 0.021103403
0000e0 20 9b b3 bc 74 c1 89 3c db 10 78 3c d8 5d 67 3c
       -0.021924555 0.016815878 0.015140737 0.014121495
0000f0 64 e7 93 3c 3a ee b7 3b 6d 95 b7 3d 29 ec 28 3d
       0.018054672 0.0056131156 0.089640476 0.041240845
000100 15 c7 9d 3d 91 a2 42 bc 7b b5 07 3b ce 8b 51 3b
       0.077039875 -0.011879579 0.0020707536 0.00319742
000110 91 65 e3 bc ef 25 ad ba 18 1f dd 3d 72 76 d3 bb
       -0.027758392 -0.0013210158 0.10796946 -0.0064533288
000120 4e cb f0 3c 87 61 93 3c bd 32 d6 3c a8 7e 21 3c
       0.029393818 0.01799084 0.02614724 0.009856857
000130 1f 03 77 3b dd 99 42 3d b2 b4 58 bd a3 24 23 3b
       0.003769107 0.047510017 -0.0529067 0.0024893663
000140 38 e4 30 3b 02 9d 13 3c 5b 0a 12 bd 1a 64 1f 3b
       0.0026991498 0.009009602 -0.035654407 0.002432114
000150 c2 14 d2 3c a4 3d e2 3a bf 5b c3 bc ea 00 f3 3b
       0.025644664 0.0017260802 -0.023847459 0.0074158804
000160 72 cb 5f 3a 0e b2 64 bd 89 94 12 3d 0c cc e1 bc
       0.00085370906 -0.05583387 0.035786185 -0.027563117
000170 07 78 f2 3c e2 7c db 3c 9c db c9 3d 78 57 5f 3d
       0.02959825 0.026792947 0.0985634 0.054526776
000180 f7 50 90 ba 02 5c 17 3c 3e fa 73 b9 f3 c8 f2 3a
       -0.0011010458 0.009238245 -0.00023267508 0.0018523022
000190 a1 8f 1d 3d 6e ac 58 3c 36 b8 cb bc 26 bf e6 3c
       0.038467053 0.013224704 -0.024868112 0.028167319
0001a0 88 ef 5f 3d 31 4d 2f bd 0a f7 12 bc d2 b4 1d bc
       0.054671794 -0.042798225 -0.0089700315 -0.00962563
0001b0 07 d1 62 bd 60 9a 0b 3d c3 88 06 be c8 13 df 3c
       -0.055375125 0.03408277 -0.13138108 0.027231112
0001c0 1d 18 3e 3b 3c 52 b0 bc 03 00 da 3c d3 58 0b 3d
       0.0029006072 -0.021523587 0.026611334 0.034020256
0001d0 b1 24 3b bd 27 59 03 bb 7f 98 2f 3c 05 d9 0b 3c
       -0.04568929 -0.0020042153 0.01071751 0.008535628
0001e0 4d 81 67 bc 38 4a 44 3b e9 8d 99 3c af 64 04 3c
       -0.014129949 0.0029951464 0.018744426 0.008080645
0001f0 0e 18 d9 3a 1e 4d de ba fd 24 90 3b 78 bc 05 3c
       0.0016562955 -0.0016960239 0.0043989406 0.00816261
000200 5c 85 9c 3c ff e4 ff 3b 88 50 c8 bc ae 9e c3 bd
       0.01910656 0.007809281 -0.024452463 -0.0955175
000210 a1 5b a8 bb 7e 98 ca 3c 08 94 60 bd a4 02 06 3d
       -0.005137876 0.024730917 -0.054828674 0.032717362
000220 de 00 5e 3c 20 18 3b bd 88 9b ff bd b4 81 23 bd
       0.013550011 -0.045677304 -0.12480837 -0.039918616
000230 5d 38 b0 3c 0e a7 22 3c f3 89 1e 3b 3b c4 c1 bd
       0.021511251 0.009927524 0.002419111 -0.09461256
000240 f4 87 c0 3c a7 b3 92 3c 7d ff 1c 3d f8 61 b3 3c
       0.023502328 0.01790793 0.03832959 0.021897301
000250 0c c0 00 3d 3f 12 a1 3c 1c c7 ea 3d 78 dd fb 3c
       0.03143315 0.01966202 0.11463758 0.030745253
000260 b4 fe 97 3d f1 ed 82 3c f4 fc 9c bc 03 a8 21 bb
       0.07421628 0.0159826 -0.019163586 -0.0024666793
000270 a7 29 23 bc fe 54 1d bb 06 6b 84 bb 1f 60 48 3a
       -0.009958661 -0.0024006958 -0.0040410785 0.00076437177
000280 fa ba 31 3d be 30 73 bc 3c 85 c7 bd 65 17 7f bc
       0.043391205 -0.014843164 -0.09742209 -0.015569543
000290 fd 42 cb bc 1e f9 8b 3c 7f e8 eb 3c 77 b6 95 3c
       -0.024812216 0.017086562 0.028797386 0.018275483
0002a0 70 c4 43 3c c3 53 d7 3b 14 d3 c0 3b ee c7 1d 3d
       0.01194869 0.0065712645 0.0058845375 0.038520746
0002b0 21 e1 0d 3c 62 0a 16 3b 85 41 7c 3c b9 f2 80 bb
       0.008659632 0.0022894372 0.01539648 -0.003935185
0002c0 0a d0 b2 bc b1 7f 18 bd 5d 49 ac bb 34 06 0b 3c
       -0.021827716 -0.03723115 -0.005257769 0.008485366
0002d0 b1 fa a6 bc 06 7b 8c bc 7b 17 70 3d 9a 0a a0 3c
       -0.02038321 -0.017148506 0.058616143 0.019536305
0002e0 7a 78 c0 b9 a0 29 11 3d 3b 34 17 bc c0 94 94 3c
       -0.00036710856 0.035440087 -0.009228761 0.018137336
0002f0 b5 ed 94 3b be c0 15 bc 48 70 a2 3c 14 61 ac 3b
       0.0045449384 -0.009140192 0.01982893 0.005260596
000300 79 66 1b 3d fc 4c 99 3c 44 cf 0d 3c 66 86 46 3c
       0.037939522 0.018713467 0.008655373 0.012117004
000310 a2 cd d5 3b ef d6 bb 3c 6c ae 46 3b 8a 8f fe 3a
       0.0065247575 0.022929637 0.0030316366 0.001942144
000320 29 9a 3f 3d e6 25 cf 3d 8c 63 67 3c 1f f6 d6 3c
       0.046777878 0.101146504 0.014122855 0.026240407
000330 38 4e da 3a 40 61 fd bc e0 dc 68 3b 7e 9f 70 3d
       0.0016655391 -0.030930161 0.0035532042 0.058745854
000340 74 4b 12 bc 6c 4a 33 3c 73 a8 be 3b d8 07 5c 3c
       -0.008929122 0.0109430365 0.0058184206 0.0134296045
000350 6f 92 81 3c 98 f2 5f 3c 3c a1 3e 3d 86 ef 41 bb
       0.015816895 0.013668679 0.046540484 -0.002959223
000360 46 2a cc bc 52 cc 81 bd 9e 76 55 3c b5 1e e7 3c
       -0.024922501 -0.06337799 0.013028769 0.028212884
000370 f4 a2 a4 3d 90 ed e5 3c 90 1f c2 bc 54 a3 d8 3d
       0.08038893 0.02806738 -0.02369669 0.10578027
000380 8d 66 46 3d aa 0e bb bb 90 27 8a bd 27 3a cd 3c
       0.048437644 -0.005708535 -0.06745827 0.025052143
000390 44 01 6b 3c c4 49 0a 3c 9e 7e 9b bb 11 2d 3e ba
       0.0143435635 0.008440439 -0.0047453186 -0.000725464
0003a0 b0 bb 6c 3c 51 6a 21 bb 43 08 01 bd aa 3e d8 bc
       0.014449045 -0.002463002 -0.03150202 -0.026397068
0003b0 2c a9 9c bd dc de 99 3c 1e 08 ca b9 13 8e f5 bb
       -0.076494545 0.018783025 -0.0003853449 -0.007493743
0003c0 e9 da 08 bd b8 e3 9d 3c 80 7e 79 bd e7 7c 33 3d
       -0.033411894 0.019273624 -0.060911655 0.043820288
0003d0 ac 7f 21 bc 4a 0f ff ba 6b 16 a7 bd ff 11 90 bc
       -0.0098570995 -0.0019459513 -0.08158573 -0.017586706
0003e0 29 12 69 3d d0 cf 05 3e 19 fa cf 3c a8 8b ab 3c
       0.056902084 0.13067555 0.02538781 0.020940617
0003f0 01 cf a8 bd 09 30 ec bc 78 ba 81 3c b5 17 69 3b
       -0.08242608 -0.028831499 0.015835986 0.003556711

net.last_linear.bias f4 [4]
000000 b7 be e7 bd f3 90 44 bd 25 ae 68 be d3 f8 39 be
       -0.11315673 -0.047989797 -0.22722681 -0.18161325
