safe_slac_parallel _version/Safe_Slac_CARLA/models/safety_critic.pth (torch, 507716 bytes, 5 tensors)

net1.0.weight f4 [256, 234]
-0.14045207 -0.051107682 0.11025048 0.0336606 -0.024475278 -0.12448964 -0.024337826 0.065011784
0.10263771 -0.019271562 0.05062725 0.031041121 -0.06315848 -0.0018748495 -0.17615892 0.050880093
-0.044205006 0.071850255 -0.057030335 -0.055694815 0.0137239015 -0.015824957 -0.07602899 -0.026869535
-0.16479002 -0.034004305 -0.019293394 -0.014361974 -0.12975226 -0.019946722 -0.11868144 0.008697602
0.017335584 0.0524625 -0.0050958865 -0.025439655 0.016461436 -0.031020472 -0.10949056 -0.0066827685
0.09388653 0.013857517 -0.021554358 -0.019160753 -0.03707048 0.011194484 0.072047345 0.041012365
-0.030434895 -0.009399207 -0.06587986 -0.17253552 0.053147282 -0.1413309 0.008756385 0.043090135
0.09349639 -0.1560492 0.06954466 -0.04493413 0.011172197 -0.01128646 0.055493467 -0.09316767
-0.015690526 -0.028062083 0.07734594 -0.09612241 -0.14885242 0.052617494 -0.02395627 0.084637806
0.01906895 -0.032965686 -0.078279816 0.06922497 0.045817915 -0.03863206 0.109693505 -0.056913476
0.08207385 0.014292163 -0.02853974 0.10126835 0.010464999 0.046120428 0.08103548 -0.09752404
-0.092218556 0.014030046 0.013099307 -0.10136269 -0.12519541 -0.06419261 -0.038554475 0.06417082
0.09103765 0.026802799 -0.03111717 0.0039208224 -0.11160731 0.016629133 0.020945651 -0.047756176
0.0763351 -0.041069344 -0.15641205 0.020452429 0.043581866 -0.09922219 -0.026928829 -0.13380368
-0.01990428 0.11094723 -0.014819752 0.11927647 0.004163335 0.091436274 -0.013173418 0.13502325
-0.101511285 0.035971098 -0.017369017 0.11924601 -0.05136694 0.1901375 -0.15127714 -0.082838915
0.044350807 0.13889945 0.1039726 0.10106182 -0.17786473 -0.037157066 -0.02037201 0.055757
0.08334659 0.083530225 0.06607431 -0.09913263 -0.05335355 0.19242725 0.018073896 -0.115273654
-0.027392365 -0.17986761 -0.08816293 -0.11014659 0.17911027 0.06182189 0.08351428 0.021351136
-0.06339665 0.013555175 0.08661865 0.029444229 0.1285233 -0.13970561 0.14243014 0.012625072
0.03975218 0.08434098 0.09365312 0.054705605 0.052537177 -0.087709665 0.0028284574 -0.08647908
0.045785293 0.12570961 0.10086027 0.05775726 0.07930523 -0.0088979015 0.106774226 0.10525902
0.06785373 0.15916523 0.24808604 -0.08225464 -0.098481506 0.14011553 -0.039669313 0.033986434
0.1274932 0.07649219 -0.092467785 -0.09886974 -0.118911915 0.18666174 0.05345383 0.061679393
-0.15357667 -0.059253022 -0.090683736 -0.039046198 -0.015509389 -0.03523854 0.014232071 0.056268405
-0.12234569 0.04085968 -0.066682816 0.053883385 0.03522734 -0.097258836 -0.08150389 -0.1222564
-0.17300278 0.05038906 0.0024314672 -0.037903626 0.07321842 -0.25686163 -0.11006081 -0.02968727
0.045424424 -0.019861532 -0.12331514 -0.03163928 -0.16468 0.035957962 -0.04810924 0.035722163
0.004483247 -0.045237668 0.085879624 -0.039070506 0.07581711 0.0629203 -0.10437551 0.019127745
0.03976057 -0.2167422 -0.017085595 -0.06127649 0.009281595 -0.06369918 -0.004349996 0.00086048845
-0.029514829 -0.04713073 0.06703233 0.011296818 0.07454943 0.031262737 -0.20027737 0.0005534995
-0.076383054 -0.055747937 0.004103719 -0.051348753 0.06655967 -0.10396967 -0.018458096 0.1563102
00000000: abd2 0fbe 4a56 51bd 01cb e13d b3df 093d
00000010: 6180 c8bc 6df4 febd 1f60 c7bc e624 853d
00000020: b833 d23d 65df 9dbc 855e 4f3d f349 fe3c
00000030: 3c59 81bd 83bd f5ba 0163 34be a567 503d
00000040: 4f10 35bd 3a26 933d a498 69bd 3f20 64bd
00000050: 37da 603c 57a3 81bc 16b5 9bbd 801d dcbc
00000060: b7be 28be 1948 0bbd 2e0d 9ebc 7c4e 6bbc
00000070: c7dd 04be 4f67 a3bc 410f f3bd 6380 0e3c
00000080: 5b03 8e3c ebe2 563d 65fb a6bb d366 d0bc
00000090: 22da 863c a51e febc 963c e0bd 20fb dabb
000000a0: 9547 c03d a40a 633c c492 b0bc 03f7 9cbc
000000b0: 37d7 17bd 1269 373c 8f8d 933d 95fc 273d
000000c0: 9a52 f9bc 22ff 19bc 05ec 86bd 27ad 30be
000000d0: f7b0 593d 0cb9 10be f176 0f3c 487f 303d
000000e0: 097b bf3d 5dcb 1fbe 6e6d 8e3d da0c 38bd
000000f0: 970b 373c d8ea 38bc 1e4d 633d b1ce bebd
00000100: 6b89 80bc 74e2 e5bc 8c67 9e3d d3db c4bd
00000110: c56c 18be 7185 573d f13f c4bc 9656 ad3d
00000120: 7d36 9c3c 0707 07bd 2b51 a0bd d2c5 8d3d
00000130: 91ab 3b3d a73c 1ebd fda6 e03d 1b1e 69bd
00000140: 5616 a83d ad29 6a3c 2ccc e9bc c865 cf3d
00000150: 6375 2b3c c6e8 3c3d eef5 a53d afba c7bd
00000160: 15dd bcbd 47de 653c 7a9e 563c 3e97 cfbd
00000170: 3a33 00be 6a77 83bd 4ceb 1dbd fe6b 833d
00000180: f371 ba3d 8b91 db3c 6fe9 febc 3e7a 803b
00000190: 6092 e4bd d239 883c 3796 ab3c fb9b 43bd
000001a0: 9455 9c3d 5438 28bd 7b2a 20be da8b a73c
000001b0: e682 323d 0135 cbbd d999 dcbc d503 09be
000001c0: 4d0e a3bc 4d38 e33d 8cce 72bc 3947 f43d
000001d0: 966c 883b f142 bb3d 52d5 57bc 8943 0a3e
000001e0: 26e5 cfbd 6e56 133d 7849 8ebc 4137 f43d
000001f0: 2466 52bd 68b3 423e 65e8 1abe 73a7 a9bd
00000200: 31a9 353d a83b 0e3e 96ef d43d 80f9 ce3d
00000210: 2c22 36be 0232 18bd 34e3 a6bc 7461 643d
00000220: 9eb1 aa3d e511 ab3d f851 873d 0c06 cbbd
00000230: 4189 5abd a60b 453e b50f 943c 9814 ecbd
00000240: f465 e0bc 372f 38be c48e b4bd 8994 e1bd
00000250: af68 373e f338 7d3d 8909 ab3d 94e8 ae3c
00000260: 1ad6 81bd 8616 5e3c 1e65 b13d 0635 f13c
00000270: 9d9b 033e fd0e 0fbe 35d9 113e 64d9 4e3c
00000280: 2fd3 223d f7ba ac3d 35cd bf3d fc12 603d
00000290: 3931 573d 20a1 b3bd a45d 393b f21b b1bd
000002a0: 5c89 3b3d 05ba 003e d48f ce3d e092 6c3d
000002b0: c86a a23d 81c8 11bc 72ac da3d 0b92 d73d
000002c0: e5f6 8a3d 36fc 223e 440a 7e3e 1f75 a8bd
000002d0: acb0 c9bd 727a 0f3e 4a7c 22bd 5c35 0b3d
000002e0: 948d 023e f0a7 9c3d c05f bdbd 387c cabd
000002f0: 1788 f3bd 4124 3f3e 67f2 5a3d 88a3 7c3d
00000300: 3443 1dbe 4cb3 72bd 65b8 b9bd e8ee 1fbd
00000310: 181b 7ebc 4a56 10bd a22d 693c b379 663d
00000320: 6190 fabd 7b5c 273d 0091 88bd d3b4 5c3d
00000330: 8b4a 103d a42f c7bd 83eb a6bd 9061 fabd
00000340: a427 31be c264 4e3d 4059 1f3b d540 1bbd
00000350: 8af3 953d 5e83 83be 9067 e1bd b832 f3bc
00000360: f60e 3a3d a7b4 a2bc a68c fcbd 3198 01bd
00000370: e0a1 28be a848 133d 320e 45bd 6751 123d
00000380: 34e8 923b 224b 39bd a8e1 af3d 6508 20bd
00000390: 0046 9b3d 5cdc 803d d4c2 d5bd cab1 9c3c
000003a0: fbdb 223d abf1 5dbe 17f7 8bbc 0ffd 7abd
000003b0: d511 183c b774 82bd 698a 8ebb 6792 613a
000003c0: 15c9 f1bc 270c 41bd 3f48 893d 4a16 393c
000003d0: 5fad 983d 5b0d 003d 8315 4dbe b918 113a
000003e0: b86e 9cbd f357 64bd 7d78 863b 1253 52bd
000003f0: 7050 883d 0dee d4bd 6f35 97bc c80f 203e

net1.0.bias f4 [256]
-0.009345277 -0.024051145 -0.011180786 -0.03873167 -0.012831176 -0.022883607 -0.05223864 -0.032595452
-0.039474826 -0.017832974 -0.018083626 -0.081832066 -4.5984278e-05 -0.0699825 0.041698083 -0.0725607
-0.12070054 -0.056453593 0.015095129 0.02030436 -0.0009313923 -0.057024874 -0.03613263 0.04192024
0.010346901 -0.053713866 -0.021365361 0.028091677 -0.064279705 -0.057281878 -0.0015779153 -0.0029944943
-0.055446323 0.021691218 0.04491897 -0.008080761 -0.020697614 -0.04294002 -0.07312167 -0.020427672
-0.08864568 -0.0046215397 0.03790538 -0.024897743 0.009038947 -0.006207979 -0.06407026 0.03461182
0.0059246914 0.028480003 -0.036581483 -0.046734955 -0.052160986 0.004698497 -0.05019368 0.013143903
-0.03722394 -0.027807737 -0.0557724 -0.020669106 -0.018688073 -0.06707834 -0.035908155 -0.05573255
-0.07234137 -0.01915496 -0.08461429 -0.0020566408 -0.050428037 0.0040691276 -0.032897837 0.03189235
-0.08117128 0.0030710986 -0.031017965 -0.02719375 0.0097211525 0.044880904 -0.043578155 -0.06865447
-0.0072071264 -0.03633708 0.023907917 -0.031249817 -0.060947478 -0.048721783 -0.037123393 0.029276598
0.0036343187 -0.055283558 -0.038113233 0.018963898 -0.007095086 0.0014924168 -0.052202918 -0.0032263214
-0.037755545 -0.058446832 -0.043788306 0.025589455 -0.04394205 -0.05044927 -0.016523642 0.06232768
-0.03645868 -0.029530136 -0.06827456 -0.018242296 -0.057491004 0.011713942 -0.07553573 -0.010052727
-0.03163846 -0.030917922 -0.1107691 -0.018882608 0.036780395 0.03149327 -0.015510367 0.019527838
-0.0006095025 -0.036727786 0.02034522 -0.015305211 0.0065923696 0.037990175 0.031657506 0.025938569
-0.027608303 -0.012755583 -0.0039122147 -0.043627176 -0.01686794 -0.05070945 -0.009106918 0.0062573547
0.008694746 -0.08515991 -0.07863753 -0.07624055 -0.08117481 -0.06260618 -0.019382404 -0.05758266
0.0008956651 -0.03667213 -0.05805174 -0.012107574 -0.023695929 -0.002754506 0.008434217 -0.036134
-0.087479904 -0.044378836 0.016882973 0.051215798 -0.044064615 -0.019344585 -0.046681978 -0.021832855
0.03956847 -0.021416597 0.011843428 0.0005502732 -0.018643094 -0.050653033 -0.012885476 -0.054314066
-0.020715114 -0.09373057 -0.012290905 -0.06557994 -0.01317041 0.052085258 -0.0154389925 -0.018621473
-0.020607678 0.010227952 -0.0070415833 -0.015948912 -0.08743156 -0.0404004 0.014966918 -0.10477175
0.012905157 -0.023981495 0.061135903 -0.00597855 -0.019916812 0.021178287 -0.07236834 -0.0015427881
-0.057678618 -0.037319887 -0.040441178 -0.0036863533 -0.095481075 -0.021501223 0.049168814 0.0038572655
-0.04733751 0.014336239 0.019121584 -0.033357732 -0.0507735 -0.04702697 -0.02397857 -0.027726335
-0.04890968 -0.008878644 -0.01318347 -0.060719796 -0.08418555 0.025449065 -0.057395276 -0.035422333
-0.010686671 -0.030835047 -0.02488015 -0.03457661 -0.006094586 -0.08337691 0.022864638 -0.09000679
-0.039901827 -0.058323707 -0.055998586 0.023192843 0.03957841 -0.061306886 -0.020536127 -0.027982038
-0.09754531 0.015714666 -0.04187272 0.0013450977 -0.019812418 0.023968903 0.0012953966 -0.06251217
-0.047145493 -0.011562277 -0.005078741 -0.07423209 -0.022356527 -0.017847762 0.017313052 0.0048935344
-0.074115254 -0.01568598 -0.074671835 0.0072818594 -0.0021330973 -0.049060125 0.017561909 -0.006199404
00000000: ef1c 19bc e806 c5bc 9e2f 37bc 19a5 1ebd
00000010: da39 52bc 6776 bbbc 2ff8 55bd cf82 05bd
00000020: 5bb0 21bd 7516 92bc 1d24 94bc 9297 a7bd
00000030: 3edf 40b8 fc52 8fbd 9ccb 2a3d b49a 94bd
00000040: d831 f7bd e23b 67bd 8f51 773c 5455 a63c
00000050: ae28 74ba ea92 69bd cfff 13bd 8fb4 2b3d
00000060: 0c86 293c 1203 5cbd 6906 afbc 8420 e63c
00000070: 14a5 83bd 67a0 6abd 0dd2 ceba 473f 44bb
00000080: af1b 63bd c8b1 b13c f4fc 373d 2b65 04bc
00000090: 0b8e a9bc e0e1 2fbd d0c0 95bd ef57 a7bc
000000a0: de8b b5bd 4970 97bb ac42 1b3d 5af6 cbbc
000000b0: 1718 143c 4d6c cbbb 4537 83bd 20c5 0d3d
000000c0: ea23 c23b e54e e93c 77d6 15bd 276d 3fbd
000000d0: c2a6 55bd d9f5 993b e397 4dbd 8659 573c
000000e0: 2178 18bd 0dcd e3bc 9a71 64bd 4252 a9bc
000000f0: bb17 99bc 5e60 89bd 6e14 13bd d047 64bd
00000100: b627 94bd ddea 9cbc 424a adbd b5c8 06bb
00000110: a18d 4ebd 5156 853b e2bf 06bd 8ea1 023d
00000120: 213d a6bd 7c44 493b 6319 febc 6dc5 debc
00000130: 7845 1f3c 0ad5 373d 027f 32bd b79a 8cbd
00000140: c229 ecbb 31d6 14bd 89da c33c 9eff ffbc
00000150: 10a4 79bd 7e90 47bd b30e 18bd 7ad5 ef3c
00000160: c02d 6e3b 0371 62bd 9f1c 1cbd 2d5a 9b3c
00000170: e57d e8bb 339d c33a bad2 55bd b170 53bb
00000180: 8fa5 1abd f265 6fbd 5e5b 33bd faa0 d13c
00000190: 94fc 33bd e5a3 4ebd 975c 87bc 4f4b 7f3d
000001a0: b255 15bd 2fe9 f1bc 88d3 8bbd de70 95bc
000001b0: b07b 6bbd d5eb 3f3c 7ab2 9abd 31b4 24bc
000001c0: 5497 01bd 9547 fdbc e9da e2bd b3af 9abc
000001d0: 0aa7 163d 16ff 003d 321f 7ebc d8f8 9f3c
000001e0: 05c7 1fba e06f 16bd 05ab a63c b5c2 7abc
000001f0: ce04 d83b 969b 1b3d 4dab 013d 1f7d d43c
00000200: cf2a e2bc cbfc 50bc 0932 80bb 69b2 32bd
00000210: a22e 8abc b6b4 4fbd 2f35 15bc 7f0a cd3b
00000220: 6874 0e3c 5268 aebd b70c a1bd 0124 9cbd
00000230: fb3e a6bd ab37 80bd d9c7 9ebc ccdb 6bbd
00000240: 11cb 6a3a 8435 16bd a9c7 6dbd d95e 46bc
00000250: f71d c2bc f184 34bb ac2f 0a3c 3f01 14bd
00000260: aa28 b3bd 95c6 35bd 294e 8a3c a8c7 513d
00000270: 197d 34bd 8978 9ebc 9a35 3fbd d1da b2bc
00000280: 8c12 223d dc71 afbc f00a 423c 3640 103a
00000290: 67b9 98bc 8e79 4fbd 9b1d 53bc 6d78 5ebd
000002a0: beb2 a9bc d0f5 bfbd cb5f 49bc c74e 86bd
000002b0: b4c8 57bc 5a57 553d d4f3 7cbc 0f8c 98bc
000002c0: 6fd1 a8bc 2493 273c 15bd e6bb 4ba7 82bc
000002d0: 510f b3bd e47a 25bd ce37 753c 9292 d6bd
000002e0: 2770 533c d774 c4bc a469 7a3d b6e7 c3bb
000002f0: 9528 a3bc 167e ad3c da35 94bd 6137 caba
00000300: 6a40 6cbd bddc 18bd a6a5 25bd bf96 71bb
00000310: 958b c3bd 5523 b0bc 3d65 493d 2dca 7c3b
00000320: fae4 41bd 8be2 6a3c dea4 9c3c 1ea2 08bd
00000330: e0f7 4fbd 5a9f 40bd b56e c4bc 5722 e3bc
00000340: 8455 48bd bb77 11bc 7bff 57bc 52b5 78bd
00000350: 7969 acbd 8f7a d03c 4f17 6bbd 0217 11bd
00000360: 2617 2fbc c899 fcbc 75d1 cbbc 34a0 0dbd
00000370: 18b5 c7bb 83c1 aabd 9f4e bb3c 7b55 b8bd
00000380: 1970 23bd d7e4 6ebd c65e 65bd ebfe bd3c
00000390: f91c 223d ee1c 7bbd 613b a8bc 963a e5bc
000003a0: d6c5 c7bd 0bbc 803c bb82 2bbd fd4d b03a
000003b0: a74d a2bc 6f5a c43c 4cca a93a 6106 80bd
000003c0: a21b 41bd b46f 3dbc 916b a6bb fe06 98bd
000003d0: 0925 b7bc 7835 92bc 1ad4 8d3c f159 a03b
000003e0: bdc9 97bd e27f 80bc 8ced 98bd aa9c ee3b
000003f0: 6fcb 0bbb 45f3 48bd fedd 8f3c 5f24 cbbb

net1.2.weight f4 [256, 256]
-0.08565112 0.07868318 -0.09926377 0.021380596 -0.030095946 0.12596077 0.036593195 0.056148145
-0.027906215 0.037420344 0.119485445 -0.06598912 -0.017132165 0.07398138 -0.13378957 -0.112772435
-0.028151747 0.13862605 -0.028261596 -0.0499646 -0.070937745 -0.09241914 -0.11179373 0.027953777
-0.05411968 0.08376701 -0.057378933 -0.013101124 -0.052815173 0.09484914 -0.13047828 -0.092994474
0.04506401 -0.08934559 0.075864695 -0.1298964 0.0013332872 -0.06417294 0.10185786 -0.028539428
0.114835605 0.09740664 0.0173618 0.026185827 -0.024652807 0.04918955 -0.017918155 0.031597137
-0.04157497 0.06630594 -0.10062139 0.0005846371 0.008003641 -0.07114483 0.06003872 0.014196798
-0.0316441 -0.037693795 0.047344692 -0.02548343 -0.25454506 0.033133756 0.025982587 -0.09524373
0.079367116 -0.12987264 0.14487514 -0.12003949 -0.052925177 0.13288364 0.15215129 0.11578585
0.10343701 -0.15896814 -0.067593016 -0.042243164 0.019766547 0.0031236538 -0.14950958 0.13897136
0.05313625 -0.04967104 0.003700922 0.02856603 -0.014108115 -0.10665289 -0.07374098 -0.12217801
-0.0032800469 -0.13529801 0.07035304 0.00028308143 -0.006733718 0.11351587 -0.081083134 -0.16066812
-0.03810586 0.10961408 0.0915374 0.021256274 -0.105959296 -0.013160844 0.025186663 -0.023426577
-0.036453336 -0.055565562 0.05035544 0.03829292 0.08320938 0.11730402 -0.0049862536 0.15612349
0.16486637 0.1302816 0.0558647 -0.11015744 0.09902874 -0.10512451 0.03736667 0.09808378
-0.13283703 0.107701786 0.09696593 0.023808919 -0.113764085 0.048835147 0.13725631 -0.066532224
-0.000737581 -0.00944718 -0.02426814 -0.019180255 0.11948185 -0.10223635 0.0922743 0.07129782
-0.09598227 -0.010261731 0.11931045 -0.0274719 -0.037257582 -0.038334463 -0.108202875 -0.030384189
0.020570427 0.014973203 0.022670565 -0.012804863 0.020612255 0.07704883 -0.040655516 -0.07688501
0.07836098 -0.09662385 -0.032631926 -0.051030193 -0.15958351 0.035908144 0.07456257 -0.07712316
0.058044717 0.0683134 -0.090091065 -0.07518378 0.00881754 0.015104313 0.09234625 -0.14454676
-0.044904802 0.12892708 -0.08950965 -0.113716036 0.03211903 -0.029894304 0.06906506 -0.23141764
0.06662803 -0.024012681 0.07943762 -0.20311019 -0.06720048 -0.06472953 -0.015193962 -0.029897101
0.07939812 0.06256505 -0.06513503 0.07160989 -0.12835476 -0.021075843 -0.038329765 -0.13214268
0.036956504 0.035827883 0.12286976 -0.072014764 -0.16104914 0.025694024 -0.108775064 0.019785607
-0.023652893 -0.1850575 0.06642056 0.030692691 -0.029435135 -0.009997371 0.040381536 -0.033025134
0.064780354 0.08689885 -0.17807305 -0.03869353 0.109940216 0.016152695 0.07653933 0.051605728
0.033500094 0.09369837 -0.10917258 0.11304638 -0.019389683 -0.016869606 -0.048933607 0.056537244
0.08306531 -0.12241474 -0.027147746 0.014739552 -0.04441029 0.09100974 -0.0044629383 -0.10798416
0.061750416 0.07826802 0.087104715 -0.051857047 -0.0046903323 -0.08947919 -0.09641413 0.15174039
-0.06912202 -0.022475697 -0.093916714 0.06816369 -0.07898362 0.06723332 -0.03634487 -0.054931793
0.0073598023 0.0071982 0.13284579 -0.08645374 -0.004448106 0.11775928 -0.10566125 -0.021766504
00000000: db69 afbd a624 a13d ce4a cbbd 5c26 af3c
00000010: c68b f6bc dcfb 003e bfe2 153d 99fb 653d
00000020: 939b e4bc 1346 193d c9b4 f43d 4e25 87bd
00000030: c158 8cbc 8d83 973d 2200 09be 3cf5 e6bd
00000040: 7e9e e6bc fdf3 0d3e dd84 e7bc aea7 4cbd
00000050: cf47 91bd 3f46 bdbd 1cf4 e4bd 52ff e43c
00000060: 99ac 5dbd 0a8e ab3d 2c06 6bbd 19a6 56bc
00000070: b954 58bd 4440 c23d 199c 05be e373 bebd
00000080: 0a95 383d d2fa b6bd f35e 9b3d 9003 05be
00000090: b2c1 ae3a 1a6d 83bd db9a d03d 85cb e9bc
000000a0: ee2e eb3d 227d c73d 553a 8e3c a983 d63c
000000b0: aff4 c9bc fb7a 493d 18c9 92bc 006c 013d
000000c0: 844a 2abd 69cb 873d 9612 cebd 5542 193a
000000d0: b421 033c 61b4 91bd 29eb 753d b099 683c
000000e0: 3e9d 01bd cf64 1abd 82ec 413d a0c2 d0bc
000000f0: bb53 82be 43b7 073d 6fd9 d43c 250f c3bd
00000100: 3a8b a23d 55fd 04be 265a 143e 44d7 f5bd
00000110: 12c8 58bd a612 083e 8ccd 1b3e 2221 ed3d
00000120: c8d6 d33d 8bc8 22be 356e 8abd 2b07 2dbd
00000130: 74ed a13c 37b6 4c3b 0a19 19be 824e 0e3e
00000140: 65a5 593d dc73 4bbd 2b8b 723b 4f03 ea3c
00000150: b925 67bc d56c dabd 8305 97bd 7738 fabd
00000160: 0ef6 56bb 908b 0abe 4115 903d 8c6a 9439
00000170: 85a6 dcbb 027b e83d ea0e a6bd 2f86 24be
00000180: e414 1cbd 597d e03d f677 bb3d a321 ae3c
00000190: 3001 d9bd 95a0 57bc 4354 ce3c 18e9 bfbc
000001a0: 1850 15bd b798 63bd 8141 4e3d 09d9 1c3d
000001b0: ae69 aa3d 173d f03d ba63 a3bb d6de 1f3e
000001c0: bbd2 283e 8a68 053e 62d2 643d 399a e1bd
000001d0: 94cf ca3d 854b d7bd cb0d 193d 26e0 c83d
000001e0: 6e06 08be c192 dc3d 1396 c63d ec0a c33c
000001f0: 25fd e8bd 5d07 483d eb8c 0c3e 0c42 88bd
00000200: 395a 41ba 58c8 1abc facd c6bc e91f 9dbc
00000210: e6b2 f43d 4b61 d1bd 4ffa bc3d 9704 923d
00000220: 5a92 c4bd d220 28bc 0a59 f43d c00c e1bc
00000230: 689b 18bd 9904 1dbd 7899 ddbd 43e8 f8bc
00000240: 5083 a83c 2a52 753c 9fb7 b93c 7dcb 51bc
00000250: 08db a83c c7cb 9d3d 6686 26bd e375 9dbd
00000260: b97b a03d bae2 c5bd 0ea9 05bd 0905 51bd
00000270: dc69 23be 6b14 133d 43b4 983d bff2 9dbd
00000280: 4cc0 6d3d e5e7 8b3d aa81 b8bd f4f9 99bd
00000290: 7177 103c 1578 773c 0820 bd3d 1104 14be
000002a0: 19ee 37bd 7605 043e d650 b7bd f4e3 e8bd
000002b0: 3e8f 033d e6e4 f4bc fb71 8d3d bff8 6cbe
000002c0: 4774 883d 3eb6 c4bc 31b0 a23d 1efc 4fbe
000002d0: 68a0 89bd ea90 84bd 18f0 78bc c4ea f4bc
000002e0: 7b9b a23d 1b22 803d 8465 85bd 35a8 923d
000002f0: 6e6f 03be 3fa7 acbc acff 1cbd 6950 07be
00000300: b45f 173d 42c0 123d 24a3 fb3d 7a7c 93bd
00000310: 11ea 24be 467c d23c 76c5 debd 6d15 a23c
00000320: b6c3 c1bc b77f 3dbe 8107 883d 3d6f fb3c
00000330: f421 f1bc 03cc 23bc 1c67 253d 5d45 07bd
00000340: 90ab 843d 06f8 b13d c858 36be 1b7d 1ebd
00000350: 5628 e13d a852 843c a7c0 9c3d 8760 533d
00000360: 6537 093d eee4 bf3d e095 dfbd dc84 e73d
00000370: 1dd7 9ebc 2132 8abc 9b6e 48bd 9993 673d
00000380: 251e aa3d 94b4 fabd f364 debc 297e 713c
00000390: 90e7 35bd 5163 ba3d d73d 92bb cd26 ddbd
000003a0: 01ee 7c3d fc4a a03d f563 b23d 0e68 54bd
000003b0: 5cb1 99bb de40 b7bd c574 c5bd d561 1b3e
000003c0: d88f 8dbd f41e b8bc 6857 c0bd 6899 8b3d
000003d0: 2ac2 a1bd 9fb1 893d 5cde 14bd 2900 61bd
000003e0: 7f2a f13b e1de eb3b ba08 083e a90e b1bd
000003f0: 6bc1 91bb c72b f13d ed64 d8bd ab4f b2bc

net1.2.bias f4 [256]
0.050887994 0.019345377 0.004857545 0.018593831 -0.035982072 0.038021296 -0.021367267 -0.056500614
-0.04137234 0.0038325144 -0.017327573 -0.08625138 -0.030838808 -0.07290118 -0.0011197869 -0.10026601
-0.06334128 -0.015718672 -0.031169321 -0.005416448 -0.031984076 -0.012794098 -0.0046156673 -0.060493644
-0.09474103 0.0158502 0.00032378844 0.012506276 -0.003729859 0.0009721099 0.0029939923 -0.0630084
0.050981384 -0.0059383004 -0.049606614 -0.0009199212 -0.02941841 0.0085865 -0.04776066 -0.030376323
0.0006823749 -0.023188855 -0.010632917 -0.0015964365 0.021294508 -0.06677055 -0.06660503 -0.042068746
-0.02572289 -0.07472082 -0.06231819 0.024161717 -0.06320872 0.032307286 0.011180057 -0.069052316
-0.071574755 -0.022961073 -0.026482565 -0.052142195 -0.046582658 -0.053913884 -0.049326696 0.005156395
-0.105095506 -0.051873807 -0.059618846 -0.007493476 0.03578591 -0.043324493 -0.0030768216 0.017471425
-0.06918035 -0.08486979 0.011787828 -0.08433829 -0.006538323 0.0035952087 -0.010501203 -0.10275386
-0.049484976 -0.046802856 -0.047210753 0.006871271 -0.04394306 -0.0345899 0.036216687 0.036635794
-0.022553883 0.009504752 0.003616763 -0.0023834098 0.025182147 0.025017582 -0.010320102 -0.10192726
-0.030431759 -0.008381253 -0.0545533 0.0075647123 -0.07305145 -0.027399214 -0.052241642 -0.054000527
0.03403418 -0.062058732 -0.07586688 -0.0066683376 -0.010208908 -0.07628732 -0.05683856 0.02118505
-0.060163632 0.018943615 0.02989794 -0.0066221775 -0.06868338 -0.012613081 -0.008312202 -0.015136923
-0.056261566 0.013202291 -0.039821666 -0.04176445 -0.00998562 -0.024901645 -0.008128878 0.06433093
-0.08838284 0.0061351513 0.023408517 -0.065265395 -0.018275684 -0.0011993496 -0.08692952 -0.009070793
-0.007960071 -0.08001136 -0.057990026 -0.06814483 -0.031366 -0.035278793 -0.020103058 -0.07782032
0.057172745 -0.014613022 0.02271233 0.011461478 -0.0664581 -0.03719814 -0.012362833 -0.057442088
-0.036435246 -0.013061044 0.03340684 0.011482226 -0.05979909 -0.01048652 -0.074003905 0.035595443
-0.020968532 -0.035361197 -0.025794866 -0.02208655 -0.00408299 0.0048708743 0.0004848943 0.00561225
-0.0132966265 -0.017252944 -0.04058314 0.0032359783 -0.027610082 -0.046928097 0.000274187 -0.012969544
-0.027752955 -0.09382814 0.01698701 -0.039824996 0.008452089 -0.098177135 -0.047033772 -0.0024561167
-0.012089352 -0.027081763 -0.08277698 -0.05516668 0.032422382 0.014591288 0.037456665 0.006822976
-0.04768742 0.012645949 -0.0032324414 0.012597352 0.025673952 -0.0048095854 -0.007850796 0.016292075
0.02438617 -0.011457209 0.0158461 -0.030009212 0.020785784 0.0029255939 0.0001776069 -0.07516869
0.029154513 -0.05243306 -0.058196567 -0.07391981 0.015685523 0.0067465357 -0.07600528 -0.059303816
0.046604425 -0.15071508 -0.019621374 -0.0099365795 -0.022608703 0.011580456 -0.001838031 -0.011603809
0.0032009727 -0.023001159 -0.028021542 -0.0432909 -0.0644227 3.3366618e-05 -0.023266356 0.0028753667
-0.023302818 -0.017592026 -0.086819805 0.08486486 -0.05774475 -0.009242385 -0.038237583 -0.056149986
0.005156516 -0.05489512 -0.05418731 -0.06746146 -0.017188886 -0.08756273 -0.006897768 0.05279218
-0.038805995 -0.05558645 0.014886477 0.0007215584 -0.06840841 0.019687172 -0.017550953 -0.09676525
00000000: ee6f 503d 327a 9e3c 0a2c 9f3b 1752 983c
00000010: f061 13bd 38bc 1b3d 680a afbc 306d 67bd
00000020: 0b76 29bd ec2a 7b3b 8ef2 8dbc 90a4 b0bd
00000030: aba1 fcbc 374d 95bd d0c5 92ba 4458 cdbd
00000040: 13b9 81bd 72c4 80bc ce56 ffbc 767c b1bb
00000050: bc01 03bd 569e 51bc 063f 97bb 2fc8 77bd
00000060: 9607 c2bd 47d8 813c 26c2 a939 20e7 4c3c
00000070: a670 74bb 31d5 7e3a db36 443b 8c0a 81bd
00000080: dbd1 503d 1396 c2bb 4e30 4bbd de26 71ba
00000090: e1fe f0bc 64ae 0c3c afa0 43bd c4d7 f8bc
000000a0: 68e1 323a 8ef6 bdbc b035 2ebc 853f d1ba
000000b0: d271 ae3c 00bf 88bd 3868 88bd 4750 2cbd
000000c0: cfb8 d2bc 3b07 99bd 5c41 7fbd cbee c53c
000000d0: 9373 81bd a554 043d 8f2c 373c 4d6b 8dbd
000000e0: c995 92bd dc18 bcbc f7f1 d8bc 0e93 55bd
000000f0: 75cd 3ebd ced4 5cbd ca0a 4abd faf6 a83b
00000100: 503c d7bd a179 54bd e432 74bd d58b f5bb
00000110: 3f94 123d 0675 31bd 80a4 49bb 3c20 8f3c
00000120: 6dae 8dbd 36d0 adbd bc21 413c 8eb9 acbd
00000130: 6e3f d6bb 989d 6b3b 3d0d 2cbc 9e70 d2bd
00000140: c2b0 4abd 5ab4 3fbd 1060 41bd 6628 e13b
00000150: a3fd 33bd 24ae 0dbd f357 143d 6a0f 163d
00000160: ecc2 b8bc d2b9 1b3c 3707 6d3b fb32 1cbb
00000170: ca4a ce3c acf1 cc3c a515 29bc 3dbf d0bd
00000180: 064c f9bc 8651 09bc 4873 5fbd 68e1 f73b
00000190: 009c 95bd 5174 e0bc 55fb 55bd a82f 5dbd
000001a0: 6d67 0b3d 4c31 7ebd 1860 9bbd 1282 dabb
000001b0: 4343 27bc 873c 9cbd 8dcf 68bd 458c ad3c
000001c0: 246e 76bd a42f 9b3c 86ec f43c dafe d8bb
000001d0: dfa9 8cbd 19a7 4ebc e72f 08bc db00 78bc
000001e0: 8772 66bd 6c4e 583c 0b1c 23bd 3311 2bbd
000001f0: ba9a 23bc 89fe cbbc fc2e 05bc efbf 833d
00000200: 1002 b5bd 6109 c93b 38c3 bf3c dda9 85bd
00000210: e3b6 95bc 7f33 9dba 1b08 b2bd aa9d 14bc
00000220: f56a 02bc ffdc a3bd f386 6dbd 848f 8bbd
00000230: a379 00bd 7f80 10bd 2baf a4bc 4360 9fbd
00000240: f82d 6a3d 756b 6fbc 350f ba3c ecc8 3b3c
00000250: 2f1b 88bd 145d 18bd 7b8d 4abc 6548 6bbd
00000260: 203d 15bd fdfd 55bc 9cd5 083d f21f 3c3c
00000270: e4ef 74bd a7cf 2bbc 5c8f 97bd 87cc 113d
00000280: 33c6 abbc e7d6 10bd c14f d3bc daee b4bc
00000290: 9aca 85bb db9b 9f3b 6939 fe39 f7e6 b73b
000002a0: 18da 59bc 0c56 8dbc 823a 26bd b512 543b
000002b0: 8a2e e2bc ad37 40bd c2c0 8f39 367e 54bc
000002c0: 2a5a e3bc f828 c0bd 5828 8b3c 891f 23bd
000002d0: a17a 0a3c 1811 c9bd 7ca6 40bd cdf6 20bb
000002e0: 6b12 46bc 93da ddbc fa86 a9bd 75f6 61bd
000002f0: 55cd 043d 4c10 6f3c 296c 193d 4593 df3b
00000300: e253 43bd f430 4f3c 5ed7 53bb 2065 4e3c
00000310: 2e52 d23c ba99 9dbb a0a0 00bc f576 853c
00000320: 81c5 c73c 04b7 3bbc aecf 813c e1d5 f5bc
00000330: f346 aa3c 52bb 3f3b fd3b 3a39 0bf2 99bd
00000340: 72d5 ee3c 0cc4 56bd 865f 6ebd 4563 97bd
00000350: ed7e 803c 0b12 dd3b a8a8 9bbd 8fe8 72bd
00000360: 48e4 3e3d 0e55 1abe 01bd a0bc 09cd 22bc
00000370: e335 b9bc f4bb 3d3c 16ea f0ba e71d 3ebc
00000380: 69c7 513b ed6c bcbc 6f8d e5bc cc51 31bd
00000390: 0cf0 83bd 22f3 0b38 1699 bebc a670 3c3b
000003a0: 8de5 bebc 271d 90bc 95ce b1bd a1cd ad3d
000003b0: c285 6cbd 5f6d 17bc 039f 1cbd 87fd 65bd
000003c0: fef7 a83b b5d9 60bd 83f3 5dbd 3c29 8abd
000003d0: b5cf 8cbc 1754 b3bd ac06 e2bb 9d3c 583d
000003e0: 09f3 1ebd 9eae 63bd 69e6 733c f726 3d3a
000003f0: b519 8cbd fe46 a13c 04c7 8fbc dc2c c6bd

net1.last_linear.weight f4 [1, 256]
-0.11689642 0.3704543 -0.120083585 -0.11564108 0.1470783 -0.07657954 0.22263706 -0.024225459
0.1543864 -0.12791806 -0.033817522 0.26000652 0.24955551 0.103898324 -0.0769391 0.0003217776
0.11879949 -0.055633385 0.13362698 -0.12707238 0.14058249 0.17089134 -0.0519464 0.13069697
0.14743455 -0.08258799 -0.069699846 -0.1901391 -0.11714545 0.16933891 -0.041046787 0.1394286
-0.18016642 -0.19546631 -0.00071379857 -0.105789915 0.3281863 -0.113876335 0.1972104 0.17072232
-0.06366793 0.23017079 0.11266901 -0.062309694 -0.048444778 -0.016235797 0.17024311 0.15561487
-0.04666434 0.11539661 -0.013925423 -0.11524563 0.26896042 -0.16327691 -0.08183418 0.09560578
0.14829198 -0.12418669 -4.5390643e-05 0.06617442 0.13096869 0.05143581 0.098882385 -0.22020595
-0.018130943 0.13577981 0.016292198 0.114320815 -0.19730043 -0.02969593 -0.08108353 -0.1614711
0.22879136 0.060596 -0.14640921 0.14965405 -0.13405283 -0.12915328 -0.07281529 0.18527868
0.0535722 0.16541626 0.10887939 -0.1465823 0.23813815 0.108943455 -0.15966311 -0.0004701604
-0.094530046 -0.17160091 0.24048665 0.17018458 -0.11603199 -0.1334645 -0.13722958 0.06878622
0.122418724 -0.06741257 0.117416404 -0.0011814989 0.097748265 0.27228612 -0.021157024 0.10445868
-0.20102488 0.13620827 0.17483526 -0.14653242 -0.10044104 0.07994444 0.06210243 -0.18270677
0.12809448 -0.17168571 -0.120479316 -9.615893e-05 0.08859723 0.13559826 -0.1578668 0.20763223
0.16629267 -0.14119853 0.12902434 -0.0707547 -0.22388107 0.25037238 -0.16149147 -0.22804844
0.094989724 -0.08357288 -0.06590474 0.10537026 -0.082132615 -0.06227699 0.08167693 -0.15804206
-0.032966033 -0.02689405 0.08125569 0.15037672 0.31295627 0.22761369 0.14206316 0.16166985
-0.09530132 -0.07001556 -0.06338989 0.20194736 -0.06303008 0.1833882 -0.05877116 0.15101027
0.11666202 -0.08618648 -0.16654426 0.14123444 0.14070576 0.23997113 0.039283182 -0.15909518
0.30251548 0.15000634 0.24545977 -0.08559392 -0.09974778 0.059705973 0.2058908 -0.08117829
0.18797795 0.108693235 0.12797914 -0.2260899 0.17530613 0.058285788 -0.061190285 -0.03944375
0.21822926 0.08598248 -0.29443294 0.06284251 -0.120330766 0.14337118 0.107003756 -0.3778682
-0.25787553 0.18028738 0.13680172 0.1414297 -0.3219235 -0.19321914 -0.13200058 -0.05814597
-0.001022835 -0.061463393 -0.08399545 -0.10228123 -0.11617261 -0.112658165 -0.047786117 -0.058312237
-0.015054643 0.21229929 -0.20710371 0.1510711 -0.14077578 -0.06168692 0.31827575 0.06520153
-0.15338424 0.14312544 -0.010975185 0.102983296 -0.19633186 0.21808277 -0.0013307519 0.16955985
-0.045933098 -0.0072236694 0.21439959 -0.12867837 -0.21207313 -0.032809984 -0.21874149 0.16715002
-0.05992872 0.15865313 -0.09881633 0.09514384 0.08482082 -0.20451474 0.13366303 0.049083196
-0.030696109 0.11915287 0.15574345 -0.12976882 0.19797081 0.36609983 0.1280641 0.14624277
-0.020913454 0.11025957 0.14237885 0.20735261 -0.06388658 0.11860166 0.24447402 -0.0853971
0.2063852 0.14608401 -0.094889164 0.25639302 0.13489328 -0.07477906 0.2042998 0.1365605
00000000: 6467 efbd 30ac bd3e 62ee f5bd 3bd5 ecbd
00000010: b29b 163e bcd5 9cbd f8fa 633e 7874 c6bc
00000020: 7817 1e3e f4fc 02be 3e84 0abd 931f 853e
00000030: 7b8b 7f3e a5c8 d43d 3f92 9dbd 42b4 a839
00000040: 264d f33d d5df 63bd 83d5 083e 431f 02be
00000050: dbf4 0f3e 24fe 2e3e c0c5 54bd 6dd5 053e
00000060: 15f9 163e e423 a9bd cbbe 8ebd d3b3 42be
00000070: f4e9 efbd 2e67 2d3e ad20 28bd 5fc6 0e3e
00000080: 8c7d 38be 5228 48be 361e 3bba 62a8 d8bd
00000090: 0908 a83e ff37 e9bd 86f1 493e d5d1 2e3e
000000a0: 5564 82bd e4b1 6b3e 03bf e63d 7338 7fbd
000000b0: 086e 46bd ef00 85bc 3654 2e3e 8159 1f3e
000000c0: 1b23 3fbd 0f55 ec3d 7527 64bc e705 ecbd
000000d0: 2eb5 893e 1032 27be ae98 a7bd f7cc c33d
000000e0: dad9 173e 9755 febd d561 3eb8 7486 873d
000000f0: a81c 063e 5bae 523d d982 ca3d ab7d 61be
00000100: 5887 94bc dd09 0b3e 3777 853c 0821 ea3d
00000110: 2009 4abe e144 f3bc 1f0f a6bd ae58 25be
00000120: 4848 6a3e 8333 783d 4cec 15be e93e 193e
00000130: 2545 09be c240 04be 2f20 95bd b2b9 3d3e
00000140: 866e 5b3d e162 293e 28fc de3d ac19 16be
00000150: 7dda 733e bf1d df3d ba7e 23be dc7f f6b9
00000160: f898 c1bd 26b8 2fbe 2242 763e de44 2e3e
00000170: 2ea2 edbd ebaa 08be e985 0cbe cadf 8c3d
00000180: abb6 fa3d 9a0f 8abd 0378 f03d 86dc 9aba
00000190: 3e30 c83d 1669 8b3e 7f51 adbc 6fee d53d
000001a0: 77d9 4dbe 2e7a 0b3e 0408 333e 980c 16be
000001b0: 08b4 cdbd e9b9 a33d 1e5f 7e3d 7c17 3bbe
000001c0: 332b 033e 61ce 2fbe dcbd f6bd efa8 c9b8
000001d0: 7772 b53d 45da 0a3e d6a7 21be 8b9d 543e
000001e0: a048 2a3e 5996 10be f51e 043e d7e7 90bd
000001f0: 1441 65be cf30 803e 055e 25be 8885 69be
00000200: f989 c23d 4228 abbd 10f9 86bd 5dcc d73d
00000210: 2535 a8bd 2816 7fbd 3c46 a73d c7d5 21be
00000220: 6407 07bd e950 dcbc 6269 a63d 5bfc 193e
00000230: ce3b a03e 9013 693e 0179 113e c88c 253e
00000240: 572d c3bd 5164 8fbd 8fd2 81bd 4acb 4e3e
00000250: ea15 81bd 1eca 3b3e 07ba 70bd 70a2 1a3e
00000260: 7fec ee3d 8a82 b0bd 948a 2abe c39f 103e
00000270: 2c15 103e feba 753e 67e7 203d d9e9 22be
00000280: 4fe3 9a3e 439b 193e ce59 7b3e dd4b afbd
00000290: 9048 ccbd 408e 743d 0ad5 523e ce40 a6bd
000002a0: 4b7d 403e 8f9a de3d f70c 033e 1c84 67be
000002b0: 7383 333e 14bd 6e3d aaa2 7abd c58f 21bd
000002c0: 7e77 5f3e 9517 b03d eabf 96be 93b3 803d
000002d0: fa6f f6bd e5cf 123e c924 db3d f177 c1be
000002e0: 4308 84be 419d 383e c015 0c3e f3d2 103e
000002f0: 28d3 a4be 3ddb 45be 292b 07be 782a 6ebd
00000300: a610 86ba 0ac1 7bbd ce05 acbd d278 d1bd
00000310: e8eb edbd 53b9 e6bd 60bb 43bd d0d8 6ebd
00000320: c0a7 76bc fc64 593e ff12 54be 62b2 1a3e
00000330: 8727 10be 6cab 7cbd 0af5 a23e 6188 853d
00000340: c210 1dbe 7a8f 123e 43d1 33bc e8e8 d23d
00000350: 380b 49be 1751 5f3e a06c aeba 19a1 2d3e
00000360: 5824 3cbd 88b4 ecbb 918b 5b3e 43c4 03be
00000370: b329 59be c363 06bd c5fd 5fbe 6029 2b3e
00000380: d177 75bd f775 223e 3760 cabd c6da c23d
00000390: 8ab6 ad3d 506c 51be f6de 083e 760b 493d
000003a0: 6876 fbbc 6b06 f43d 367b 1f3e 1ee2 04be
000003b0: dcb8 4a3e 7071 bb3e 3c23 033e aac0 153e
000003c0: b152 abbc c5cf e13d c3cb 113e 3e54 543e
000003d0: f8d6 82bd 6de5 f23d 6657 7a3e ade4 aebd
000003e0: a456 533e 0c97 153e 4055 c2bd f245 833e
000003f0: 7721 0a3e c425 99bd f733 513e 84d6 0b3e
