safe_slac_parallel _version/Safe_Slac_CARLA/models/safety_critic_target.pth (torch, 507786 bytes, 5 tensors)

net1.0.weight f4 [256, 234]
00000000: 358b 10be a4c9 5bbd f9c7 e03d d760 0b3d
00000010: 0bb0 abbc a5c7 fcbd 9fa0 c9bc a3e8 803d
00000020: 62c0 d43d a881 9abc f6f6 4b3d c9c1 f83c
00000030: 82ce 81bd bea8 1dbb c216 34be e2d8 513d
00000040: e2cd 3bbd 329a 943d 7554 6cbd d718 64bd
00000050: 4e40 753c cd77 75bc 96bd 97bd 3cc9 e0bc
00000060: 8553 27be fa93 09bd e217 a6bc 196f 84bc
00000070: 09e8 05be 755b 97bc 0557 f1bd 3136 3f3c
00000080: 4d0f 9f3c e860 573d ce65 aabb f275 d9bc
00000090: 0774 8f3c 991b 03bd cb74 e1bd 66d0 c5bb
000000a0: 6469 c13d 7ce0 433c 77c2 b2bc 64ad 9dbc
000000b0: ddda 1dbd 0861 3a3c a86b 933d 9323 303d
000000c0: 29e9 f6bc e64e 23bc 2478 88bd cb98 2ebe
000000d0: d3cb 583d 89db 10be f354 2f3c bc64 3a3d
000000e0: c302 bb3d 1b89 1ebe 49a7 8b3d 1880 34bd
000000f0: 2743 373c a68d 3abc 6986 663d fe88 bfbd
00000100: 4972 87bc cc09 e8bc 212e 9e3d 5f5e c5bd
00000110: 3045 19be e64a 5d3d 9d0c b4bc ee9e aa3d
00000120: 934d a13c 4630 06bd eb67 a6bd dc8a 8d3d
00000130: ad65 3b3d 52d0 1fbd 1328 e33d d380 63bd
00000140: 5d75 a83d e94b 723c b5c9 f6bc 562b d13d
00000150: 5fb9 163c 3973 3b3d d4f5 a63d c78a c5bd
00000160: 14db bfbd c029 3e3c fb80 7f3c 0f46 cebd
00000170: 8ffc fdbd e3d7 82bd 0950 17bd e2c7 833d
00000180: fd4f b83d 17d9 ea3c 8dcd 00bd d50a f03b
00000190: b752 e3bd 17d7 8c3c c4ce b03c aa7c 3abd
000001a0: ab5e 9a3d ab42 2dbd b088 22be 6511 9e3c
000001b0: 96e2 2a3d 42a2 ccbd ba1d d7bc dc8a 08be
000001c0: c109 acbc 9964 e23d a377 83bc e76c f23d
000001d0: 50a1 903b 49c4 b93d 7f94 43bc d090 0a3e
000001e0: 76df d1bd 8ba2 143d f090 91bc 3543 f33d
000001f0: 22b3 51bd cfac 413e 276a 1abe 5267 a7bd
00000200: 06d9 3a3d e0f6 0f3e 2164 d53d 0adb d03d
00000210: d4a3 37be 1015 1dbd 1d51 a4bc c050 6b3d
00000220: 5d4a ab3d 3ca6 a83d 0154 873d f525 c8bd
00000230: d00f 58bd af6e 463e d3b6 9b3c 2999 ecbd
00000240: edf4 cdbc a347 38be e6c7 afbd 79f5 debd
00000250: fbb8 373e 344d 7c3d c356 ab3d faad b23c
00000260: 2b7e 83bd b508 6c3c 9470 b03d 098b e23c
00000270: 10f9 043e 2697 10be 2474 0f3e b54d 3b3c
00000280: ec3b 1f3d a8dd b13d 8d29 c13d 9968 633d
00000290: bd6c 533d 59f6 b2bd bf24 b23b e2ca b1bd
000002a0: 5db1 3b3d 4de8 003e 3778 d03d aa26 6c3d
000002b0: f0c7 9f3d b14d 02bc d40e d83d 801a d73d
000002c0: 36c9 883d 4ded 233e 0cba 7c3e 3b0b a7bd
000002d0: 2b42 c6bd 3ee1 0e3e 8d84 25bd 6f6c 083d
000002e0: c923 033e 888c 993d 1aa4 c1bd 963c c9bd
000002f0: 8924 f5bd 1a84 3f3e 5dc9 573d 1abd 793d
00000300: 3f81 1fbe 688f 6ebd 5df9 b8bd 276c 22bd
00000310: 84c3 81bc b91e 0ebd 5893 573c 50e9 593d
00000320: cb82 f7bd f9eb 253d 9ae0 8bbd 3439 643d
00000330: b04a 093d 5bc6 c1bd d31c a8bd 73ef fcbd
00000340: f92b 31be 70dc 493d 79aa a73b 8e23 14bd
00000350: 4f1f 953d 75e7 83be 1bf8 e1bd 1dcb fabc
00000360: 848e 413d f659 90bc 9421 fcbd b6f5 0bbd
00000370: febc 28be 6fcf 163d 9433 41bd 8860 163d
00000380: 8093 b33b fa04 3abd 7318 af3d 5aab 18bd
00000390: 8038 9c3d fc31 833d d887 d7bd 49d6 a03c
000003a0: 79cc 253d db2a 5fbe 6b21 88bc 2c05 7abd
000003b0: 39b8 0c3c 7c78 84bd 41a7 22bb 3d40 8e3a
000003c0: 41d1 f4bc 800c 3bbd 4a9a 8b3d 1c68 2a3c
000003d0: 2022 9c3d 986c 003d 6fa4 4cbe 94ec baba
000003e0: 4b7e 9abd 95a2 61bd 74b1 803b 4a9a 53bd
000003f0: a72c 883d 221c d8bd 24f6 95bc f947 213e
-0.14115603 -0.053659096 0.10975642 0.0340279 -0.020957967 -0.12342767 -0.024612723 0.06294372
0.103882566 -0.018860653 0.049796067 0.030365841 -0.06338216 -0.0024056877 -0.17586806 0.051232226
-0.045850642 0.07255973 -0.057697732 -0.05568775 0.014968945 -0.014982176 -0.074092075 -0.027439706
-0.16340454 -0.033588387 -0.02027506 -0.016166257 -0.13076796 -0.018476227 -0.11784176 0.011670635
0.019416476 0.05258265 -0.0052001243 -0.026545499 0.01751138 -0.03200874 -0.110086046 -0.006036806
0.0944393 0.011955377 -0.021821244 -0.019247718 -0.038538802 0.011375673 0.07198268 0.043002676
-0.030140476 -0.009967541 -0.0666354 -0.17050473 0.052928757 -0.14146246 0.010701406 0.045506224
0.09131386 -0.15481989 0.068190165 -0.044067472 0.011185444 -0.011386311 0.056280527 -0.09352301
-0.016533988 -0.028324984 0.07723642 -0.096371405 -0.14967799 0.054026507 -0.02197867 0.08331095
0.01969031 -0.03276088 -0.081252895 0.06911251 0.045751262 -0.03901703 0.11091628 -0.05554278
0.0822551 0.014788606 -0.030125478 0.10213344 0.009199469 0.04576418 0.08152357 -0.0964561
-0.09367958 0.011606634 0.015594716 -0.10071956 -0.12401687 -0.063888334 -0.03694156 0.06434609
0.089996316 0.02866797 -0.03144603 0.00732551 -0.11099761 0.017192407 0.021582969 -0.045529045
0.07537588 -0.042299908 -0.15872455 0.019295404 0.041719995 -0.09991886 -0.026259292 -0.1333422
-0.021000745 0.11054344 -0.016048258 0.11837178 0.004413761 0.090706415 -0.01193726 0.13531804
-0.102477 0.036287826 -0.017769307 0.11878053 -0.051196225 0.18913577 -0.15079556 -0.08174004
0.045617126 0.14059019 0.10419489 0.101980284 -0.17933589 -0.038350165 -0.02005821 0.057450056
0.08363793 0.08234832 0.06607819 -0.09772865 -0.052749455 0.1937816 0.019008076 -0.115526505
-0.025141204 -0.17996077 -0.085830495 -0.10886664 0.17941658 0.061597064 0.08366158 0.021811474
-0.06420549 0.014406373 0.086152226 0.027654188 0.12985635 -0.14120159 0.14009148 0.011432101
0.038875505 0.08684856 0.09431753 0.055519674 0.051617373 -0.08738393 0.0054365094 -0.08681275
0.045823444 0.12588616 0.10179179 0.05765406 0.07801807 -0.007953093 0.10549703 0.10503101
0.06679003 0.16008492 0.24680346 -0.08156439 -0.09680589 0.1395311 -0.040409613 0.033306535
0.1280662 0.07497507 -0.09455128 -0.09826009 -0.11969859 0.18702736 0.05268227 0.060971357
-0.15576647 -0.05824223 -0.09031937 -0.039653923 -0.0158403 -0.03469727 0.013157688 0.05320102
-0.12085494 0.040508244 -0.06829949 0.055718616 0.033518493 -0.094616614 -0.08208623 -0.12350359
-0.1730193 0.04928249 0.0051167575 -0.03616672 0.07281362 -0.25762525 -0.110336505 -0.03061443
0.047255054 -0.017621022 -0.12311092 -0.034169875 -0.16478345 0.036818918 -0.04716833 0.036713153
0.00548023 -0.045414902 0.08549585 -0.03727279 0.07627964 0.06406018 -0.10523957 0.01963343
0.040478203 -0.21793692 -0.016617497 -0.06104009 0.008588844 -0.06468293 -0.002481893 0.0010852885
-0.029884936 -0.045666218 0.06816538 0.010400798 0.07623696 0.031353563 -0.19984601 -0.001426118
-0.0754362 -0.05508669 0.003927404 -0.051660813 0.06649142 -0.10552241 -0.018305846 0.15750112

net1.0.bias f4 [256]
00000000: 248b 20bc 6835 c0bc 683b 3bbc f79b 1fbd
00000010: 2e5b 67bc 3648 babc c2d5 56bd 0320 08bd
00000020: af67 22bd 9806 9bbc ab79 96bc cff6 a9bd
00000030: 47ba 6bba 69b6 90bd 97b8 2c3d 3131 93bd
00000040: eab0 f4bd 132f 68bd 4f1a 803c 01dc a63c
00000050: da1d 36ba 7698 69bd 15d5 14bd 8825 273d
00000060: 0edb 263c 6112 58bd 2fd5 b1bc a229 e13c
00000070: e5b8 83bd d65c 69bd 81dd daba 1ac8 49bb
00000080: 2927 60bd 70b4 ae3c 2fbf 373d 6d3f 0cbc
00000090: 3e56 b2bc 5283 2fbd f4da 94bd f3b5 a3bc
000000a0: 3579 b4bd 9978 b0bb 5ad8 1d3d 5362 cebc
000000b0: 3683 143c 0e3d dbbb a587 84bd 4c80 0b3d
000000c0: 209a e63b 5920 e93c 9230 18bd 1214 40bd
000000d0: df68 56bd 767d 973b 3afe 4ebd 5ebf 6b3c
000000e0: b9a4 16bd da8f e9bc de09 64bd 1690 adbc
000000f0: bc4b 97bc 11b5 89bd 084c 10bd 5f7c 65bd
00000100: ce95 94bd 381e 99bc b835 acbd 9de8 40bb
00000110: cbcb 49bd d968 373b 11ef 06bd aa0b 013d
00000120: 1f11 a6bd b5f9 9e3b 726d fabc b30e e2bc
00000130: 7bc7 0d3c 56b7 353d 0642 33bd 5896 8abd
00000140: 79bf 06bc dd92 13bd 8d63 bd3c f2b4 fcbc
00000150: 0aa0 77bd f711 49bd 0df5 16bd 28c7 ea3c
00000160: ced1 8b3b 5e07 64bd 1515 1bbd 3cd7 9c3c
00000170: 6887 dbbb e16c 5b3a 39b7 56bd c948 52bb
00000180: 6554 1dbd 23c9 6dbd 6814 38bd 7ee9 ce3c
00000190: a06d 31bd f2a3 4ebd 281a 8cbc abfc 7c3d
000001a0: aa48 12bd 251e f5bc 0535 8dbd c96f 8fbc
000001b0: a384 6dbd 87ad 383c 1652 9abd 901b 1abc
000001c0: 75a4 f7bc a359 00bd e405 e1bd 54fa 9cbc
000001d0: 043d 173d ef59 023d c00b 77bc ae65 a13c
000001e0: a225 fdb9 3fd1 16bd 6bdf 9f3c e026 7dbc
000001f0: 4d55 d03b 6115 193d 48e7 003d 1e0e ce3c
00000200: fb0f e3bc e2cf 59bc 7838 54bb fbed 2abd
00000210: 10d9 90bc bbaa 47bd 2b33 0bbc 3f96 c33b
00000220: 2644 0b3c 90ec adbd a958 a0bd 6d2e 99bd
00000230: 0955 a5bd f3f3 80bd a41f 9cbc 43f2 6cbd
00000240: f4fd 2e39 f004 15bd 0117 6abd cb3f 3dbc
00000250: 3384 bbbc f45c 15bb 8dd4 123c 3dc1 18bd
00000260: 58c0 b0bd 7c18 33bd a638 8f3c 6ca5 513d
00000270: 7aa0 37bd 8e16 a0bc f7de 3abd 14e6 abbc
00000280: 8ccd 203d 0d18 b3bc 1df1 513c 172a 833a
00000290: c720 90bc ccf6 4fbd bc89 54bc 24c8 5bbd
000002a0: 1ee5 acbc 2305 c1bd 4591 54bc 3137 86bd
000002b0: 2ff2 66bc f75c 553d 38bd 7dbc b7c5 97bc
000002c0: f07e a3bc 9595 243c 33eb e3bb 7cf8 7ebc
000002d0: 6647 b3bd 94e8 21bd ab48 6a3c cf1e d6bd
000002e0: 4aa9 553c f5b9 c2bc f914 783d 5205 c1bb
000002f0: dcc9 acbc 79ea aa3c 066a 93bd 3121 21bb
00000300: e69a 69bd 333a 14bd 7940 21bd 9a51 93bb
00000310: 9aa1 c0bd f6c4 b0bc 530b 4b3d 233e 4b3b
00000320: 17c2 3bbd ce16 6d3c 43ec a23c 06e9 0bbd
00000330: 3e16 4fbd 1526 40bd 931d c6bc 8d77 d7bc
00000340: 7f92 45bd 9cd7 17bc ff86 5dbc d6b8 75bd
00000350: 9a15 adbd bbf9 c83c 74ba 65bd cce7 0dbd
00000360: b74d 32bc b636 fdbc 1455 c8bc 9078 08bd
00000370: 754a e4bb 3a36 adbd b722 b53c 8a5b b7bd
00000380: 66b1 24bd 0bb6 6dbd 1215 63bd 6f90 bb3c
00000390: c5a6 243d 5fb4 79bd ec5b a3bc f623 ebbc
000003a0: f6b5 c6bd 3ad8 853c d1a3 2dbd 8f64 143b
000003b0: 86c1 9ebc 4aba be3c 852e bd3a c1e8 7fbd
000003c0: 1bcc 3fbd 4c14 3cbc 54b0 a4bb 88ea 96bd
000003d0: 7299 b0bc b3bb 8dbc 98a3 833c 9806 a33b
000003e0: 3646 98bd cd2c 6fbc 503f 99bd 90c8 f63b
000003f0: 1e2b 13bb 7bdf 48bd a496 953c 3746 a6bb
-0.009798799 -0.023462966 -0.011427738 -0.0389671 -0.01412086 -0.022739511 -0.05244995 -0.033233654
-0.03964966 -0.018924043 -0.018368563 -0.08299028 -0.0008992296 -0.07066042 0.042168226 -0.07187117
-0.11947806 -0.05668552 0.015637545 0.020368578 -0.0006947197 -0.057030164 -0.036336023 0.040807277
0.010184063 -0.052751902 -0.0217081 0.027485672 -0.0643175 -0.0569733 -0.0016698093 -0.0030789436
-0.054724846 0.021326274 0.04486006 -0.008560044 -0.02176964 -0.042849846 -0.072683245 -0.019984221
-0.08812181 -0.00538547 0.038536407 -0.025193369 0.009064486 -0.006690628 -0.06471185 0.0340579
0.007037416 0.028457807 -0.037155695 -0.04689414 -0.052346107 0.0046231104 -0.050535418 0.014388887
-0.036778186 -0.028510977 -0.055673473 -0.02118687 -0.01846873 -0.06723989 -0.03522876 -0.056026813
-0.072551355 -0.018691167 -0.084086835 -0.0029435523 -0.049266618 0.0027986078 -0.032942835 0.031505264
-0.08108734 0.0048515447 -0.030569766 -0.0275949 0.008653517 0.044364296 -0.043764137 -0.06766957
-0.008224362 -0.03602873 0.023118759 -0.030848 -0.06045536 -0.0490894 -0.036854792 0.028659418
0.004266954 -0.05567109 -0.037861902 0.0191456 -0.0066994913 0.0008370411 -0.05242083 -0.003208684
-0.038410563 -0.058053147 -0.044941336 0.025257822 -0.043317437 -0.05044932 -0.017102316 0.0617644
-0.03571383 -0.0299216 -0.06894878 -0.017509358 -0.05798782 0.011271841 -0.07535188 -0.0094059855
-0.030229786 -0.031335484 -0.10987452 -0.019162335 0.036923423 0.03182405 -0.015078485 0.019701805
-0.0004828396 -0.036820646 0.019515714 -0.015451163 0.006357825 0.037373904 0.031470567 0.025153216
-0.027717581 -0.013294192 -0.003238229 -0.041730862 -0.017681628 -0.048746806 -0.008496086 0.0059688385
0.008500135 -0.08492386 -0.078294106 -0.07479558 -0.0807286 -0.062965296 -0.019058056 -0.057848226
0.00016688538 -0.036381662 -0.057150844 -0.011550854 -0.022890186 -0.0022791 0.008961809 -0.03729366
-0.08630437 -0.043724522 0.017483067 0.05118315 -0.044830777 -0.019542005 -0.045622792 -0.020983733
0.039258525 -0.021862054 0.012813834 0.0010007051 -0.017593754 -0.050772473 -0.012972292 -0.053657666
-0.021105345 -0.09424808 -0.012974088 -0.06553496 -0.014095827 0.05209061 -0.015487008 -0.018526895
-0.01995799 0.010045429 -0.006955528 -0.015562173 -0.087538525 -0.039528444 0.014299552 -0.10455095
0.01304085 -0.023770312 0.060566876 -0.005890527 -0.021092348 0.020863758 -0.07197957 -0.0024586434
-0.05703249 -0.036188316 -0.039368127 -0.0044958116 -0.09405823 -0.021578293 0.049571346 0.0031012378
-0.045839395 0.014470769 0.019888049 -0.034157775 -0.05055832 -0.046911318 -0.024184024 -0.026302123
-0.048235413 -0.009267714 -0.013520955 -0.059990726 -0.08451386 0.024533143 -0.05608602 -0.034644887
-0.0108827865 -0.030909877 -0.02445463 -0.033318102 -0.006966884 -0.084576085 0.02211128 -0.089530066
-0.040208243 -0.058034938 -0.055440016 0.02289602 0.040198106 -0.06096303 -0.019941293 -0.028703671
-0.09702675 0.016338456 -0.042392556 0.0022642945 -0.019379389 0.023282189 0.001443342 -0.06247783
-0.04682551 -0.0114794485 -0.0050259028 -0.07368952 -0.021557543 -0.017301416 0.016069219 0.0049751513
-0.07435267 -0.014598084 -0.07482779 0.007531233 -0.002245612 -0.049041253 0.018260308 -0.005074288

net1.2.weight f4 [256, 256]
00000000: fd0c b3bd 4235 9f3d c2ab cabd 0a59 b43c
00000010: b9da 05bd e736 003e 9c9a 103d bf76 653d
00000020: bf3c ddbc 47cd 173d b509 f63d b542 89bd
00000030: e1f4 8ebc 0ea3 983d 3f13 08be 9240 e5bd
00000040: e591 edbc 0368 0e3e fb95 e8bc 85eb 4ebd
00000050: 86b2 8dbd 189d bfbd b860 e4bd e097 e73c
00000060: 5057 5dbd 4d1a a83d 8b05 6abd 31ea 53bc
00000070: 5b52 56bd 42e0 c03d ae63 05be 764f bdbd
00000080: 9af6 413d d183 bebd 0b9b 9c3d 9463 05be
00000090: ffc7 433b 6391 83bd fa2f d13d b9ec e7bc
000000a0: 1a6b e93d 7332 c83d bfff 913c 0eea d13c
000000b0: 1724 c9bc 75e1 4c3d bef0 8fbc b171 f93c
000000c0: 6e6a 2abd 8031 883d f0ab cdbd c74e 4f3a
000000d0: b15b 1c3c cc69 91bd 1f6f 783d 2157 653c
000000e0: b3fd 07bd 5431 18bd eb4d 413d 4dd4 d0bc
000000f0: 4655 82be ca1e 043d 31bd ce3c ed1b c2bd
00000100: 1326 a43d 68dc 04be 0979 143e a863 f7bd
00000110: 37a3 5fbd 2c1b 073e d61f 1c3e 55dd ed3d
00000120: 9b14 d23d 0703 23be 89f5 8cbd 0399 2abd
00000130: fc4f 9b3c b0fc 553b fab5 19be 5e6f 0d3e
00000140: ab2c 523d e782 48bd 273b 2e3b 3621 ea3c
00000150: 2112 6ebc 2162 dbbd d843 96bd 4504 fbbd
00000160: 5860 98bb f1b5 0abe 162d 8d3d 8566 0bba
00000170: 1b5f fcbb 8301 e93d 7fc4 a4bd 5a73 26be
00000180: 8bb8 12bd 2541 e03d ffe2 bb3d 954d b03c
00000190: 69dd d6bd b67e 63bc f872 d43c e7ba bebc
000001a0: ed16 14bd 55d4 60bd bc9f 4c3d f757 1f3d
000001b0: 5798 a83d 7f81 f03d f2ba a1bb df8f 1e3e
000001c0: 3234 293e 7818 053e 24ed 633d 373a e0bd
000001d0: 2cfc cd3d 7f76 d5bd 17cb 153d 54ad c93d
000001e0: 4539 06be 1dfb d83d ae78 c53d ba97 c73c
000001f0: 90ed e7bd 62b5 473d d64e 0b3e 3c68 8abd
00000200: 3571 d7ba 4c09 1bbc 9645 bebc cbbf a9bc
00000210: 4363 f33d 7272 cfbd 2857 be3d 0a0e 8e3d
00000220: 7115 c9bd c1bd 10bc 31ac f13d f3de e6bc
00000230: b6a3 11bd e58d 1dbd 282b debd f229 f1bc
00000240: aad9 aa3c aa9b 453c cd55 b03c b10c 61bc
00000250: 92e4 a83c 4267 9d3d 458b 27bd a420 a0bd
00000260: d6db 9d3d bdcf c2bd 7e8d 02bd 6656 4dbd
00000270: 5509 23be bbf2 153d d7cb 973d 6cb4 9ebd
00000280: 414f 713d 8474 8b3d d1aa b5bd f031 9cbd
00000290: 6c04 f53b 3957 853c 3e42 bf3d 3d26 14be
000002a0: 2f62 32bd b68c 043e 6200 b7bd d2a6 e8bd
000002b0: 2e83 043d b56f f8bc cdb0 903d f505 6cbe
000002c0: 798c 843d 90e3 c5bc 662d a13d 0a0a 50be
000002d0: 930d 8bbd d851 82bd 806b 8cbc 8ff1 f6bc
000002e0: a3fb a03d 653d 813d b295 83bd bbf3 903d
000002f0: 02a4 03be be8e acbc b49e 23bd 3799 06be
00000300: 1aae 1f3d 5a21 0e3d 6e99 fc3d 6c30 92bd
00000310: 48b8 26be 1590 d03c ca61 e3bd c680 a53c
00000320: 4de7 c2bc 9641 3dbe 1573 873d 1bb2 003d
00000330: 2ef6 ebbc 5f9c 2cbc be9c 233d 577e 07bd
00000340: 7f1c 853d baf6 b13d b575 35be 6c50 1ebd
00000350: 9514 dd3d f57b 793c beeb 9b3d b1a8 563d
00000360: ac44 0d3d f980 bd3d 4b88 ddbd 4fc8 eb3d
00000370: a42d 95bc 97ee 92bc 5afe 44bd 378e 653d
00000380: 63b3 aa3d d2be f9bd 1967 e3bc 3ac4 683c
00000390: bd7b 39bd 80dc bb3d 8791 81bb db41 dcbd
000003a0: 2353 7a3d c87a a33d 653e af3d 2937 52bd
000003b0: 07d1 bebb 887b b5bd 5ecd c1bd 652d 1c3e
000003c0: 8a0e 94bd c9de c5bc 70c9 bfbd 79f5 8a3d
000003d0: 19fd a1bd 26fb 893d 25b8 1cbd bdf1 65bd
000003e0: a840 e03b a964 e63b 408b 073e f69d b0bd
000003f0: 03cd 96bb 96a8 ef3d 960c d8bd 9025 a6bc
-0.08742712 0.0777383 -0.098960415 0.022015113 -0.032679293 0.12520944 0.035303697 0.05602145
-0.027006505 0.037061002 0.1201357 -0.067021765 -0.017450752 0.07452975 -0.13288592 -0.111939564
-0.029000232 0.13906865 -0.028391829 -0.050517578 -0.06918816 -0.09356135 -0.1115126 0.028270662
-0.054038346 0.082081415 -0.057134192 -0.012934254 -0.052324634 0.09417774 -0.13026306 -0.092436716
0.04735432 -0.09302486 0.076467596 -0.13026267 0.0029873846 -0.06424215 0.10214229 -0.02831112
0.11397381 0.097752474 0.017822145 0.025624301 -0.024553342 0.0500197 -0.01757085 0.03044972
-0.041605406 0.066500664 -0.1004256 0.0007908162 0.009543345 -0.07100257 0.06065285 0.013997824
-0.03320093 -0.037156418 0.04719345 -0.025491858 -0.25455683 0.032255925 0.025236698 -0.09477983
0.080150746 -0.12974703 0.14499296 -0.12079555 -0.054599013 0.13193959 0.1524652 0.11614481
0.102578364 -0.15919124 -0.068827696 -0.04164983 0.018959038 0.0032651834 -0.15010825 0.13812014
0.05131213 -0.048952963 0.002658555 0.02858029 -0.014530689 -0.10712076 -0.07337159 -0.12256674
-0.004650157 -0.13545968 0.06893365 -0.0005317706 -0.007701767 0.113772415 -0.08045291 -0.1625494
-0.035820525 0.10949925 0.091741554 0.021521369 -0.104914494 -0.013885191 0.025933728 -0.023282481
-0.036154676 -0.054889996 0.049957022 0.03890225 0.082321815 0.117434494 -0.0049356157 0.1548457
0.16523817 0.12997615 0.055646077 -0.109486036 0.100578636 -0.10422992 0.036570635 0.09847513
-0.13107784 0.10594771 0.096421584 0.024364341 -0.11324608 0.048756965 0.13604292 -0.067581624
-0.0016436937 -0.009462666 -0.02322654 -0.020721337 0.11884167 -0.101292506 0.092939675 0.069362715
-0.09818543 -0.008834303 0.11800421 -0.028182482 -0.035556518 -0.0384654 -0.10848075 -0.029438946
0.020855743 0.012061039 0.021525288 -0.013735936 0.020616803 0.076857105 -0.040904302 -0.07818726
0.07707946 -0.09512279 -0.03187322 -0.050131224 -0.15921529 0.03660844 0.07411926 -0.077492565
0.058913473 0.06809333 -0.08870471 -0.07626712 0.007477334 0.016276943 0.093388066 -0.14467712
-0.043550666 0.12944302 -0.0893562 -0.113599434 0.032351665 -0.030326704 0.07064972 -0.23049147
0.064721055 -0.024156362 0.07869987 -0.2031633 -0.067896985 -0.06363267 -0.017141104 -0.030144481
0.07860496 0.06310538 -0.064250365 0.07077738 -0.12855533 -0.021064159 -0.039946273 -0.13144384
0.038984396 0.034699775 0.12333952 -0.07138142 -0.16281235 0.025459329 -0.11102636 0.020203006
-0.023791933 -0.1848205 0.06613747 0.031419855 -0.028803911 -0.010535329 0.039944403 -0.03307947
0.06499576 0.086896375 -0.17720683 -0.038650915 0.10794941 0.015227308 0.07613324 0.05240697
0.03448932 0.09253115 -0.108170114 0.11512815 -0.01821024 -0.017936034 -0.04809413 0.05604383
0.083349966 -0.12194599 -0.027759122 0.01420694 -0.04528402 0.091729164 -0.003954116 -0.107547484
0.06111444 0.07982403 0.08556823 -0.051322136 -0.005823258 -0.08861452 -0.09462999 0.15251692
-0.072293356 -0.024154084 -0.09364593 0.067851014 -0.07909603 0.06737356 -0.03826155 -0.056138743
0.006843645 0.0070310426 0.13236713 -0.08623879 -0.004602076 0.11702077 -0.105492756 -0.020281583

net1.2.bias f4 [256]
00000000: 548a 4f3d defb 9b3c 365a aa3b a180 903c
00000010: 127a 15bd d0fb 1c3d a142 adbc 3a93 66bd
00000020: cade 2abd 11d0 7b3b 40d7 85bc 90d2 b1bd
00000030: c8f7 00bd c0e4 95bd 4bbc daba 7358 cdbd
00000040: b45b 80bd 3ef7 80bc d038 fdbc d641 bcbb
00000050: 0826 04bd 8d3c 5abc 9087 a3bb b064 79bd
00000060: 2b91 c2bd a2d6 813c a31c 9539 dee5 573c
00000070: 3dc2 51bb db67 8c3a 3faa 763b 9ef2 7fbd
00000080: e6c2 503d c872 cabb 4d57 4dbd 5d64 f8b9
00000090: 06ee f5bc 30c4 0e3c 37d1 43bd a052 f9bc
000000a0: 9df5 a33a 34c5 c1bc fb9b 28bc b34d d6ba
000000b0: 73d0 b53c 92de 87bd 3143 87bd 4c49 2bbd
000000c0: 293a d1bc 52ee 97bd a3d8 80bd 5ba2 cc3c
000000d0: db50 81bd 8581 013d 7492 353c fcac 8cbd
000000e0: a171 91bd 0979 c0bc 1c54 d6bc 9299 57bd
000000f0: 16a6 43bd 864e 5fbd 0f4d 4dbd f343 c43b
00000100: 5aa3 d8bd d14f 52bd c75f 74bd 6017 f6bb
00000110: f853 133d 4da8 30bd 6513 96bb 0e2c 8c3c
00000120: 0096 8dbd 4f15 afbd 6aa1 393c d6c0 aabd
00000130: 603a d1bb 0cde 833b 2d39 39bc 12a7 d1bd
00000140: f6e3 4abd b9c2 41bd c3a5 3fbd 5299 dc3b
00000150: b9bd 32bd 6e3c 12bd 29f9 103d 6594 1d3d
00000160: 8912 b4bc dae8 183c 0f49 813b 0f7e 20bb
00000170: 8161 d73c 1bcd d13c 71dc 22bc ef34 d0bd
00000180: 3972 f6bc 6c89 08bc 1282 60bd 0f2d fa3b
00000190: c193 96bd 2a9d dabc f877 55bd 046e 5ebd
000001a0: acac 0c3d 5159 7ebd 07a8 9bbd e8db c9bb
000001b0: 71c4 36bc 3d48 9abd 6794 67bd 60e7 ab3c
000001c0: 9811 77bd bc5a 9d3c bf32 f93c 8dc5 c8bb
000001d0: 58f8 8dbd cbd6 4ebc 615b 01bc 36e9 73bc
000001e0: 04ac 64bd 44d1 463c 1429 23bd deab 29bd
000001f0: 2fee 18bc 1e34 c8bc 1eac f5bb 5a19 853d
00000200: 96d5 b4bd 0fec c83b 434e ba3c 0331 84bd
00000210: 62bc 97bc 1ddd a6ba 1a09 b2bd fab1 27bc
00000220: d51e 17bc bfd5 a2bd 7309 70bd 36c0 8bbd
00000230: a9fb 00bd 314f 13bd 74f7 a6bc 04fa 9ebd
00000240: 0281 6b3d 911b 7cbc f9c3 bc3c 0b23 3e3c
00000250: 1895 87bd 6ac5 1abd 4736 4cbc 8cb9 6abd
00000260: 4eaf 15bd e210 4ebc 7a41 043d ec71 3c3c
00000270: cbca 72bd f67c 2dbc fdd4 97bd 4007 133d
00000280: 1c36 a4bc cd65 11bd 0d71 d1bc 280b babc
00000290: 0ae6 83bb 71bc 573b d2fa 8d39 f591 8c3b
000002a0: 3d10 55bc d0a1 8ebc 2996 28bd 7253 533b
000002b0: 7a4d e3bc 7eba 44bd 719d c6b9 9893 48bc
000002c0: b273 d9bc 326c bfbd 99b4 8d3c 7a11 23bd
000002d0: 84f7 0f3c aa96 c8bd 0107 40bd fff0 d9ba
000002e0: 5af6 4abc 5da8 e2bc ec33 abbd a854 65bd
000002f0: ba35 043d 24a2 6b3c 645d 1b3d 1af0 b93b
00000300: c27a 4abd f318 583c a0a0 1cbb b2cf 4b3c
00000310: 0ed9 d13c 7229 90bb 7fab e6bb e894 853c
00000320: 8e89 c53c 2dfc 3cbc d004 833c 25f8 f3bc
00000330: 3209 ad3c 9417 0d3b dc4b c0b9 65d2 99bd
00000340: 5404 e53c 4109 58bd 8399 6abd 5be6 98bd
00000350: 18af 763c 69a0 d43b c4e4 9cbd 11e2 71bd
00000360: e137 3e3d af87 1abe 30f5 a4bc be25 2ebc
00000370: 135a b4bc a365 3e3c 6141 bdba bc73 39bc
00000380: d225 443b 2c05 bebc 0b52 ebbc 7ae3 33bd
00000390: 9868 82bd 3f1e 2139 5145 c3bc 5c6d 173b
000003a0: 6239 bebc 8b24 8ebc fd5c b0bd d458 ad3d
000003b0: 1520 6ebd 3934 21bc 5369 1cbd da17 67bd
000003c0: ab9b b63b ebbb 5fbd 489d 60bd de9b 8abd
000003d0: c8f3 95bc 30a0 b4bd e136 f4bb c9eb 573d
000003e0: e695 1ebd 08db 65bd aa3c 783c d370 be39
000003f0: 0ce4 8cbd ab72 a03c ecf2 93bc f81d c5bd
0.05066903 0.019040998 0.0051987423 0.01763946 -0.03649337 0.038326085 -0.021149935 -0.05629275
-0.041716374 0.0038423578 -0.01633799 -0.0868274 -0.031486303 -0.07319021 -0.0016688196 -0.10026636
-0.06267491 -0.015742894 -0.03091088 -0.005745153 -0.032262832 -0.0133201005 -0.0049905255 -0.06088704
-0.09500345 0.015849415 0.0002844083 0.013177363 -0.0032006644 0.0010712104 0.0037638096 -0.062487237
0.05096712 -0.006178234 -0.050132085 -0.00047377023 -0.030020725 0.008713767 -0.047806945 -0.030434906
0.0012509112 -0.023653604 -0.010291095 -0.001635006 0.022194123 -0.06634249 -0.066046126 -0.04181795
-0.025540428 -0.07418503 -0.0629132 0.02497976 -0.0631425 0.03161766 0.01108228 -0.06868932
-0.07101751 -0.023495214 -0.026163153 -0.05263669 -0.047765814 -0.054518245 -0.050122317 0.0059895455
-0.10578032 -0.05134565 -0.059661653 -0.0075101107 0.03596875 -0.043129254 -0.0045799487 0.01711085
-0.06913376 -0.08548986 0.011329988 -0.08337562 -0.0063851327 0.004024273 -0.011305136 -0.10236944
-0.049533807 -0.047304843 -0.046788942 0.0067321444 -0.043637965 -0.03570216 0.035393868 0.0384716
-0.021981495 0.00933286 0.003945477 -0.00244892 0.02629161 0.025610497 -0.009940253 -0.10166346
-0.030083762 -0.008333545 -0.054811545 0.007634766 -0.073524006 -0.02668627 -0.052116364 -0.054304138
0.03434436 -0.062096898 -0.07600408 -0.006160248 -0.011155234 -0.075333096 -0.056538012 0.020984352
-0.060319513 0.019208305 0.030419705 -0.0061270655 -0.069321334 -0.012624453 -0.007895322 -0.014887145
-0.05582811 0.012134854 -0.039834097 -0.04142367 -0.009334131 -0.024438914 -0.0074973246 0.06498976
-0.08829801 0.006131656 0.022742396 -0.06454661 -0.018522445 -0.0012730692 -0.08693142 -0.010235304
-0.0092236595 -0.07950925 -0.05860276 -0.06823771 -0.03149 -0.035964195 -0.020381667 -0.077625304
0.05749608 -0.015387432 0.023042666 0.011605035 -0.06620234 -0.037785925 -0.012464113 -0.057305858
-0.036544137 -0.012577267 0.032289006 0.0115017705 -0.05927543 -0.010588875 -0.07413671 0.035895586
-0.020045333 -0.035497475 -0.025566602 -0.022710398 -0.0040252255 0.0032918716 0.0002708049 0.0042898604
-0.01300436 -0.017411143 -0.04115883 0.0032245782 -0.027746905 -0.048029415 -0.00037882806 -0.01224222
-0.026544426 -0.093468085 0.01729803 -0.03981159 0.00878704 -0.09794362 -0.04688168 -0.0016627609
-0.012387836 -0.027668172 -0.08359513 -0.055988938 0.0322778 0.014381919 0.03793086 0.0056743743
-0.049433477 0.013189542 -0.002389945 0.012439655 0.025616195 -0.004399472 -0.007039487 0.016306356
0.024113443 -0.011534733 0.015993506 -0.02978141 0.021122549 0.0021528946 -0.00036677613 -0.07510833
0.027956165 -0.0527432 -0.057275306 -0.07465812 0.015056394 0.006488849 -0.07660821 -0.059053484
0.04644001 -0.15090822 -0.020136446 -0.010629116 -0.022015607 0.011620912 -0.001443904 -0.011319097
0.002992977 -0.023195826 -0.028725645 -0.04391811 -0.06367606 0.00015365424 -0.023836764 0.0023105955
-0.023220722 -0.01735141 -0.08611486 0.08464208 -0.058136065 -0.009839111 -0.038186383 -0.05641923
0.0055727563 -0.054622572 -0.054837495 -0.067680106 -0.01830472 -0.08819616 -0.007452831 0.052715097
-0.038717173 -0.056117088 0.015151182 0.00036323685 -0.06879434 0.019585928 -0.01806017 -0.09624857

net1.last_linear.weight f4 [1, 256]
00000000: c66d efbd 484a bd3e 6341 f4bd 8b7b e9bd
00000010: 4c54 153e 963d 9dbd 6536 633e 1f24 c6bc
00000020: a2a9 1d3e 0bfc 01be d29a 0cbd 134f 853e
00000030: fa11 7f3e 8d1a d33d c930 9cbd 3080 6734
00000040: c706 f53d c478 64bd b977 083e db95 01be
00000050: 63c7 0f3e e8bd 2e3e a766 54bd 0a4b 053e
00000060: aa34 173e 7a77 a8bd d087 8fbd 1f3c 42be
00000070: 971d eebd ca96 2c3e 8528 2abd 2219 0e3e
00000080: c513 39be 719b 47be 689c 1039 24e2 d7bd
00000090: dbc8 a73e 2ffe e7bd 7c2e 493e 8e21 2e3e
000000a0: 18c7 82bd 26b5 6a3e cdb8 e53d 7a62 7dbd
000000b0: a60e 48bd a964 8dbc c76b 2f3e f627 1f3e
000000c0: ed95 3cbd 6aa2 ec3d 7cbe 57bc af64 ebbd
000000d0: aa41 893e 85cb 25be 836b a6bd 0745 c33d
000000e0: 0234 173e 7bf3 fdbd e13e dcb7 2de6 853d
000000f0: 49ad 053e 89d2 4d3d 6384 ca3d ad2c 61be
00000100: 24a8 90bc 326d 0a3e e501 883c 10ad e83d
00000110: bfdf 48be 88d4 f3bc d167 a3bd de1f 25be
00000120: ef07 6c3e 77ea 783d fbd3 15be 4bac 193e
00000130: 7227 09be 5f5b 04be 9bb5 93bd 65d0 3d3e
00000140: faa5 5d3d 1d56 2a3e 2086 df3d 7615 16be
00000150: 545e 743e a87a dd3d a91b 23be 4ed6 7f3a
00000160: bee4 bfbd 9c1c 2fbe cbc7 753e 9265 2d3e
00000170: d79d ebbd dff0 08be 5f9b 0cbe d910 8e3d
00000180: e789 fa3d 162f 8abd 3a86 ef3d cffe cdba
00000190: 25f3 c73d cf17 8b3e 1637 adbc dd0e d63d
000001a0: 4752 4dbe eb05 0b3e fe95 323e 24a2 15be
000001b0: eff7 cbbd 3fea a43d 024d 7f3d 9a6a 3abe
000001c0: 3a00 043e a13c 2fbe 1edf f6bd 6646 b0b9
000001d0: 8c19 b63d 7a0e 0a3e b435 21be e050 543e
000001e0: 62ab 293e 50ed 0fbe 9d8e 033e ee95 90bd
000001f0: 9c53 65be 5ec0 7f3e 7675 24be 56f2 68be
00000200: 15e9 c23d 383d acbd 8c9c 86bd 2f2d d93d
00000210: 1f95 a9bd 35d8 80bd 0f9a a63d 7d9d 20be
00000220: 9c8b 03bd 44c3 e2bc 2ef4 a53d ec05 1a3e
00000230: 70dc 9f3e a426 683e 0bd1 103e 8800 263e
00000240: f0f7 c3bd 7cbb 8dbd f4b7 7fbd 464e 4e3e
00000250: 30c7 80bd 2523 3b3e bca5 70bd c6e7 193e
00000260: 5eb9 ed3d 613a b1bd 0239 29be ec81 103e
00000270: bd92 103e 2734 753e 638d 1e3d d89f 22be
00000280: 1197 9a3e 441f 193e df52 7b3e 05c8 adbd
00000290: afac c9bd b644 6f3d 7d2a 523e 8b38 a3bd
000002a0: 448c 3f3e fdc2 dd3d f465 023e 02c5 66be
000002b0: c0aa 333e 4776 6d3d 4d5d 79bd 1c0d 24bd
000002c0: 88e2 5e3e 8d86 af3d 22b3 96be b6ce 7d3d
000002d0: cca9 f6bd 1669 123e 0937 db3d 8413 c1be
000002e0: adb8 83be 65a8 373e 8cec 0b3e 2688 103e
000002f0: 8c0a a5be 3ce0 45be 4f65 07be b795 6cbd
00000300: 7808 dcb8 f045 7cbd 9fcd abbd 7c25 d1bd
00000310: 094e ecbd 1bcf e5bd 0c84 43bd 8ace 6dbd
00000320: 15a9 6bbc 2494 583e 847e 53be 2393 1a3e
00000330: 16a3 0fbe 9abf 7dbd baa3 a23e d7ac 853d
00000340: 928a 1cbe bffc 123e e9f0 41bc 0a2d d13d
00000350: 3b80 48be 5719 5f3e 306f b8ba c7c6 2c3e
00000360: 58c4 38bd de1f f3bb c7f7 5a3e 53e9 02be
00000370: 8197 59be d891 06bd 130c 61be f6b5 2a3e
00000380: 4662 74bd a64e 223e bf4c c9bd 1d91 c23d
00000390: 95e8 ad3d fc30 51be a99e 073e 9dad 453d
000003a0: d8a1 fbbc 32f2 f23d 6d61 1f3e e59e 04be
000003b0: 6a59 4a3e b30f bb3e a098 023e 56cd 153e
000003c0: 031f aabc bc2d e23d 90a1 103e 805c 543e
000003d0: b191 81bd 250c f23d a4b4 793e bf06 afbd
000003e0: 09fe 523e f627 153e 59c5 c1bd 4ef9 823e
000003f0: be38 0a3e b364 99bd 3f70 503e ecb2 0b3e
-0.116908595 0.36970735 -0.11926534 -0.11400517 0.14582938 -0.07677762 0.22188719 -0.024187146
0.15396741 -0.12693803 -0.034327336 0.2603689 0.24909201 0.103077985 -0.076264925 2.1560186e-07
0.11964183 -0.055779234 0.1332692 -0.12654822 0.14040904 0.17064631 -0.05185571 0.13016906
0.14766183 -0.08225913 -0.07008326 -0.18968247 -0.116267376 0.16854396 -0.04154255 0.13876775
-0.18073948 -0.1949289 0.00013791176 -0.1054118 0.32770428 -0.113277785 0.19646639 0.17004988
-0.0638563 0.22920665 0.112168886 -0.061861493 -0.048842095 -0.017259913 0.17130958 0.15542588
-0.046041418 0.115544155 -0.013167974 -0.11493813 0.2680791 -0.16190918 -0.08125975 0.0953465
0.14765933 -0.12399956 -2.6255324e-05 0.06538043 0.13054384 0.05024961 0.09888532 -0.21989699
-0.0176583 0.13518217 0.016602466 0.11361134 -0.19616602 -0.029764429 -0.07978786 -0.16125438
0.23049901 0.060770478 -0.14631645 0.15007131 -0.13393953 -0.1292548 -0.07212373 0.18536527
0.054113366 0.16634412 0.10914254 -0.14656624 0.23864108 0.108144104 -0.1592852 0.0009759412
-0.09369801 -0.17100757 0.24001996 0.16933277 -0.11504715 -0.13373135 -0.13731144 0.06936807
0.12233334 -0.06747262 0.116955236 -0.0015716198 0.09763173 0.27166602 -0.021144431 0.10452054
-0.20050918 0.13576476 0.1744003 -0.14612633 -0.09959399 0.080524914 0.0623293 -0.18204728
0.12890711 -0.17112972 -0.12054275 -0.00033621787 0.088915914 0.13482085 -0.15743142 0.20733976
0.16569284 -0.14055371 0.12847371 -0.07059847 -0.22395176 0.24975726 -0.16060433 -0.22748694
0.09517113 -0.08410114 -0.06572828 0.10604321 -0.08280396 -0.06291238 0.08134853 -0.15685077
-0.032115564 -0.027681 0.08103214 0.15041322 0.31222868 0.2267099 0.14142244 0.1621114
-0.09568775 -0.069205254 -0.06243129 0.20147046 -0.06287992 0.18275125 -0.058751807 0.15029821
0.116076216 -0.08653713 -0.16525653 0.14112061 0.14118476 0.23945676 0.038709056 -0.15881288
0.3019338 0.14953333 0.24543332 -0.08485416 -0.0984739 0.058415137 0.2052402 -0.07969769
0.18705851 0.10828207 0.12734205 -0.2253609 0.17545605 0.057974126 -0.060879994 -0.040051565
0.21766102 0.085705854 -0.29433542 0.061964713 -0.12044105 0.142979 0.107038565 -0.37710202
-0.25726834 0.17935331 0.13664454 0.14114437 -0.3223461 -0.1932382 -0.1322224 -0.057759967
-0.00010491995 -0.061590135 -0.083888285 -0.10212228 -0.115383215 -0.11221143 -0.04773335 -0.0580583
-0.014383574 0.21150261 -0.2065373 0.1509519 -0.14027056 -0.061950304 0.31765538 0.06527107
-0.15287235 0.14354227 -0.011837223 0.10213669 -0.19580166 0.2178701 -0.0014071222 0.16872703
-0.045109123 -0.0074195703 0.21383582 -0.12784319 -0.212492 -0.03285393 -0.21977262 0.16670975
-0.059664033 0.15850314 -0.09829091 0.095003344 0.08491627 -0.20428842 0.13244118 0.048261274
-0.030716822 0.11862601 0.15564509 -0.12951238 0.19760671 0.36535415 0.12753534 0.1462911
-0.02076674 0.110438794 0.14124131 0.20738411 -0.063266166 0.11818723 0.24385315 -0.085462086
0.20604719 0.14566025 -0.09461469 0.2558083 0.13498208 -0.0748991 0.20355318 0.13642472
