fixed_route_safe_slac/Safe_Slac_CARLA/logs/CarlaRlEnv-v0-run/slac-seed0-20241201-1119/models/step0/actor.pth (torch, 508276 bytes, 6 tensors)

net.0.weight f4 [256, 232]
000000 91 7e 27 3c 9a f4 30 3d ea 51 c6 bc d9 f3 30 3c
       0.010223047 0.04320202 -0.024208982 0.010800325
000010 80 8c 0a bb 1a 79 d9 3a 47 d8 3c 3c 1d 02 73 3c
       -0.0021140873 0.0016591877 0.011526174 0.014832047
000020 43 cb 0b 3c 8e 3c 14 bd 55 bf 62 3d 78 b9 12 bd
       0.008532348 -0.036190562 0.05535825 -0.035821408
000030 76 b0 d3 3c fa 3a e3 bc 94 3f 8c 3b 42 93 11 3b
       0.02584098 -0.027738083 0.00428004 0.0022213017
000040 4c 5c aa bc 97 fd 37 3d be 3f 57 3a d1 d8 bc 3c
       -0.020795964 0.044919576 0.00082110974 0.023052605
000050 4e c2 52 bd 97 7f 79 3d c4 3b ee 3c bc 73 0d 3d
       -0.051454835 0.060912695 0.029081233 0.0345342
000060 7a c8 d2 3c 85 1a 44 bc e1 bd 12 bd cf 86 61 3c
       0.02573036 -0.011969213 -0.035825614 0.013765051
000070 d8 a0 bc 3c c5 0c 00 3c 63 3c b0 3c c8 ec 0f 3b
       0.023025915 0.0078155445 0.02151317 0.00219612
000080 96 f6 7a 3e 20 5e 49 3e 05 50 14 3d 51 73 10 3c
       0.24508128 0.19664812 0.036209125 0.008816556
000090 9e 1e 95 bd 90 33 54 be 62 57 24 bd 4b 1b 07 be
       -0.072812304 -0.20722795 -0.040122397 -0.13194005
0000a0 52 26 27 be 37 3f 55 be a7 1e eb bd fb be 11 be
       -0.16323212 -0.20824896 -0.11480456 -0.1423301
0000b0 0b 9c e4 be a6 ad 97 3e 5e 6e 86 3e a0 b6 0a be
       -0.446503 0.2962467 0.26256078 -0.13546228
0000c0 95 a1 0c be 13 c2 87 bd 25 47 c0 3d 34 30 16 bd
       -0.13733514 -0.066288136 0.0938857 -0.036667064
0000d0 70 b0 98 3e 63 a3 c1 3c 49 35 51 be 7a aa 39 bc
       0.2982211 0.02363748 -0.20430483 -0.011332149
0000e0 c9 f0 09 bb 40 30 28 be 7a 66 71 bd 42 f2 c7 3d
       -0.002104806 -0.16424656 -0.05893562 0.09763004
0000f0 48 bc 80 be 3e b8 be bb 53 7a 8c 3e a6 ac cd bd
       -0.25143647 -0.005820303 0.27437076 -0.10042696
000100 83 ac 15 bd 5b 1e 06 bd 77 18 2a bd 75 1a 64 be
       -0.036541473 -0.032743793 -0.041527238 -0.22275718
000110 7e c1 0b bd 8b 67 20 be 67 2f 89 3e b8 08 dc 3c
       -0.034120075 -0.15664499 0.26793978 0.026859626
000120 14 a4 21 3f d3 b8 01 3e a0 46 64 be 16 38 aa bd
       0.6314099 0.12668161 -0.22292566 -0.08311479
000130 91 15 a8 3e 08 ba 3c 3e e8 11 d3 bd f1 bc c2 3d
       0.32828954 0.1843034 -0.1030615 0.09508694
000140 66 2c a3 bb ee 55 04 3d f5 3b c5 3d e8 e6 7c 3d
       -0.004979658 0.03230851 0.096305765 0.061743647
000150 e5 25 cc bd 9b c7 52 bd 9c 73 47 3e 4e 46 91 3d
       -0.09968165 -0.05145989 0.19477695 0.07093488
000160 df d9 2f 3d 10 22 4f bd ce a5 4d 3d 65 5f dd bd
       0.042932387 -0.050569594 0.05020695 -0.10809211
000170 ea e6 f7 3d 30 61 10 bd 1f 97 78 3d 13 8b b9 3d
       0.1210459 -0.035248935 0.060690995 0.090597294
000180 20 40 11 3d 39 17 3f be 32 56 9e 3d d9 94 c9 bd
       0.035461545 -0.18661202 0.07731284 -0.098428436
000190 2c 55 b0 3d fc 93 32 3e e3 4e e7 bd 8b 6f d5 3d
       0.08609995 0.17439264 -0.11294343 0.10421666
0001a0 1d 90 11 be 66 60 37 3e f4 0b 39 be 5f 0a a8 3d
       -0.14215131 0.17907867 -0.18070966 0.08205103
0001b0 ad 7e a3 be a3 bc a7 bd 97 81 86 be 1f 8a ce 3d
       -0.31932583 -0.081902765 -0.26270744 0.10084938
0001c0 31 62 c6 bd 24 f5 f4 3d e2 4a bb bd 29 97 c8 bc
       -0.09686697 0.11960819 -0.09145142 -0.024486141
0001d0 07 94 dd bd 7a 71 ae bd c4 a2 58 3c 3e 4e 7e 3d
       -0.108192496 -0.08517738 0.0132224 0.062086336
0001e0 3f 38 1f bd 00 7c dd 3c 2e 41 ad bd 62 e7 0b be
       -0.038872 0.027036667 -0.08459698 -0.13662484
0001f0 7a 82 78 bd 12 00 5a bb a1 3c bc bc 70 f6 d6 3c
       -0.060671307 -0.0033264202 -0.022978129 0.026240557
000200 ed 95 1c be 13 ae 87 bd 58 01 d3 3d 86 85 c3 be
       -0.15291567 -0.06624999 0.10302991 -0.38187808
000210 7a 16 de 3d f7 95 b9 be a0 fb 7a 3c 04 ac 00 be
       0.10844131 -0.36247227 0.015318781 -0.12565619
000220 fb 24 ad 3d b0 94 34 3e 09 99 1e be 1c cb 86 be
       0.08454319 0.17634845 -0.15488066 -0.26326835
000230 cb cd 5c be 00 72 80 3e 94 92 2c be 21 0b af bd
       -0.21562879 0.25086975 -0.1685279 -0.085470445
000240 ee cd 3c 3e c2 b5 9a 3d c0 36 66 3d 05 8c 90 3e
       0.18437931 0.07554199 0.056204557 0.28231826
000250 a7 43 a2 bd 1c cd 9f bc 08 47 37 3e 99 af 96 bd
       -0.0792306 -0.019506983 0.1789819 -0.07357711
000260 84 fd ae be f9 4f 03 3d a8 f6 5b 3e 19 cb 94 bd
       -0.34177792 0.03205869 0.2148081 -0.072653
000270 be 4b 4e ba 92 c3 1c be 50 6a 97 3e 07 67 4f 3e
       -0.0007869563 -0.15308979 0.29573298 0.20254146
000280 1d 05 5d bc 22 4a 3e be 7c 35 21 3e d9 24 b7 be
       -0.013489989 -0.18582967 0.15743059 -0.357703
000290 46 31 0b be cb b3 29 bc fc a2 0f be 4a cb 0f 3f
       -0.13593015 -0.010357807 -0.14027017 0.5616957
0002a0 93 af 67 3e 9b 64 11 3e 9c 22 78 3c 53 43 66 3e
       0.2262557 0.14198534 0.01514497 0.2248662
0002b0 17 25 e4 3d 16 c3 8a be d1 7a 86 3d 06 7b ec 3d
       0.11139887 -0.27101964 0.06566394 0.11546902
0002c0 7a 58 25 3e 87 d8 c4 3e 57 81 8b bd 3b 44 ce 3d
       0.16147032 0.38446447 -0.06811779 0.10071608
0002d0 f9 00 67 bc fa b5 f9 bc cb 0a 53 be 64 49 a0 be
       -0.014099353 -0.030482281 -0.20609586 -0.31305993
0002e0 5f 3e c7 3e b0 ab 42 3c 61 a8 d2 bb cd 57 f4 3c
       0.38914773 0.011881754 -0.0064287637 0.029827023
0002f0 aa 96 8c 3d 87 40 3d 3e 54 a4 da bc fb fb 8c 3d
       0.068646744 0.18481646 -0.026689686 0.06883999
000300 a0 81 4f be 51 70 d5 bd 9b 2e 0f bf 95 b0 8e be
       -0.20264292 -0.10421813 -0.5593049 -0.27869096
000310 5c 8e b2 be 14 a6 96 be 22 d4 54 3e 38 db 86 be
       -0.34874237 -0.29423583 0.20784047 -0.26339126
000320 42 9b 84 bc 5c 68 ae be fd cf af bd c1 3e fa 3d
       -0.016187314 -0.34063995 -0.085845925 0.122190006
000330 df 2a 2f be e1 c6 be 3c 89 07 b9 3d 4b 28 4e 3b
       -0.17106198 0.023288192 0.0903464 0.0031457122
000340 86 7b 72 3e 6a 75 50 bd 94 85 92 3b fc fc 18 bd
       0.23679933 -0.050893225 0.00447149 -0.03735064
000350 86 47 82 3c de ce ab be 7b 86 79 be cc 2a ca bc
       0.015903246 -0.33556265 -0.24367706 -0.02467861
000360 63 c8 5f 3e b3 4c b8 3e 39 3a 5a 3b b5 9b 0f 3e
       0.21853785 0.35996017 0.0033298864 0.14024241
000370 54 8d 39 3e 45 9b 44 be 07 58 0c 3d 61 63 96 3e
       0.18120319 -0.19199856 0.034263637 0.29372695
000380 71 29 9f bd 29 58 a8 3e 98 8a 1b bd 4e b6 13 3f
       -0.07771576 0.3287976 -0.03797397 0.5770005
000390 6b 0b 87 be 33 82 cf 3e 4e 59 0b bc fe b9 b1 3d
       -0.263759 0.40529022 -0.008505179 0.08678053
0003a0 5a b0 d9 3c dc ae 4b 3c ad 9a 29 3d f1 b9 12 3c
       0.026573349 0.012431826 0.041407276 0.008955465
0003b0 92 47 fb bc 5c d6 07 3c c7 9a 2c bc e7 57 b0 3c
       -0.030673776 0.008290853 -0.010534949 0.02152629
0003c0 d4 8b 57 be 76 d5 62 3d 99 ca 53 3a 19 22 bf 3c
       -0.21049434 0.055379353 0.00080792006 0.023331689
0003d0 55 6c 46 bc b9 bf fc bc 4c cb 42 bd 85 b9 10 bc
       -0.012110789 -0.03085314 -0.04755716 -0.008833294
0003e0 1c 5d 6b 3c ce 0d 3f 3d 71 2c a9 bc f1 ef 8d bd
       0.014365461 0.046644025 -0.020651074 -0.06930531
0003f0 96 74 3e 3c f2 a8 49 bd 11 a2 27 ba bd 37 4b 3d
       0.011624476 -0.049233384 -0.0006394694 0.049613703

net.0.bias f4 [256]
000000 81 2c 84 bd 4e 58 a4 be 44 db 83 bf d4 54 76 be
       -0.06453801 -0.3209862 -1.030129 -0.24055797
000010 55 2d c5 be 43 5b 45 be b1 06 3a be 3b 2e 48 be
       -0.38511148 -0.19273095 -0.18166615 -0.19548886
000020 f6 3f 06 bf 0c 4c c4 be bd fb e9 bd a7 26 e2 be
       -0.52441347 -0.3833927 -0.114249684 -0.44170114
000030 d7 d9 a7 be 20 03 82 be 9a 1a 7c be 4f 07 6b bd
       -0.32783386 -0.2539301 -0.24619523 -0.057380017
000040 d9 8d c4 be 8e 44 e6 bd 73 9e fd bd f7 04 86 be
       -0.3838947 -0.112435445 -0.123837374 -0.26175663
000050 c0 20 95 be 8a 60 3a be 4c 3c b2 be de 0e 4d be
       -0.2912655 -0.18200889 -0.34811628 -0.20025203
000060 e0 92 9d bc 48 59 80 be ee 77 68 be 49 ae 12 be
       -0.019235075 -0.25068116 -0.22702 -0.14324297
000070 54 30 30 be 33 b2 c6 bd 35 fa 92 be 00 2e 4b be
       -0.17205936 -0.097019576 -0.28706518 -0.19841766
000080 00 b8 a0 be f7 97 01 bf 7a b0 b7 be 5f e2 a3 bd
       -0.3139038 -0.50622505 -0.35876828 -0.08002161
000090 b3 02 32 be db 1d bb be da 5a e4 be 01 d8 ff be
       -0.17383842 -0.36546215 -0.44600564 -0.49969485
0000a0 21 fd e0 be 1e 92 25 3d c0 82 69 be 74 e9 e0 be
       -0.43943122 0.04042255 -0.22803783 -0.4392811
0000b0 a5 1c 35 bd 3f 87 b0 be 5e 12 ca be fb 16 a9 be
       -0.04421677 -0.34478185 -0.39467138 -0.33025345
0000c0 6f 31 c7 be 99 9a 50 bd 9a 6f b3 bd ad 8f 83 be
       -0.38904902 -0.050928686 -0.08761521 -0.25695553
0000d0 6d d7 73 be 63 46 d0 be e1 43 a3 be 73 84 0b be
       -0.23812647 -0.406787 -0.31887725 -0.13624744
0000e0 78 90 db be 3e 60 06 be f8 35 2c 3b 41 76 ee be
       -0.42883658 -0.13122651 0.0026277285 -0.46574596
0000f0 97 48 c4 be b0 73 2b be dc f3 24 be f4 e1 04 be
       -0.38336632 -0.1674335 -0.1610865 -0.1297682
000100 9a ab 94 be 09 96 87 be 17 83 8b be 0e f1 86 be
       -0.29037172 -0.26481655 -0.2724845 -0.26355785
000110 56 95 1d be 25 2e 84 be ed c8 a6 be d5 f2 9f be
       -0.15388998 -0.25816455 -0.3257517 -0.31239954
000120 b8 4a 69 be b7 e6 92 be 30 93 41 be 2c 1a 8b be
       -0.22782409 -0.28691646 -0.18903804 -0.27168405
000130 21 75 a8 be 92 2f 51 be 97 cb 17 be 84 59 0a be
       -0.32901862 -0.20428303 -0.14823757 -0.1351071
000140 55 9f 27 be 09 3e 88 be db b4 9f be 17 57 28 be
       -0.16369374 -0.2660983 -0.3119267 -0.16439472
000150 cd de ad be 10 78 48 be a8 c6 65 be d0 8e 05 bf
       -0.33959046 -0.1957705 -0.22439063 -0.5217104
000160 8a 15 be be 33 ee 06 be bb f3 2d bf d9 21 68 be
       -0.37125808 -0.13176803 -0.6795003 -0.22669162
000170 fb 59 24 be 6e 64 86 be cd ea 1f be c7 31 98 be
       -0.1604995 -0.26248497 -0.15616913 -0.29725477
000180 c4 c0 35 be ea 93 7e be ba 2a eb bd d4 5d f4 be
       -0.17749316 -0.24861112 -0.11482759 -0.47727835
000190 81 db 77 be 3a ba c5 be 68 ab 65 be 01 0f ac be
       -0.24204828 -0.38618642 -0.22428668 -0.33605197
0001a0 39 8e 06 be 39 2f a7 be c3 4d cb be 38 e2 39 bd
       -0.13140191 -0.32653216 -0.39707765 -0.045381755
0001b0 cf 63 ac be 72 57 3e be 24 45 7d be 85 6c 8a be
       -0.33669898 -0.18588045 -0.24733406 -0.2703592
0001c0 d8 bf 3e be 2b 0e be be 7d c6 71 be 2f b4 f0 be
       -0.1862787 -0.37120184 -0.23610874 -0.4701247
0001d0 3f e1 a4 be 5d 5f e3 bc b5 27 d7 be c9 f7 9d be
       -0.322031 -0.027755434 -0.42022482 -0.30853108
0001e0 2c 69 98 be 5b 01 a1 be 08 99 ae be 21 29 08 bf
       -0.2976774 -0.31446347 -0.3410113 -0.5318776
0001f0 b5 0e b6 be bf ac 7b be ea 8a 36 be fd 4c cf be
       -0.35558096 -0.24577616 -0.17826429 -0.40488425
000200 7a 55 be be 47 a2 81 be 5f 41 48 be cb 3d 1d be
       -0.37174588 -0.2531912 -0.19556187 -0.15355603
000210 eb 01 2c be a2 e0 cf be 43 19 07 bf 6a 46 e5 be
       -0.16797607 -0.4060107 -0.5277292 -0.44780284
000220 af af b7 be 6d da 62 be df ed e9 be e0 a2 13 be
       -0.35876223 -0.22153635 -0.45689294 -0.144176
000230 7e ed d8 be 28 5a 78 be a7 d5 54 be 19 f9 97 be
       -0.42368692 -0.24253142 -0.20784627 -0.29682234
000240 f9 57 9d be a3 b7 f3 be c9 56 34 bd 0d ca 96 be
       -0.3073118 -0.4760104 -0.044028077 -0.29451028
000250 84 b4 7b be 44 e7 71 be e6 18 a9 be 22 63 05 bf
       -0.2458058 -0.23623377 -0.33026809 -0.5210439
000260 59 81 e7 bd cc 6f b2 be 7e 7c 49 be 98 8e 9a be
       -0.11303968 -0.3485092 -0.19676396 -0.30186915
000270 19 f8 46 be 5a 40 4e be 2b 2a b2 be 0f 33 73 be
       -0.19430579 -0.20141736 -0.34797797 -0.23749946
000280 4b b3 16 be 7c ff 60 be 75 02 9d be a2 3e 48 be
       -0.14716832 -0.2197246 -0.30665937 -0.19555143
000290 5f 72 82 be a2 a4 ab be 5f 84 bd be 7c 29 86 be
       -0.25477883 -0.33524042 -0.37015054 -0.26203525
0002a0 21 3c bb be ad 7e 89 be 9b 54 0f be eb 1b 92 be
       -0.36569312 -0.26854458 -0.13997118 -0.28536925
0002b0 10 6d 63 be c5 68 60 be e6 ac fc be 9e 54 c7 be
       -0.22209573 -0.21914966 -0.4935066 -0.38931745
0002c0 26 0a 8f be 5a 55 09 bf c9 c7 c9 be 85 26 c5 be
       -0.2793743 -0.5364586 -0.39410236 -0.3850595
0002d0 b9 df 96 be 37 d2 38 be 13 7f a1 be 8c bf d2 be
       -0.29467562 -0.1804894 -0.31542262 -0.41161764
0002e0 8b 7d ab be 5d b2 05 be 6e da c3 be 35 87 d0 be
       -0.3349422 -0.13056321 -0.38252586 -0.40728155
0002f0 1f 09 43 be 2d 0a 23 bf a7 d9 66 be 06 74 58 be
       -0.19046448 -0.636874 -0.22543965 -0.2113801
000300 59 f0 d6 be 94 de f9 be ad 02 d1 be 51 2f 4d be
       -0.41980246 -0.48802626 -0.40822354 -0.20037581
000310 59 e3 41 be cc 9f a7 be c0 ab 69 be 99 ee 8d bd
       -0.18934382 -0.32739103 -0.22819424 -0.069302745
000320 5d 7f 9f be 8d 7b 31 be cf 20 a9 be 5c 6b 58 be
       -0.31151858 -0.17332287 -0.33032843 -0.21134704
000330 b1 2f e4 be ce d3 e1 bd bf ff 61 be 10 79 84 be
       -0.44567636 -0.11026727 -0.22070216 -0.25873613
000340 38 18 85 be 18 36 25 be b5 b3 2f be 99 03 45 be
       -0.2599504 -0.16133916 -0.17158397 -0.19239654
000350 80 3a 07 bf a1 f2 84 be 2f a6 8c be 05 0c 9f be
       -0.5282364 -0.2596636 -0.27470538 -0.31063858
000360 10 1a d3 be 1b d5 53 be 6a 42 1a be 12 67 2f be
       -0.41230822 -0.20686762 -0.15064397 -0.17129162
000370 9a 44 7d be 3f 4f 67 be fb 28 31 be 7d 21 b9 be
       -0.247332 -0.22588824 -0.17300789 -0.36158362
000380 c4 4a 68 bd 79 86 7d be 81 ca 5f be 36 6c ae be
       -0.056711927 -0.24758328 -0.21854593 -0.34066933
000390 5e e1 75 bd 35 9a 97 be 64 7f 72 be 60 01 7e be
       -0.06002938 -0.29609838 -0.23681408 -0.24805212
0003a0 2d 97 59 be ad 80 17 be e1 cc 24 be 07 83 36 be
       -0.21249075 -0.1479518 -0.1609378 -0.1782342
0003b0 e6 a6 78 be 8c a9 29 be b1 23 81 be f7 af 28 bf
       -0.24282417 -0.16568583 -0.25222543 -0.658935
0003c0 99 14 59 be 30 c5 10 bf e7 b3 16 bf 09 29 84 be
       -0.21199264 -0.56550884 -0.5886826 -0.25812557
0003d0 87 99 8c be bd 6b 01 3d b6 be b8 be ef f5 a5 be
       -0.27460882 0.031596888 -0.36083 -0.32414195
0003e0 4c 8c 43 be 14 2b ff be 6c c1 4f bf 05 67 cf be
       -0.19096488 -0.49837554 -0.81154513 -0.40508285
0003f0 23 fc 8b be 47 24 cc be d0 cc 16 be b8 be 41 be
       -0.27340803 -0.39871427 -0.14726567 -0.1892041

net.2.weight f4 [256, 256]
000000 9a d4 70 bd f8 5b 9d 3d 36 15 a0 3e 52 3b 95 3e
       -0.058796503 0.07683557 0.31266183 0.2914682
000010 10 75 96 be 78 44 a4 3e 30 68 5f be 59 bd a5 3e
       -0.29386187 0.32083488 -0.21817088 0.32371023
000020 5a 06 65 be 81 2a d0 bd 4d a9 ae be 07 aa cb 3d
       -0.22365704 -0.10164357 -0.3411354 0.099445395
000030 e7 83 a1 3e e5 ae 1e 3e 6e 4e c4 3d 67 f5 51 be
       0.31545946 0.15496404 0.09585272 -0.2050377
000040 29 c0 3e be 45 bc 0b 3e c2 de a6 be 3c f4 53 be
       -0.18627991 0.13646038 -0.32591826 -0.20698637
000050 04 99 a2 be 9d 12 11 be 5b 66 97 bd 94 b0 db bd
       -0.31757367 -0.14167257 -0.0739257 -0.10727039
000060 37 8e a2 bd 47 d1 03 be f4 8c 99 bc a1 26 ff bd
       -0.079372816 -0.12872802 -0.01874397 -0.1245854
000070 28 8f 3c be 3e a0 8c be 9a e9 d9 bd db 2a 99 3c
       -0.18413985 -0.27466005 -0.10640259 0.018697193
000080 ef 9e e9 3d 39 9d 4d 3b 2f 17 12 bc 0a cb cd bc
       0.11407267 0.003137423 -0.00891666 -0.02512123
000090 a9 27 f3 3c 0b d5 8c 3e 6b 1e ab bd 79 60 e6 3b
       0.029681997 0.2750629 -0.08355411 0.0070305434
0000a0 75 a8 c1 3c 59 36 20 be b0 49 3a 3d 75 f3 60 3d
       0.023639897 -0.15645732 0.04548043 0.05491968
0000b0 a3 c6 a7 bd bc 4f c8 bd 5f 43 a1 3d a9 d0 c5 3d
       -0.08192184 -0.09780833 0.07874178 0.096589394
0000c0 1b f8 a0 3e 64 35 9d bd 31 5f 6b bd 09 cf a9 bd
       0.3143929 -0.07676199 -0.05746383 -0.08291442
0000d0 a8 e8 ab bd d6 98 cb 3d 58 c6 1c 3e 53 ed ad 3d
       -0.08393985 0.099412605 0.15310037 0.084925316
0000e0 3b b3 7e bd c6 e7 4d bd 7a 9e 87 bd 20 05 3a be
       -0.062182646 -0.050269864 -0.06622024 -0.18166018
0000f0 4e dd 06 be fd 56 e9 3c 3e 00 0f 3d 00 fe 2a be
       -0.13170359 0.028483862 0.03491234 -0.16698456
000100 60 71 9d bd 74 f9 08 be 4d c6 7d bd 27 3f c2 3c
       -0.0768764 -0.13376409 -0.061956692 0.023711754
000110 cc 97 d8 bd 8a b4 40 be 6c 21 51 3e 3a 1d 2b be
       -0.10575828 -0.1881887 0.20422906 -0.16710368
000120 79 3d 9a be 73 22 e1 3d 53 2c 18 3e 97 fa cb be
       -0.30125025 0.10992899 0.14860658 -0.39839622
000130 a3 17 0b 3c b5 2f 04 bc d9 8a a0 3d d1 29 36 3b
       0.008489522 -0.008068015 0.07838983 0.002779592
000140 91 85 59 3d f7 7d 4d 3d 3e 4f 21 3e 9f fc 3d bc
       0.053105894 0.050168958 0.15752885 -0.011595874
000150 9d 46 c2 bd ab ee 85 be 91 24 0f bc 42 46 27 3e
       -0.09486125 -0.26158652 -0.008736745 0.16335395
000160 65 e8 8f bd 43 3b 14 be 89 2a 65 3e 89 a0 15 be
       -0.070267476 -0.14475732 0.22379507 -0.1461202
000170 2e 5a 01 be b5 00 02 be 7b 40 bc 3e 8d b2 5b 3e
       -0.12632057 -0.12695582 0.36767945 0.2145483
000180 a4 84 f4 3d 52 f3 bc 3e da 02 a0 bd 1d 16 65 3e
       0.11939362 0.3690439 -0.07813044 0.22371717
000190 b7 0d ba be b8 e3 1a 3e 76 8a ed bd 5d 0b 0f 3e
       -0.3633859 0.1512593 -0.11598675 0.13969178
0001a0 ff ae 1d 3e 20 4e bc bd 07 25 c1 3d 71 ae da bd
       0.15398787 -0.09194589 0.094308905 -0.10677803
0001b0 c8 32 a0 3e 92 bd 6d be cf 86 89 be 85 64 3c bd
       0.31288743 -0.23216847 -0.26860663 -0.0459943
0001c0 4d eb 6e bd ce dc 3a bd d7 37 5a be 1f 24 db bd
       -0.05832987 -0.045620732 -0.21310364 -0.10700249
0001d0 1c 8b e8 3e f3 69 c1 bd 72 41 85 bc 24 f5 a3 be
       0.45418632 -0.09444036 -0.016266558 -0.32022965
0001e0 e6 e3 91 be 67 82 d3 be 4b 83 55 3e f7 75 35 3e
       -0.28494185 -0.41310427 0.20850866 0.17720781
0001f0 af 5b 2c bd 24 c4 7b bd 48 89 aa be 8a 14 89 3b
       -0.042079624 -0.06146635 -0.33307862 0.0041833567
000200 de 72 70 3d 08 eb 37 bb f4 75 e6 3c 81 66 92 ba
       0.058703296 -0.0028063674 0.028132416 -0.0011169465
000210 10 5d 85 bd a2 da 51 be ae d9 7f be b9 b9 9d 3e
       -0.06511891 -0.20493558 -0.24985382 0.30805758
000220 9b 70 b2 3b 36 07 f7 3d 22 08 06 be cf f0 6a be
       0.0054455525 0.12061922 -0.1308904 -0.22943424
000230 ae fd 4b be 93 b1 71 bc 16 36 af bc 4e f6 d9 bd
       -0.1992099 -0.01475181 -0.021388095 -0.10642682
000240 22 9a ee 3d 8d 76 c8 bc 94 7b 9c be e9 63 4b be
       0.11650492 -0.024470592 -0.30563033 -0.19862331
000250 ec 68 87 3e 6e f8 09 bd 8c 32 20 be 5d b7 d3 3d
       0.26447237 -0.033684187 -0.15644282 0.10337708
000260 44 d7 e8 bc 16 c6 ae 3e d2 52 e3 bc bd ce 20 be
       -0.02842296 0.34135503 -0.027749453 -0.15703864
000270 63 20 ec bc cd c8 57 be e7 43 9e 3d d7 97 3f 3e
       -0.028824037 -0.21072693 0.07727795 0.18710266
000280 4c a9 1f be c3 ac 98 3e b0 6b 8c bc 4b ea e8 3d
       -0.15591925 0.29819307 -0.017141193 0.11372813
000290 12 db c5 bc 25 03 71 3e 13 76 b2 3d 3f 35 d6 bd
       -0.024152312 0.23536356 0.08713927 -0.10459375
0002a0 fd 34 cd 3d fd 4b 03 3d ec c8 84 be b2 c1 09 be
       0.10019872 0.03205489 -0.2593454 -0.13452795
0002b0 96 4f f4 3d c0 35 5b be 0a a5 00 3e 54 c8 30 3d
       0.11929242 -0.21407223 0.12562957 0.043159798
0002c0 78 f9 b4 3b ed 51 a1 be 37 2b 66 bd ed a2 e6 bd
       0.005522903 -0.31507817 -0.056193557 -0.112615444
0002d0 c8 4f 06 be b2 ae 3d 3e d9 1b 0b bb 97 69 cb 3d
       -0.13116372 0.18523672 -0.0021226315 0.09932249
0002e0 11 3d d2 bd 89 de 18 be b5 b1 cf 3e da 11 6f be
       -0.10265554 -0.1492864 0.40565267 -0.23346654
0002f0 49 0d d2 3d cf aa 69 3e 26 3a bf bd 4b 4c 9f bd
       0.1025644 0.22819065 -0.09337263 -0.077782236
000300 60 40 60 be 58 4e f1 3a 63 a7 a6 be 3d 00 f6 bd
       -0.21899557 0.0018410189 -0.3254958 -0.12011764
000310 d0 b8 6e bd 69 cf 13 3e 96 e5 13 be 5c f5 83 bc
       -0.05828172 0.1443459 -0.14443049 -0.016108207
000320 c8 a5 16 be d6 35 53 3e eb f1 d3 3c c8 7a 57 3e
       -0.14711678 0.20626006 0.025872191 0.21042931
000330 a3 9b 8d be d6 37 28 3c e4 8d 23 be 41 34 fc bd
       -0.27657804 0.010267219 -0.15972096 -0.12314654
000340 85 15 b4 3d 10 60 3b bd ac e7 0d bd 2d 20 1a 3d
       0.08793167 -0.04574591 -0.034644768 0.03762834
000350 9b fb 99 3e c6 11 cf 3d e8 fc 5e 3d cb e0 92 3e
       0.30074772 0.10110812 0.05444041 0.28687128
000360 81 c9 0e bb d9 45 90 3e ac 92 2e be 0f d4 55 3e
       -0.0021787586 0.2817829 -0.17048138 0.20881675
000370 3a 44 bc bd 29 70 c8 3d 75 cb 21 be a5 1d 63 be
       -0.09192701 0.09787018 -0.15800269 -0.22179277
000380 a0 25 25 be 8f 9b 41 be 4c 18 bc be a5 d9 91 3e
       -0.16127634 -0.18906997 -0.36737287 0.28486362
000390 bc 3d 3e be d7 35 2d 3e 6f 56 fe bd e8 87 47 be
       -0.18578237 0.1691507 -0.1241883 -0.19485438
0003a0 1e c8 61 bb 98 d1 b6 bd 0c 52 5a be af 00 86 3e
       -0.0034451555 -0.089266956 -0.21320361 0.26172397
0003b0 c1 47 f7 bd 1e 9a 89 3e 33 0e 9e 3e 13 bf 14 3e
       -0.12074233 0.26875395 0.30870208 0.14526014
0003c0 1d 81 5f be 7b 3c b0 3e eb dc cd bd f2 62 2f be
       -0.21826597 0.34421143 -0.100519024 -0.17127588
0003d0 6b e8 b1 be e7 5c 28 be 49 21 a1 3e 15 75 55 be
       -0.34747633 -0.1644169 0.31470707 -0.20845445
0003e0 26 84 fc 3d 3a 2e 38 3d 9a 07 d3 3e 9e 8a 36 3e
       0.12329893 0.04496596 0.41216737 0.17826316
0003f0 04 03 05 3c 2f d3 06 3e 8c 1d 85 be 25 76 f1 3d
       0.008118395 0.13166498 -0.25999105 0.117901124

net.2.bias f4 [256]
000000 6d 98 84 be b3 6e 5c bd 0a fe 32 be 92 37 e1 be
       -0.25897542 -0.05381651 -0.1747972 -0.4398771
000010 f0 63 a4 39 95 61 00 bf e6 13 8f be 90 f9 4d be
       0.00031354977 -0.501489 -0.2794487 -0.20114732
000020 5e 5c 0f 3d 11 e2 b8 bd df ca 11 be 3e b8 9d be
       0.035000198 -0.09027494 -0.14237545 -0.30804628
000030 9b 8f ab be 81 e1 7f be 83 30 a3 bd 8d 62 5c be
       -0.33508 -0.24988367 -0.07968237 -0.21521969
000040 26 e0 24 be 17 0a d7 3d f5 85 61 3e 8e ae b7 bf
       -0.16101131 0.10499971 0.22023757 -1.4350145
000050 6c 6a af be 0c a5 56 3c 3f e6 6c be 1a eb 84 bd
       -0.3426088 0.013100874 -0.23134707 -0.064901546
000060 cc 73 24 bf 52 51 bc be 4a d8 9e be ff f3 c0 be
       -0.6423919 -0.36780792 -0.3102439 -0.37686154
000070 41 dc 6c be 1b fb 01 bf d3 0e d9 3c 79 8c 73 be
       -0.23130895 -0.5077378 0.026496327 -0.23784055
000080 37 25 eb be f9 0d 71 be f9 20 47 bc 81 d4 df bc
       -0.4592683 -0.23540486 -0.012153857 -0.02732301
000090 63 ee 0a be be fc 3a be d3 53 a5 3e 61 d3 4a 3b
       -0.135675 -0.18260476 0.32290515 0.0030948746
0000a0 1f 9b a5 be f7 01 f6 3e 29 9b 98 be 25 50 e8 be
       -0.3234491 0.48048374 -0.29805878 -0.45373645
0000b0 f9 f1 c7 be 5f c7 a7 bd df fb 83 be 10 0a d8 bd
       -0.39051798 -0.08192324 -0.257781 -0.10548794
0000c0 f0 31 f2 be 90 87 ec 3c 75 c2 81 3d 38 f8 2d be
       -0.47303724 0.028873235 0.06335918 -0.16989219
0000d0 38 27 8a 3d a3 52 15 be 52 36 d9 bd aa 75 f1 bd
       0.06745762 -0.14582305 -0.10606064 -0.11790021
0000e0 65 4b cf 3d 11 ff 1b bd 3f 58 8b 3d 88 19 1a be
       0.10121802 -0.038085047 0.06803941 -0.15048802
0000f0 d5 d5 8a be 0b 05 90 be f0 30 57 be ba dd cd bd
       -0.27116266 -0.28128847 -0.21014762 -0.100520566
000100 6a 0c 36 bd 88 ce e5 3d a2 0b 17 bc f3 c7 88 be
       -0.044445433 0.11221033 -0.009219082 -0.2671505
000110 87 3b fd be 73 ad e8 bd fb cb 9c be 44 83 77 be
       -0.49459478 -0.11361208 -0.30624375 -0.24171168
000120 cc d3 3c be 14 ed 8d be 47 73 4b bf d3 32 09 bf
       -0.18440169 -0.2771994 -0.79472774 -0.53593177
000130 d9 e7 30 bf 09 3e bb 3d a5 e0 12 be 24 78 6b be
       -0.6910377 0.09142692 -0.14343508 -0.22995049
000140 b9 b2 29 bf a9 ca bc be 8e 0d 87 be 73 1c 87 be
       -0.66288334 -0.36873367 -0.2637753 -0.26388893
000150 f1 0b a2 3c 0b d5 c5 3b b6 0c ca 3d 07 a6 5e be
       0.019781085 0.0060373596 0.09865706 -0.21743022
000160 07 23 93 be 90 34 91 be f1 de ab 3d 68 ec 0d be
       -0.2873766 -0.28360415 0.08392132 -0.13859713
000170 03 21 ee bd 9d 3d fd be 31 c0 3c bf c4 b6 01 bf
       -0.1162739 -0.4946107 -0.7373076 -0.50669503
000180 20 55 92 be 30 d2 a7 be a4 48 bf be 54 8b 95 be
       -0.2858057 -0.32777548 -0.37360108 -0.2920786
000190 e5 64 37 bf e6 ad 20 be 30 82 fe be 35 de 25 be
       -0.7163833 -0.15691337 -0.497087 -0.16198047
0001a0 6a 6e 98 3b 92 78 b0 be 2f de e1 be 1e a7 07 bf
       0.0046518343 -0.34466988 -0.44114825 -0.52989376
0001b0 bd 48 54 be ee 80 d5 bd 42 3c 4e be 1d d2 b7 3e
       -0.20730872 -0.10424982 -0.20140174 0.3590249
0001c0 11 e5 64 bd f6 69 2e bf d6 f7 37 be 7f d1 3f 3c
       -0.055882517 -0.68130434 -0.17965636 0.011707663
0001d0 70 d9 69 be 6d de c8 be bb d3 fd be 38 53 10 bf
       -0.22836852 -0.39232197 -0.495756 -0.5637698
0001e0 d0 2b c8 be 5e 84 31 bf f4 8b d3 be 9e 0e 9d bf
       -0.39095926 -0.693426 -0.41317713 -1.2270086
0001f0 32 bb 5b bf df 81 a7 bf a6 74 18 be 9c 3e e8 3d
       -0.8583251 -1.3086509 -0.14888248 0.11340067
000200 de 70 42 be d9 0f 45 be 17 66 81 bf e6 b2 88 be
       -0.18988368 -0.19244327 -1.010928 -0.2669899
000210 f4 83 27 bd 63 d8 92 be c0 6a b8 be d7 90 b5 bb
       -0.040897325 -0.28680715 -0.36018944 -0.005540948
000220 30 b5 a8 3e 89 8d 6f be 71 b7 95 be fb 19 71 be
       0.32950735 -0.23393835 -0.29241517 -0.23545067
000230 61 21 ee be ac 81 89 be 3d f2 56 be a0 a3 a2 be
       -0.4650984 -0.26856744 -0.20990844 -0.3176546
000240 eb 0a dd bd 6d 38 e1 be 05 0b 05 be 46 44 9f be
       -0.10793098 -0.43988362 -0.12992485 -0.31106776
000250 f2 07 ba be 28 74 22 bf f5 f0 4b be 6e 2d a4 be
       -0.36334187 -0.6345849 -0.19916137 -0.3206591
000260 df 0f 7d be e4 89 bd bb b2 6c 62 be 08 55 a8 be
       -0.24713086 -0.00578426 -0.22111776 -0.32877374
000270 c5 8d c8 be 2a 5b 7c be 3e 24 32 be 20 3d f3 bd
       -0.39170662 -0.24644151 -0.17396638 -0.11876893
000280 00 11 84 be fb 97 d6 bd 2b 95 1e be 07 63 02 be
       -0.2579422 -0.10478207 -0.1548659 -0.12733088
000290 19 78 04 bf d2 bc 36 be 36 9f 9d bc 72 07 02 be
       -0.51745754 -0.17845467 -0.019240957 -0.12698153
0002a0 d5 75 fd be a4 0a 9d be 26 22 3d bf 7b bf 07 be
       -0.4950396 -0.3067218 -0.7388023 -0.13256638
0002b0 5c ea 66 be 81 9f 46 bf b8 1f 1e be 9a c6 8e be
       -0.22550339 -0.77587134 -0.15441787 -0.27885896
0002c0 53 5e 78 be 07 95 be be b8 d9 37 be ca 53 07 be
       -0.24254732 -0.37223074 -0.17954147 -0.13215557
0002d0 66 62 c8 3c 04 3f fb be a6 2d c0 bd f4 47 88 bd
       0.024460983 -0.49071515 -0.09383707 -0.06654349
0002e0 43 bd 8f be c3 51 41 be b8 7f ce be cc 71 28 bf
       -0.28074083 -0.18878846 -0.40331817 -0.6579864
0002f0 97 21 a3 bd 99 8b 46 bf 1c 81 2a bf 11 36 a8 be
       -0.07965391 -0.7755676 -0.66603255 -0.3285375
000300 6b dc 7f be 1e 51 c4 be a2 c9 08 be 97 fb a7 bc
       -0.24986427 -0.38343138 -0.13358167 -0.02050571
000310 a1 40 7f 3b 2b b2 da 3d 92 56 62 be e9 8d d3 be
       0.0038948434 0.10678514 -0.22103336 -0.41319206
000320 41 a8 60 be 4c fb 93 3e c6 eb 76 be f5 c0 f5 bd
       -0.21939184 0.28902662 -0.24113378 -0.11999694
000330 2a 2b 7c be 17 bb e6 be 39 85 b9 be 83 54 6e bf
       -0.24625841 -0.45064613 -0.36234453 -0.93097705
000340 90 c2 14 bf 9f 1b 0a be 1f 88 54 bd 39 42 24 be
       -0.5810938 -0.13487099 -0.051887628 -0.16040887
000350 bd dd 0f bf 55 3d 3e bf a3 5c 11 3d 20 7b 90 be
       -0.5619772 -0.74312335 0.035488736 -0.28218937
000360 b8 dd 3b be 93 3d 9a be b8 d6 5a be 20 3b ef bd
       -0.18346298 -0.30125102 -0.21370971 -0.11681199
000370 93 6c fb be 21 ce 53 3e c0 f3 67 bf 8b f1 0a bf
       -0.49106273 0.206841 -0.9060631 -0.54274815
000380 ee e9 5e be 49 6e 0b bc ae 94 3f be f8 ec 91 be
       -0.21768925 -0.008510181 -0.1870906 -0.28501105
000390 bd a7 c1 be ab 8e 1b bf d1 6f 97 be 57 fa d4 bd
       -0.37823287 -0.6076457 -0.29577497 -0.10399311
0003a0 98 cd bf be c3 90 75 be 28 6c 03 bf 1f 6d d8 be
       -0.37461543 -0.23981003 -0.5133691 -0.42270753
0003b0 d1 2f 8b be 46 e7 28 bf 9f 12 ad be 84 8f de be
       -0.2718492 -0.65977895 -0.3380327 -0.4346887
0003c0 49 95 8a be 14 12 89 bd 3d e7 e4 bd 56 42 bb be
       -0.2706702 -0.06692901 -0.11176918 -0.36574048
0003d0 e0 d1 41 3e c7 1d 89 be 36 9b 8a be 26 ac 85 be
       0.18927717 -0.2678053 -0.27071542 -0.261079
0003e0 69 7e 9a bd 86 97 48 be 40 13 31 bf ba c3 9d be
       -0.07543642 -0.19589052 -0.6917 -0.3081339
0003f0 f3 40 b4 3c 45 b9 85 be a0 a2 48 3e 96 82 8d be
       0.022003626 -0.26117912 0.19593287 -0.27638692

net.last_linear.weight f4 [4, 256]
000000 fb 20 8b 3d 9f 29 e3 3d 09 2d d7 3c a3 02 7d 3d
       0.067934 0.11091923 0.026266592 0.061770093
000010 1b 19 ac 3d dd 03 ec bb 7b 55 2c 3d 49 9c d9 bc
       0.08403226 -0.007202609 0.042073708 -0.02656378
000020 9a 4b cc bc e0 ee 54 bd f4 ee 0c 3d 55 54 72 3c
       -0.024938393 -0.05198562 0.03440757 0.014790614
000030 6b 12 a3 3d ee 9a df 3b ba 5a 90 ba d0 ff ab bc
       0.07962497 0.006823889 -0.0011013367 -0.020996004
000040 35 4b 89 3d 00 c4 e0 3c 1c 61 aa bd e1 89 17 3d
       0.06703798 0.02743721 -0.083193034 0.036996726
000050 6a 5d d5 bc 50 ff 78 bc 1e f7 e4 bc 4b 54 fb bd
       -0.02604552 -0.01519759 -0.027949866 -0.12271937
000060 71 eb b4 3c 06 31 29 bd 6c fc 58 bd 67 db 9a bd
       0.022084923 -0.041306518 -0.052975103 -0.07561379
000070 6e f2 b4 bd 3d 88 4c bd 0a 81 ea 3d 78 29 cc bd
       -0.08835302 -0.049934614 0.114503935 -0.09968847
000080 67 21 93 3d 87 b8 c5 3d 51 b1 e2 bc 28 b2 2d 3d
       0.07184105 0.096543364 -0.027672442 0.04240623
000090 2b 16 3c 3d d3 52 5a bd 91 d5 93 3d 69 81 6f 3d
       0.04591958 -0.053301644 0.07218469 0.058473025
0000a0 e7 12 bf 3d ce 31 23 3d 5c 4e cb bd 72 ef 54 bc
       0.09329777 0.03984242 -0.09927055 -0.012996541
0000b0 cf c0 17 bb b0 55 c7 bd 53 5c b4 bc e1 0c 09 3d
       -0.0023155694 -0.097331405 -0.02201668 0.033459548
0000c0 76 d2 16 bd 39 40 87 3d 87 e0 a3 3d 42 14 c3 3d
       -0.036821805 0.066040464 0.080018096 0.09525348
0000d0 85 46 c1 3c f1 cb 9d 3d bb b2 5e 3d 34 4e c8 bc
       0.023593197 0.07704914 0.05436967 -0.024451353
0000e0 24 eb 17 bd 6d 6f 1a bd e0 03 87 3d ad d4 df 3d
       -0.037089482 -0.03770392 0.06592536 0.109292366
0000f0 59 da ac bc 76 8c 66 bd ce c3 a7 3d 4b 55 d3 3d
       -0.02110021 -0.056286298 0.08191644 0.10319003
000100 2e e1 06 3d b7 1d e7 bd 47 86 81 3d 20 31 86 3d
       0.03292959 -0.112849645 0.063244395 0.065523386
000110 ee 69 06 bd 4b 56 d0 bd f3 85 8c 3d a5 c3 5b bd
       -0.032815866 -0.10172709 0.06861486 -0.053653378
000120 4b 83 b5 bd c8 38 5c bd be 8a c4 bc 7f 10 13 bd
       -0.08862933 -0.05376509 -0.023991939 -0.035904404
000130 8a e1 c2 bd 13 b6 ab 3d 63 79 9b 3b e8 4a d0 bd
       -0.095156744 0.08384337 0.004744695 -0.10170537
000140 fd 93 e0 bc 36 bc 6f bd 93 d5 64 3c 92 21 cb bd
       -0.027414316 -0.0585291 0.013966936 -0.099185124
000150 1b 0b ec 3d c3 a9 3d bd b8 39 c0 3c 3d d8 66 bd
       0.11525556 -0.046304476 0.023465022 -0.056358565
000160 e1 2f c7 bd ce 98 a1 3d cc df 87 3d af a4 65 bd
       -0.09725929 0.07890473 0.06634483 -0.056065258
000170 ca 53 2d 3c c9 ef ec 3c cc c0 00 bd 9f db 51 3d
       0.010579059 0.028922932 -0.031433865 0.051234838
000180 c4 c6 33 bd 0c 0b 33 bd e1 96 d0 3b 47 b9 64 3d
       -0.04389073 -0.043711707 0.0063656424 0.055840757
000190 bd 9f 84 bd cc 49 42 bd dd e9 a7 3d 21 28 89 bd
       -0.0647578 -0.04743366 0.08198903 -0.06697107
0001a0 2d 13 c9 3a ea e3 9a 3c 92 f1 40 bd 43 ce e0 bd
       0.0015340798 0.018907506 -0.04710538 -0.10976841
0001b0 b1 22 a1 3d 34 25 33 3d d8 28 91 3c 42 79 97 bc
       0.07867945 0.04373665 0.017719671 -0.018490437
0001c0 b3 ef 30 bd 7f d3 e9 bd df 87 33 3d 2a a7 73 3d
       -0.043197345 -0.11417293 0.04383075 0.059485592
0001d0 4f 52 a6 3d 01 61 be bc 3b 97 8b bd bd 3b db bc
       0.08121168 -0.023239614 -0.06815954 -0.026761884
0001e0 43 b8 aa 3d 31 fe 91 bc 8f b1 44 bd db 22 d8 3b
       0.083359264 -0.017821403 -0.048020896 0.006595952
0001f0 bc 58 c7 bc e1 b4 a8 bd d9 d5 10 3e 4d ae 3c 3c
       -0.024334304 -0.08237625 0.14144076 0.011516166
000200 d4 78 a3 bd e5 5a 86 3d 46 02 82 bd 95 ad 75 3c
       -0.079820305 0.065603055 -0.0634809 0.014994998
000210 03 21 3e bc 92 66 53 bc e4 a0 e8 bd f8 ea 64 bc
       -0.01160455 -0.012902873 -0.113588125 -0.013972037
000220 b1 bc 73 bc e1 f1 7d bd 3e b3 bf bd df 31 b1 3c
       -0.0148765305 -0.06199825 -0.093603596 0.021630226
000230 79 ba 10 bc 2e 15 c5 3d 1d 85 c1 3d 05 c1 94 3d
       -0.008833521 0.0962318 0.094492175 0.07263378
000240 19 6d 08 3d e5 07 aa bd a5 97 26 3d 76 3e e1 3d
       0.03330717 -0.08302287 0.040671963 0.109982416
000250 5c 17 da 3c 8b 1e 07 3d 59 05 09 bd f4 6e e4 3c
       0.026622467 0.032988112 -0.033452366 0.027884938
000260 fe f5 25 3d f2 c9 27 bc 60 2a a5 bd df fd b3 3d
       0.0405178 -0.010241019 -0.08064723 0.087886564
000270 14 0c fa bd ea 0e 59 3d 9b db 85 3d 49 36 2e 3d
       -0.12209335 0.05299274 0.06536027 0.04253224
000280 ca 1b 89 3d 38 f5 99 3d 0a fa e7 bc d9 7e 36 3d
       0.066947535 0.07517475 -0.02831747 0.044554565
000290 9e 2d 48 bd 83 e3 ca 3b 99 71 a0 3c 47 32 c2 3d
       -0.04887163 0.0061916723 0.019585418 0.09482246
0002a0 88 97 40 bd 63 93 a1 bb 22 53 c1 bc 42 8e ac bd
       -0.04701951 -0.0049309 -0.023599211 -0.08425571
0002b0 a7 74 92 bd b0 37 ac bd 10 85 f8 bb 07 a3 06 be
       -0.07151156 -0.08409059 -0.0075842217 -0.13148127
0002c0 a3 90 68 bd 08 c3 d5 bc 49 ac 3f 3d a5 f4 a5 3c
       -0.05677856 -0.026093975 0.046795163 0.020258257
0002d0 89 8d 85 bc c5 59 02 3d 7c 87 11 bd 7d 0f 53 bd
       -0.01630284 0.031823892 -0.0355296 -0.051528443
0002e0 dd 1a cd 3d 0a 62 27 3d 5b e5 aa bc da 33 36 bd
       0.100148894 0.04086498 -0.020861318 -0.044483043
0002f0 30 39 d3 3c a9 03 91 bc bc 7c 3a bd 34 03 2e be
       0.025784105 -0.01770194 -0.045529112 -0.1699341
000300 6f 10 5d bd 3a e6 9f bc b1 95 81 3d 68 3a 88 3d
       -0.05397075 -0.01951896 0.063273795 0.06651765
000310 8c 59 d7 3d 92 bc fb bc 05 4d 8d 3c 40 5c 9b 3d
       0.105151266 -0.030729566 0.01724864 0.07585955
000320 56 46 48 bd 48 02 81 3d b1 13 0f bd e1 fa 92 3d
       -0.048895203 0.06299263 -0.03493089 0.071767576
000330 dd 2e f8 bd 86 e0 6c bb a1 8c 93 3c bc 15 35 be
       -0.121183135 -0.0036144569 0.018011393 -0.17684072
000340 72 03 d1 bd 6a 55 a6 3d 29 fb 9d 3d 42 51 9d 3d
       -0.10205735 0.0812176 0.077139206 0.07681514
000350 c6 93 09 be d4 69 b2 3c 72 27 03 3d d6 8e b2 bd
       -0.13435277 0.021778978 0.03202004 -0.0871865
000360 d9 13 98 3c 3a 29 39 bd bd 4e 7f 3d 19 4e c9 3d
       0.018564152 -0.045205332 0.06233095 0.09829349
000370 6b 98 e9 3b 1f 10 f1 bc 84 b4 a5 bd de d3 cc 3d
       0.0071287653 -0.029426632 -0.08091071 0.10001348
000380 56 e2 9d 3d d4 8d 0a 3c 70 57 4c bd c8 94 c3 bd
       0.07709186 0.008456666 -0.049888074 -0.09549862
000390 55 1d f9 3b ab 4e ec bb 38 15 0e bd bb db 8d 3c
       0.0076023736 -0.0072115264 -0.034688205 0.01731669
0003a0 46 9b 8f 3d 4b bc 54 bb d2 09 af bd 76 65 f9 bd
       0.07012038 -0.0032460864 -0.08546795 -0.12177555
0003b0 00 e4 89 3c 7b 14 d5 bd 91 b3 75 bd ae ca a0 3c
       0.016832352 -0.10404297 -0.0599857 0.019627895
0003c0 e9 19 44 bd b7 b0 a0 bc b9 60 80 bc 41 d9 b8 3d
       -0.047876272 -0.019615514 -0.015671121 0.09025813
0003d0 4f 30 79 3d e4 fe 96 bd 90 c3 bb 3d 81 ad 69 bd
       0.060837086 -0.07372835 0.0916816 -0.05705023
0003e0 75 e4 91 3d 25 df 67 3d 02 2c dd bd 73 60 c5 bd
       0.07123653 0.05660929 -0.107994094 -0.09637537
0003f0 08 74 20 bd 39 80 ac 3c 09 36 6d 3d 0b cc 8d 3d
       -0.039173156 0.021057235 0.05791286 0.06923684

net.last_linear.bias f4 [4]
000000 22 37 78 bd f5 78 b9 3c b4 d8 8c bf 95 91 35 c0
       -0.060599454 0.022640685 -1.1003633 -2.8370106
