fixed_route_safe_slac/Safe_Slac_CARLA/logs/CarlaRlEnv-v0-run/slac-seed0-20241201-1119/models/step0/safety_critic_target.pth (torch, 507786 bytes, 5 tensors)

net1.0.weight f4 [256, 234]
-0.045375507 0.022107586 -0.0908948 0.11390758 -0.021413974 -0.02280635 -0.06709155 0.1575583
-0.20745258 0.0076430636 0.18685575 -0.07219384 -0.034434292 -0.017366765 -0.31934336 -0.058034774
-0.00988639 -0.037618205 0.05726844 -0.07422354 -0.057803493 0.06343455 0.05598477 -0.109752476
-0.06119363 -0.007883469 0.039020013 -0.042409882 -0.17061386 -0.062344372 -0.042984072 0.03235031
-0.07448749 0.105555944 -0.09683703 0.048621498 0.02724189 0.012244819 0.013608789 -0.2569637
0.11581992 -0.36431777 -0.07441984 -0.12545313 0.11889512 0.37717527 0.143259 0.42971486
-0.313365 0.1698137 -0.34987894 0.039508134 -0.67304295 0.0919567 0.0641422 -0.2498193
-0.06490842 -0.16727963 0.27785176 -0.083747566 0.5654391 -0.077320546 0.0353596 0.08535548
0.047420632 -0.50365674 -0.4997232 -0.015293441 -0.15483487 -0.3731881 -0.47166333 0.8190608
0.6284308 -0.06295025 0.14004551 0.057751715 0.21004447 -0.19083197 0.072456844 -0.14384952
-0.7676567 -0.010057227 0.35862342 -0.26774582 0.10140698 0.51854455 -0.27940735 0.2504406
-1.1426517 0.205257 0.13183571 -0.2433925 -0.27231112 -0.60485286 -0.04354227 0.7124695
0.9192118 -0.2376977 0.26985806 0.17718899 -0.2555754 -0.132363 0.025256274 -0.70912415
-0.22737615 -0.018047098 -0.17528151 0.22726475 0.30964807 -0.26711786 0.24247792 0.13576303
-0.24266466 -0.32551184 0.4382149 0.275093 0.24994133 0.44714826 -0.2646283 0.10034387
-0.47058538 -0.591039 0.38570827 0.4309716 0.6254116 0.52200466 -0.44624013 -0.046703983
0.53402376 0.3662739 -0.21332414 0.4124517 0.08731274 -0.42518106 0.34258208 -0.58556384
0.8847166 -0.15570533 -0.17217414 0.3789839 -0.6752257 -0.19943345 -1.0483603 0.701772
0.1919081 -0.9329157 -0.29741496 0.022916768 0.13458894 -0.23067398 0.29168075 -0.15035568
0.1712589 0.21502642 -0.1355134 0.1028611 -0.15047361 -0.82787853 0.7639712 0.010798277
-0.017719796 0.13360804 -0.9263263 -0.07034026 -0.75486696 -0.44269702 -0.22166789 -0.79489785
0.17303158 0.041804023 -0.13723575 0.057844013 0.74728924 0.096924044 -0.26806134 0.018657504
-0.19943205 0.41861397 0.10002146 0.0844312 0.024278369 0.20425037 -0.017449638 -0.15139979
0.73162884 -0.43967134 0.47444817 0.044548288 -0.73036677 -0.14639631 0.074700244 0.03132081
-0.79090035 -0.2791856 -0.44753978 -0.07998148 0.30862445 0.7227718 0.47863138 -0.09533052
-0.3827288 -0.5076114 -0.08299682 0.052673325 0.10650432 0.09959253 -0.16764846 -0.14118317
0.3152006 -0.35802025 0.24565609 0.25696293 0.18756722 -0.04332302 -0.052291468 0.037202917
0.1805671 0.75285375 -0.27077848 -0.15677866 0.0058900733 0.047352754 -0.52279353 0.18943176
0.15944622 0.5925237 -0.13544358 0.7595396 0.6508173 -0.7375179 -0.6640623 0.28048235
0.70466995 -0.91221356 -0.024420142 -0.3281867 -0.092949495 -0.03474214 -0.07554228 0.010340985
-0.07405514 0.20310721 -0.3609267 -0.021477567 0.20932594 0.02562644 0.018774798 -0.010329449
0.4562813 -0.017435387 -0.0209528 0.0093947295 0.048760034 0.05901581 0.08360385 0.044979565
00000000: abdb 39bd f81a b53c 0e27 babd 6148 e93d
00000010: 5c6c afbc 62d4 babc 4b67 89bd f756 213e
00000020: 736e 54be aa72 fa3b 1d57 3f3e 5dda 93bd
00000030: f90a 0dbd bf44 8ebc f980 a3be dfb5 6dbd
00000040: 86fa 21bc 8c15 1abd 5092 6a3d 8302 98bd
00000050: 5bc3 6cbd f9e9 813d 4950 653d e8c5 e0bd
00000060: 2ca6 7abd aa29 01bc 73d3 1f3d fcb5 2dbd
00000070: 66b5 2ebe d05c 7fbd 1110 30bd c281 043d
00000080: e68c 98bd b72d d83d 7e52 c6bd 5627 473d
00000090: 622a df3c 7e9e 483c 66f7 5e3c bf90 83be
000000a0: ff32 ed3d dc87 babe 6e69 98bd c976 00be
000000b0: 497f f33d 1e1d c13e 7db2 123e 9603 dc3e
000000c0: 6171 a0be a4e3 2d3e 5523 b3be 48d3 213d
000000d0: 8b4c 2cbf cb53 bc3d fc5c 833d a1d0 7fbe
000000e0: b5ee 84bd 5a4b 2bbe 9642 8e3e d883 abbd
000000f0: 9ec0 103f 3c5a 9ebd 3ad5 103d dbce ae3d
00000100: 233c 423d a6ef 00bf b8db ffbe 5791 7abc
00000110: 088d 1ebe 8312 bfbe db7d f1be f8ad 513f
00000120: d7e0 203f 10ec 80bd 1768 0f3e 108d 6c3d
00000130: e615 573e 7569 43be 4164 943d 4a4d 13be
00000140: 2685 44bf 11c7 24bc 7d9d b73e fb15 89be
00000150: 76ae cf3d 56bf 043f 7b0e 8fbe c039 803e
00000160: 6942 92bf e42e 523e f1ff 063e e23b 79be
00000170: 5d6c 8bbe a3d7 1abf 6159 32bd 6764 363f
00000180: 7751 6b3f 0767 73be d62a 8a3e 0871 353e
00000190: c7da 82be 2b8a 07be 3fe6 ce3c 2989 35bf
000001a0: 4bd5 68be 82d7 93bc ff7c 33be 17b8 683e
000001b0: 318a 9e3e acc3 88be 224c 783e 7705 0b3e
000001c0: 167d 78be 7da9 a6be b45d e03e fdd8 8c3e
000001d0: 9ff0 7f3e 9ef0 e43e 5c7d 87be 1681 cd3d
000001e0: 91f0 f0be 554e 17bf 8e7b c53e 4fa8 dc3e
000001f0: fa1a 203f 19a2 053f 9679 e4be ad4c 3fbd
00000200: c8b5 083f 4188 bb3e a571 5abe df2c d33e
00000210: 06d1 b23d 55b1 d9be eb66 af3e 83e7 15bf
00000220: c97c 623f 3871 1fbe 6b4e 30be 2e0a c23e
00000230: 97db 2cbf 4838 4cbe ac30 86bf 54a7 333f
00000240: 8f83 443e 90d3 6ebf c646 98be f2bb bb3c
00000250: afd1 093e cd35 6cbe 2e57 953e d7f6 19be
00000260: 7e5e 2f3e e32f 5c3e 06c4 0abe d7a8 d23d
00000270: c115 1abe d9ef 53bf 9e93 433f 42eb 303c
00000280: 1b29 91bc 8cd0 083e b823 6dbf 8e0e 90bd
00000290: f63e 41bf 2fa9 e2be e8fc 62be 6d7e 4bbf
000002a0: 312f 313e b23a 2b3d 8787 0cbe d8ed 6c3d
000002b0: 594e 3f3f 1d80 c63d 563f 89be 9fd7 983c
000002c0: ea37 4cbe 9254 d63e 0dd8 cc3d 44ea ac3d
000002d0: 6ee3 c63c 0227 513e 8bf2 8ebc 8c08 1bbe
000002e0: 074c 3b3f 9a1c e1be dfea f23e 4478 363d
000002f0: 51f9 3abf eae8 15be 71fc 983d 404a 003d
00000300: 7278 4abf 6af1 8ebe ef23 e5be 55cd a3bd
00000310: 0604 9e3e 9307 393f 2c0f f53e a63c c3bd
00000320: 07f5 c3be d2f2 01bf 3dfa a9bd fcbf 573d
00000330: f01e da3d 2bf7 cb3d 0aac 2bbe 5292 10be
00000340: f961 a13e 6e4e b7be 458d 7b3e a590 833e
00000350: 9f11 403e 7b73 31bd 942f 56bd 1662 183d
00000360: 95e6 383e 06bb 403f 7aa3 8abe 968a 20be
00000370: 8401 c13b f6f4 413d ccd5 05bf 66fa 413e
00000380: df45 233e a2af 173f b9b1 0abe 3071 423f
00000390: f69b 263f f9cd 3cbf fdff 29bf 629b 8f3e
000003a0: 4065 343f d486 69bf c00c c8bc 1608 a8be
000003b0: 4e5c bebd c64d 0ebd e9b5 9abd 3c6d 293c
000003c0: 39aa 97bd 56fb 4f3e 62cb b8be b9f1 afbc
000003d0: 8a59 563e 8aee d13c 9bcd 993c d93c 29bc
000003e0: b49d e93e a8d4 8ebc 35a5 abbc 5aec 193c
000003f0: 9ab8 473d 90ba 713d 7f38 ab3d 7e3c 383d

net1.0.bias f4 [256]
0.0939762 -0.28834516 -0.64943093 -0.49654973 -0.20841588 -0.14851274 -0.25750086 1.1272345
-0.62880784 -0.70903504 -0.14882548 -0.2476344 -0.22307403 -0.5509052 -0.48671597 0.28029257
-0.526758 -0.12397498 0.0073705055 -0.19293049 -0.44392937 -0.014253357 -0.061476193 -0.4101085
-0.4054033 0.033656996 0.9214049 -0.6740851 -0.24952689 -0.66996247 -0.055023264 0.008213638
-0.36273998 0.1260172 -0.5230674 -0.27154624 -0.34627312 -0.46428213 -0.32388544 -0.09522926
-0.28724334 0.21180044 0.044096466 -0.10276095 -0.4263929 -0.19154473 -0.21541315 -0.17053045
-0.4296178 0.17512618 -0.20642863 0.1205718 -0.5411278 -0.08294816 -0.7122813 -0.50051975
-0.49447128 -0.78425264 -0.68849343 0.06283764 -0.7828735 -0.40260318 -0.53492904 -0.28111672
-0.39035723 -0.26290172 -0.5803509 -0.07157966 -0.44857943 -0.39966214 -0.12860344 -0.42699525
-0.521086 -0.398205 -0.5169709 0.21950495 -0.050203577 -0.010398104 -0.3252368 -0.064606465
-0.16749674 -0.55932343 -0.47796938 -0.8500492 -0.5691419 -0.7939901 -0.38438964 0.0919358
-0.22797753 -0.46006075 -0.039717946 0.33460644 -0.7717124 -0.19344658 -0.18839397 -0.029672395
-0.7069498 -0.5890522 -0.6944917 -0.10693059 -0.51802534 -0.0036972049 0.116785415 -0.43702796
-0.31289485 -0.65381473 -0.7529815 -0.60635936 -0.57857907 -0.57843655 0.054904364 -0.80454206
-0.18617122 -0.5968056 -0.7178189 -0.6319711 0.010311342 -0.10415988 -0.37483957 -0.33106804
-0.6860599 1.026655 0.10020055 -0.78053504 0.0027864273 0.33448067 -0.5816221 -0.18273658
-0.6306962 -0.5785974 -0.24411471 -0.50477237 0.005530155 0.37099072 0.09542522 -0.24823897
0.011322256 -0.30085018 -0.5067093 -0.30507562 -0.377927 -0.5166036 -0.65825933 0.047536902
0.048640724 -0.6234231 -0.3541009 -0.1654312 -0.37647873 -0.20768313 -0.11127677 -0.7215907
-0.6804635 -0.23011394 -0.12470559 -0.9422424 -0.54489064 -0.67139894 0.021269552 -0.6722124
-0.4077951 -0.23819284 0.0037351765 -0.031320203 -0.35960218 -0.06694261 -0.3966074 -0.13433187
-0.10476714 -0.48122826 0.31582746 0.38168508 -0.29035658 -0.37474465 -0.14931895 -0.31747508
-0.37237403 -0.3639323 -0.6337933 0.50694704 -0.051224224 -0.18794823 -0.46642128 -0.1730092
0.06838322 -0.33064476 0.052217744 -0.32720414 -0.044403926 -0.22966236 -1.1034893 -0.26179817
-0.54692537 -0.030275682 -0.023341378 0.3229538 -0.2900871 -0.33650535 0.016131548 -0.755169
-0.0973113 -0.44239604 -0.5854655 -0.28338876 0.058862787 -0.5465416 0.3624138 -0.69611293
-0.29438126 -0.6469421 -0.122219376 -0.021760635 -0.52126044 -0.63088876 -0.14193845 -0.8558731
-0.21428406 0.40995005 -0.80939364 -0.033795726 -0.22281109 -0.0539183 0.49090263 -0.20676018
-0.49558258 -0.5035347 0.2690418 0.2730083 -0.1020197 -0.66812074 -0.46987194 -0.08053901
-0.6313418 -0.45389885 -0.36848345 -0.6524871 -0.14593786 -0.27193642 -0.18458338 -0.2955315
-0.21025068 0.33869642 -0.21653938 -0.39744648 -0.59586304 -0.037156083 -0.267037 -0.46681255
-0.7947663 -0.34427738 -0.20459415 -0.17990024 0.0667564 0.04535424 0.2887864 -0.29413038
00000000: 9876 c03d faa1 93be 1b41 26bf c43b febe
00000010: f96a 55be b913 18be 27d7 83be 3849 903f
00000020: 8df9 20bf 5283 35bf b565 18be df93 7dbe
00000030: 856d 64be 2008 0dbf d632 f9be 8282 8f3e
00000040: 9dd9 06bf 98e6 fdbd 4884 f13b 928f 45be
00000050: b64a e3be ea86 69bc 76ce 7bbd bef9 d1be
00000060: 0591 cfbe ebdb 093d 31e1 6b3f d790 2cbf
00000070: fa83 7fbe a982 2bbf 1360 61bd 7f92 063c
00000080: 0eb9 b9be a70a 013e bfe7 05bf 1c08 8bbe
00000090: b64a b1be 63b6 edbe 50d4 a5be 8f07 c3bd
000000a0: 8f11 93be 37e2 583e 7f9e 343d 5574 d2bd
000000b0: 2c50 dabe 4d24 44be 4495 5cbe 899f 2ebe
000000c0: ddf6 dbbe 4754 333e 0762 53be 59ee f63d
000000d0: 5a87 0abf bae0 a9bd 1158 36bf 1022 00bf
000000e0: 572b fdbe c8c4 48bf 1b41 30bf 05b1 803d
000000f0: 666a 48bf 0122 cebe 1cf1 08bf 88ee 8fbe
00000100: e7dc c7be 0e9b 86be e091 14bf 5b98 92bd
00000110: 34ac e5be 84a0 ccbe 9fb0 03be 1f9f dabe
00000120: e465 05bf 87e1 cbbe 3458 04bf e8c5 603e
00000130: 44a2 4dbd cf5c 2abc 7085 a6be 6550 84bd
00000140: 4484 2bbe d22f 0fbf 67b8 f4be d39c 59bf
00000150: 49b3 11bf ef42 4bbf b8ce c4be d648 bc3d
00000160: f172 69be 158d ebbe 49af 22bd 8951 ab3e
00000170: f28e 45bf dc16 46be 59ea 40be 8613 f3bc
00000180: a9fa 34bf 20cc 16bf 35ca 31bf 6dfe dabd
00000190: 4f9d 04bf ce4c 72bb 312d ef3d 21c2 dfbe
000001a0: c133 a0be 6760 27bf 65c3 40bf 5e3a 1bbf
000001b0: c21d 14bf 6b14 14bf 66e3 603d 78f6 4dbf
000001c0: aba3 3ebe 40c8 18bf fbc2 37bf dcc8 21bf
000001d0: e7f0 283c c651 d5bd f9ea bfbe c081 a9be
000001e0: 9fa1 2fbf 6e69 833f f235 cd3d 25d1 47bf
000001f0: 7e9c 363b 0d41 ab3e 30e5 14bf 4c1f 3bbe
00000200: 4e75 21bf f61e 14bf 35f9 79be c338 01bf
00000210: 4d36 b53b 7ff2 bd3e 4c6e c33d 5b32 7ebe
00000220: fc80 393c 0909 9abe b3b7 01bf df32 9cbe
00000230: a67f c1be 2240 04bf af83 28bf 0eb6 423d
00000240: 7f3b 473d a898 1fbf b74c b5be cc66 29be
00000250: d2c1 c0be e3aa 54be 13e5 e3bd 2bba 38bf
00000260: db32 2ebf fda2 6bbe a565 ffbd cc36 71bf
00000270: f47d 0bbf cde0 2bbf 7c3d ae3c 1d16 2cbf
00000280: 85ca d0be d3e8 73be ddc9 743b 9d49 00bd
00000290: c71d b8be 3519 89bd 2010 cbbe 4b8e 09be
000002a0: 2790 d6bd 8d63 f6be 23b4 a13e 3a6c c33e
000002b0: 9ea9 94be 88de bfbe 11e7 18be 188c a2be
000002c0: cfa7 bebe 5655 babe 4740 22bf 48c7 013f
000002d0: 7ed0 51bd 8075 40be c5ce eebe 5329 31be
000002e0: 800c 8c3d 454a a9be 46e2 553d 4d87 a7be
000002f0: e4e0 35bd 9c2c 6bbe 233f 8dbf 690a 86be
00000300: 4d03 0cbf b504 f8bc 6b36 bfbc 335a a53e
00000310: 4c86 94be 6e4a acbe 4f26 843c c152 41bf
00000320: 264b c7bd bc81 e2be 11e1 15bf 5518 91be
00000330: 1b1a 713d 26ea 0bbf 4d8e b93e 7534 32bf
00000340: 24b9 96be ff9d 25bf 274e fabd 5c43 b2bc
00000350: 5371 05bf ed81 21bf 5058 11be 801a 5bbf
00000360: 486d 5bbe f9e4 d13e 6c34 4fbf 636d 0abd
00000370: 9728 64be 6fd9 5cbd 9757 fb3e f1b8 53be
00000380: 00bd fdbe a6e7 00bf d9bf 893e bec7 8b3e
00000390: b4ef d0bd f609 2bbf 0e93 f0be a3f1 a4bd
000003a0: 9e9f 21bf 6e65 e8be dda9 bcbe 6509 27bf
000003b0: bc70 15be 403b 8bbe 6d03 3dbe e84f 97be
000003c0: f44b 57be 9e69 ad3e 80bc 5dbe 1b7e cbbe
000003d0: 7b8a 18bf fa30 18bd 13b9 88be 0e02 efbe
000003e0: ce75 4bbf 2045 b0be 2181 51be c537 38be
000003f0: 94b7 883d 5ec5 393d d0db 933e 4298 96be

net1.2.weight f4 [256, 256]
0.06698711 -0.12889649 0.041967373 -0.51146054 0.29110876 -0.29316795 0.013442199 -0.3569461
0.45830446 -0.24371268 -0.8406378 -0.18492606 0.11054247 0.4276045 -0.030715 -0.1394774
-0.056829713 -0.47901616 -0.5794335 0.012695788 0.12929802 -0.24333145 0.28560498 -0.44750857
0.18295485 0.46844128 -0.5554783 0.89171684 -0.42382994 0.57639086 -0.29029495 0.2561186
-0.0731223 -0.33784488 -0.27415964 0.26969182 0.10347272 0.20277755 0.46138012 -0.09705793
-0.2797477 0.1660023 0.07983793 0.7194823 -0.45901862 0.025795685 0.5950577 -0.15660128
0.77876234 0.20963687 -0.33555663 -0.85403645 -0.30966002 -0.18390456 0.00385849 -0.09512786
0.22320625 -0.58087003 -0.027302466 -0.18532069 0.02819759 -0.046653297 0.5593098 -0.5367154
0.669011 -0.039208554 -0.20732039 -0.027935516 0.07271259 0.989869 0.3328492 -0.119005345
-0.54303026 -0.15853794 -0.299187 -0.14706326 0.12932208 -0.22758926 -0.3028786 -0.21846361
-0.012832859 -0.3060914 -0.12844817 -0.52445126 -0.08208683 0.028827237 0.14937344 0.07783276
-0.11654299 -0.51107204 -0.4645211 -0.3873416 -0.24791056 0.28403294 -0.68024635 -0.6200864
-0.36511147 0.15236093 -0.3505664 -0.53328055 -0.9846759 -0.10892415 -0.017568946 -0.33427727
-0.10901444 0.022108499 0.6971238 -0.1385016 -0.03291006 -0.44360638 -0.68688637 -0.48559093
-0.07201649 0.31602612 0.2235803 -0.6117107 0.043365795 0.020242346 -0.6327956 -0.26313078
-0.2698354 -0.74328643 -0.3166852 -0.48079994 -0.69544065 -0.6799025 -0.4139725 -0.08261827
0.4643897 -0.5429361 -0.073528 0.35933316 -0.70763594 -0.37291113 -0.16587242 0.07116977
-0.78454626 -0.11498052 0.46186373 0.16300413 -0.40714392 0.041533932 -0.4537973 -0.0015657544
-0.075121894 -0.27671513 -0.20645171 0.34144223 -0.5006459 -0.2624929 0.38124892 0.63401127
-0.15307155 0.3848552 -0.37746972 -0.36915475 -0.474074 0.5154332 0.015544425 -0.45970303
0.23709752 0.3675049 0.16709925 -0.006004831 0.69098836 0.1934249 -0.09072785 0.08103707
-0.16243081 0.40848348 -0.4055271 0.02750823 -0.06133236 -0.16704096 -0.036492173 0.28347123
0.13463643 -0.17288984 -0.020553883 -0.64921385 0.10511477 -0.84246063 0.12578826 0.015890302
0.0709246 0.094186015 -0.28928 -0.4346791 -0.6288902 -0.1185729 -0.3912563 0.28759077
0.34195533 -0.38823247 -0.15227638 0.10570592 -0.44027436 -0.0048481016 -0.12280421 0.41660714
0.04234404 -0.47231418 -0.26412073 0.2833766 0.44845468 -0.24086475 -0.6983961 -0.16662204
0.36271927 1.0864093 -0.6967369 0.14686231 -0.6361361 -0.21148121 -0.41334873 -0.1665959
-0.28799796 -0.42283615 0.22216648 -0.1655434 -0.0063414327 -0.5211043 -0.6945829 -0.16661689
-0.4462351 0.67573345 0.02963299 -0.27756542 -0.65064985 -0.44347605 0.23482585 -0.1171985
0.2900293 -0.34830898 -0.030382225 0.028317777 -0.15121225 0.69262767 -0.0069798944 0.21860747
-0.71492684 -0.19014962 -0.99032557 -0.53364605 -0.31965014 0.36779267 -0.5385141 -0.6015089
-0.22312063 0.44186404 0.11420791 -0.37607145 -0.28902012 0.24571505 -0.72509176 -0.9119917
00000000: 8a30 893d 71fd 03be fbe5 2b3d 14ef 02bf
00000010: 350c 953e 1c1a 96be ab3c 5c3c a4c1 b6be
00000020: e2a6 ea3e d18f 79be 0a34 57bf 425d 3dbe
00000030: 1764 e23d faee da3e 069e fbbc 2ad3 0ebe
00000040: 46c6 68bd 9b41 f5be c155 14bf ff01 503c
00000050: b366 043e e12b 79be d13a 923e d81f e5be
00000060: 8458 3b3e 89d7 ef3e d333 0ebf 8e47 643f
00000070: 3d00 d9be 5a8e 133f 8aa1 94be fa21 833e
00000080: 25c1 95bd 01fa acbe a75e 8cbe 0c15 8a3e
00000090: 81e9 d33d eba4 4f3e 043a ec3e 4fc6 c6bd
000000a0: 173b 8fbe 82fc 293e 1282 a33d fe2f 383f
000000b0: 7d04 ebbe 7951 d33c b455 183f 165c 20be
000000c0: f85c 473f 0cab 563e 14ce abbe 22a2 5abf
000000d0: c28b 9ebe 7a51 3cbe b8de 7c3b 65d2 c2bd
000000e0: 2e90 643e e6b3 14bf 6ca9 dfbc b5c4 3dbe
000000f0: a2fe e63c 8717 3fbd ed2e 0f3f 2e66 09bf
00000100: 4e44 2b3f 2699 20bd cc4b 54be 06d9 e4bc
00000110: 57ea 943d 0e68 7d3f 366b aa3e 13b9 f3bd
00000120: 0804 0bbf c557 22be 0a2f 99be c097 16be
00000130: 026d 043e 290d 69be e712 9bbe edb4 5fbe
00000140: e940 52bc 03b8 9cbe eb87 03be 7042 06bf
00000150: 241d a8bd 1927 ec3c 5af5 183e c866 9f3d
00000160: 17ae eebd 9ed5 02bf b6d5 edbe a351 c6be
00000170: 44dc 7dbe c46c 913e a024 2ebf fbbd 1ebf
00000180: e4ef babe 8104 1c3e 707d b3be 1385 08bf
00000190: b813 7cbf a013 dfbd c0ec 8fbc 6426 abbe
000001a0: f642 dfbd e21c b53c b576 323f 5dd3 0dbe
000001b0: b3cc 06bd 6020 e3be c9d7 2fbf 609f f8be
000001c0: 627d 93bd 2dce a13e 3cf2 643e 1399 1cbf
000001d0: 55a0 313d 47d3 a53c e4fe 21bf 14b9 86be
000001e0: de27 8abe 0548 3ebf 9024 a2be 692b f6be
000001f0: 6608 32bf 170e 2ebf 34f4 d3be c433 a9bd
00000200: 7dc4 ed3e dcfd 0abf d995 96bd 84fa b73e
00000210: a127 35bf 35ee bebe 76da 29be 75c1 913d
00000220: 06d8 48bf e87a ebbd 6779 ec3e 8eea 263e
00000230: 2b75 d0be 7c1f 2a3d 1f58 e8be 003a cdba
00000240: 82d9 99bd 9bad 8dbe 1468 53be 84d1 ae3e
00000250: 542a 00bf 7865 86be 0f33 c33e 904e 223f
00000260: cabe 1cbe be0b c53e b643 c1be da01 bdbe
00000270: d4b9 f2be 6ef3 033f 0bae 7e3c 325e ebbe
00000280: b1c9 723e 9a29 bc3e 111c 2b3e 2cc4 c4bb
00000290: 9de4 303f 2d11 463e 86cf b9bd c3f6 a53d
000002a0: 4354 26be bf24 d13e 40a1 cfbe f158 e13c
000002b0: a437 7bbd c90c 2bbe d178 15bd 2423 913e
000002c0: 22de 093e 090a 31be 9e60 a8bc e132 26bf
000002d0: 6a46 d73d 80ab 57bf a3ce 003e 612c 823c
000002e0: eb40 913d 99e4 c03d 821c 94be 428e debe
000002f0: f3fe 20bf 59d6 f2bd bf52 c8be 193f 933e
00000300: c514 af3e 68c6 c6be 57ee 1bbe 587c d83d
00000310: a46b e1be d3dc 9ebb c680 fbbd 884d d53e
00000320: f270 2d3d 2ad3 f1be d53a 87be bd16 913e
00000330: da9b e53e 40a5 76be 16ca 32bf f89e 2abe
00000340: 57b6 b93e 760f 8b3f 595d 32bf 1363 163e
00000350: d1d9 22bf 888e 58be 72a2 d3be 1e98 2abe
00000360: 7874 93be fb7d d8be 9c7f 633e 3684 29be
00000370: cbcb cfbb 1767 05bf 2fd0 31bf 9e9d 2abe
00000380: ed78 e4be defc 2c3f e2c0 f23c 0e1d 8ebe
00000390: fd90 26bf 4b0f e3be 3076 703e c405 f0bd
000003a0: b87e 943e 8e55 b2be 25e4 f8bc affa e73c
000003b0: 62d7 1abe 0c50 313f 99b7 e4bb a3da 5f3e
000003c0: 7205 37bf 95b6 42be fa85 7dbf 079d 08bf
000003d0: 2fa9 a3be 524f bc3e 0fdc 09bf 7dfc 19bf
000003e0: bc79 64be 013c e23e d6e5 e93d 708c c0be
000003f0: 72fa 93be ba9c 7b3e 9d9f 39bf 4a78 69bf

net1.2.bias f4 [256]
0.27235088 -0.19114237 0.11115786 -0.09830103 -0.08825598 0.061426073 -0.23605672 0.18363863
-0.08071844 0.26577026 0.37724125 -0.1674869 -0.09889637 -0.116867945 0.26748925 -0.2231849
-0.37194994 -0.0040791975 -0.22738282 0.31551167 -0.14133316 -0.25567645 0.19565019 0.047314994
-0.25713256 0.36364993 -0.14949128 -0.09731759 -0.03995012 -0.22762746 0.011975926 -0.18813989
0.0987262 0.19904688 0.52642494 -0.05830084 -0.122512236 0.3651957 -0.24819733 0.059615474
0.32803836 -0.08433296 -0.14124386 0.11411884 0.14345686 -0.2397574 -0.17601466 0.3738145
0.22872175 0.18442476 -0.23282516 0.16547272 -0.17183794 0.054554038 0.052873086 0.32262865
-0.12446258 0.20355867 0.05273289 -0.23197137 -0.117460005 0.0066379863 -0.15355426 0.6205105
-0.28011236 0.24217169 0.52938694 -0.01666699 0.3476185 0.048357353 0.36788088 0.28442672
-0.15529786 -0.068141736 0.27070335 -0.058949422 0.22787519 -0.1720169 0.1827076 -0.1659671
-0.2699409 -0.16456696 -0.1878905 0.19884647 -0.273549 -0.14119783 -0.054827277 0.035055146
0.3960243 0.3773294 0.09247502 0.20185015 0.287128 0.21423423 0.37869638 -0.349493
-0.14206703 0.2998576 -0.08354041 0.2635587 0.33128038 0.14102536 0.21141495 -0.12505525
0.16943483 -0.101394325 -0.19771716 0.10128738 0.25335172 -0.18255404 -0.23512964 0.29787937
-0.10002479 0.34436902 0.4828691 0.2193874 -0.13098308 -0.10022114 0.23727125 -0.18341632
-0.08156938 0.05906722 -0.414416 0.18587996 0.44946474 -0.017440977 0.053948097 0.092459135
0.043565158 0.42838392 0.28743303 -0.30547696 0.12779687 -0.13835058 -0.356152 -0.07153364
0.30457687 -0.24052474 -0.2441213 -0.07672909 -0.124837965 -0.14853968 -0.1315929 -0.27255002
-0.0063130064 0.29205224 0.19708636 -0.19460589 -0.2275295 -0.14927483 0.38483444 -0.24732259
-0.14567257 0.22711979 -0.052083593 -0.2462432 0.0068942555 -0.10523669 -0.34723926 0.29944405
-0.15581556 -0.34817064 -0.28523836 0.09375158 0.21802448 -0.22433558 -0.114019364 0.16618836
-0.18551135 -0.15812576 -0.211979 0.14678837 -0.16633567 -0.14128052 0.31176782 0.02146732
-0.16443807 -0.17413764 0.2650731 0.2555523 0.21613744 -0.09907829 -0.24439357 0.30783698
0.02268746 -0.114547186 -0.12975238 -0.20553696 0.18057925 0.3508329 0.12771125 0.3685674
0.36986622 0.5128301 0.5409222 0.52162933 0.17779896 0.20585594 -0.2664176 0.28826004
0.011317446 -0.15232846 0.38748392 -0.043388978 0.5130277 0.46123758 -0.07671554 -0.37331754
0.3182782 0.032322075 0.18146144 -0.14821064 0.5914425 -0.22074974 -0.04390133 -0.15523537
0.3807455 0.4514977 -0.061533485 0.19180109 0.35865003 0.35490054 0.34647164 0.012473545
0.4597287 -0.057300203 0.25439525 -0.2885693 -0.32983294 0.24770027 -0.21038087 -0.11504528
0.39945072 -0.13731623 -0.1161621 0.5904752 -0.23065509 -0.15196466 -0.2763205 -0.18576908
0.21953477 -0.088031836 -0.07938529 -0.3725351 0.38580614 -0.12928542 -0.1964319 0.18711594
-0.2561935 0.11721071 -0.04718824 -0.16705889 -0.1774914 0.22664486 -0.29776534 -0.0677798
00000000: 9371 8b3e d3ba 43be bba6 e33d 0d52 c9bd
00000010: 8dbf b4bd e899 7b3d dab8 71be c40b 3c3e
00000020: b64f a5bd 0a13 883e c425 c13e b081 2bbe
00000030: 2e8a cabd 7658 efbd 5af4 883e 958a 64be
00000040: 3970 bebe caaa 85bb 0bd7 68be bf8a a13e
00000050: a4b9 10be 06e8 82be 8658 483e 5ecd 413d
00000060: e1a6 83be 5330 ba3e 3e14 19be 724e c7bd
00000070: bda2 23bd 2c17 69be ad36 443c bea7 40be
00000080: f630 ca3d f2d2 4b3e c9c3 063f ddcc 6ebd
00000090: b2e7 fabd eefa ba3e 7127 7ebe 5b2f 743d
000000a0: a5f4 a73e c2b6 acbd 3ba2 10be 23b7 e93d
000000b0: 5be6 123e f782 75be 303d 34be 9d64 bf3e
000000c0: 0936 6a3e d8d9 3c3e b869 6ebe ae71 293e
000000d0: 49f6 2fbe 0e74 5f3d 7391 583d 952f a53e
000000e0: 3de6 febd af71 503e 71fe 573d e789 6dbe
000000f0: df8e f0bd 7783 d93b 543d 1dbe c7d9 1e3f
00000100: e36a 8fbe dbfb 773e e785 073f 3689 88bc
00000110: 0dfb b13e 5c12 463d e25a bc3e 61a0 913e
00000120: 6706 1fbe e58d 8bbd a199 8a3e f374 71bd
00000130: 1d58 693e 3325 30be b317 3b3e 48f3 29be
00000140: b235 8abe 3e84 28be 5e66 40be 699e 4b3e
00000150: 9d0e 8cbe 2a96 10be 9192 60bd fc95 0f3d
00000160: b2c3 ca3e 5231 c13e 8b63 bd3d ceb1 4e3e
00000170: 7102 933e 3860 5b3e 7ee4 c13e bff0 b2be
00000180: 057a 11be ef86 993e 3c17 abbd 2af1 863e
00000190: 959d a93e f468 103e 297d 583e 7c0e 00be
000001a0: 5380 2d3e d4a7 cfbd 5e76 4abe c26f cf3d
000001b0: 51b7 813e 72ef 3abe d3c5 70be a583 983e
000001c0: ccd9 ccbd 2351 b03e 9e3a f73e 17a7 603e
000001d0: 6e20 06be be40 cdbd 3cf7 723e 7dd1 3bbe
000001e0: d90d a7bd 78f0 713d 552e d4be 5157 3e3e
000001f0: 3e20 e63e 61e0 8ebc aef8 5c3d 375b bd3d
00000200: 6171 323d 2355 db3e 6c2a 933e 7a67 9cbe
00000210: 2fdd 023e c6ab 0dbe 8e59 b6be 3b80 92bd
00000220: 80f1 9b3e 1e4c 76be effa 79be 2424 9dbd
00000230: 0cab ffbd c91a 18be 4ac0 06be ad8b 8bbe
00000240: 56dd cebb df87 953e 02d1 493e c446 47be
00000250: 7efd 68be 80db 18be 0509 c53e 2242 7dbe
00000260: 312b 15be 1792 683e 9b55 55bd 2d27 7cbe
00000270: 35e9 e13b 5586 d7bd 58c9 b1be bb50 993e
00000280: 1d8e 1fbe 6c43 b2be c30a 92be d400 c03d
00000290: cf41 5f3e 3ab8 65be fc82 e9bd 482d 2a3e
000002a0: b0f6 3dbe b8eb 21be 0611 59be b14f 163e
000002b0: e653 2abe d7ab 10be 08a0 9f3e 3cdc af3c
000002c0: 7462 28be 2351 32be a9b7 873e c0d7 823e
000002d0: 2253 5d3e 8fe9 cabd 4f42 7abe cf9c 9d3e
000002e0: 0ddb b93c b797 eabd cfdd 04be 4878 52be
000002f0: c4e9 383e 5fa0 b33e bdc6 023e deb4 bc3e
00000300: 1b5f bd3e d548 033f e179 0a3f 8089 053f
00000310: ee10 363e e6cb 523e e367 88be d296 933e
00000320: cf6c 393c fefb 1bbe 4b64 c63e a4b8 31bd
00000330: c955 033f 5527 ec3e 091d 9dbd 7a23 bfbe
00000340: 5cf5 a23e 2764 043d 07d1 393e 88c4 17be
00000350: c768 173f 380c 62be e2d1 33bd 05f6 1ebe
00000360: 13f1 c23e b52a e73e 890a 7cbd 8167 443e
00000370: faa0 b73e 86b5 b53e bb64 b13e d75d 4c3c
00000380: 8f61 eb3e 9eb3 6abd 1840 823e 5bbf 93be
00000390: dddf a8be 24a5 7d3e 156e 57be dc9c ebbd
000003a0: ce84 cc3e a09c 0cbe 65e6 edbd 6229 173f
000003b0: d930 6cbe a09c 1bbe e179 8dbe 403a 3ebe
000003c0: b9cd 603e 094a b4bd c194 a2bd ecbc bebe
000003d0: 6288 c53e 6663 04be 7225 49be 529b 3f3e
000003e0: cb2b 83be 2b0c f03d 7548 41bd 7c11 2bbe
000003f0: 4ec0 35be 9715 683e b374 98be 23d0 8abd

net1.last_linear.weight f4 [1, 256]
-0.98486084 1.1606094 -1.1857127 -1.6009266 1.0921569 -1.2644607 1.1751271 -0.63572156
1.039768 -1.1142013 -1.3679942 1.3571293 1.4907953 0.9920213 -0.55144507 0.6832589
1.1540657 -0.58302706 0.8470289 -1.7652603 1.2266864 1.2597959 -1.0249728 1.4513268
1.4806505 -0.7033779 -0.835744 -1.2284089 -0.858874 1.0738552 -0.76784486 1.1192361
-1.0624765 -1.1837877 -0.8202787 -1.0945911 0.9924611 -1.243144 1.35182 0.8802539
-0.93680423 0.9647627 1.3242406 -0.8445761 -1.5134926 1.0203543 1.5141425 -2.0846972
-1.1877571 1.4038585 0.9009589 -1.1235204 1.1784762 -1.2154862 -1.5692663 -1.9690299
1.0990819 -1.5712807 -0.6268639 1.4035635 1.360266 0.87381953 1.4390572 -1.2606231
1.0090878 0.83857745 -0.5596409 1.0667844 -1.6688854 -0.84977615 -0.84606904 -1.6109685
1.2180665 1.5632979 -1.6351498 1.2983804 -1.3149961 -0.5225114 1.7665415 1.2462598
1.2241687 1.1837287 0.987882 -1.9256378 1.6414707 1.4535645 -1.0025164 -0.8501307
-1.286365 -0.93830895 0.76593584 1.1351895 -1.4933337 -1.8605123 -1.2702099 1.3100497
0.59120405 -1.6320683 1.3135624 -0.7728524 -0.83565444 1.0758861 -0.8067223 1.3054329
-0.3690564 1.320845 1.0573565 -1.4444181 -0.56011826 1.384002 0.96015877 -1.5534508
1.2034087 -0.84740114 -1.1308511 -0.6544772 0.83242977 1.0235716 -1.6527395 1.3367964
1.3411098 -1.9961872 1.1469798 -0.8578331 -1.6264794 0.96274143 -1.2735927 -0.9620095
1.1107786 -1.4406183 -1.153697 0.903544 -1.0177361 -1.0032262 0.71525747 -1.3262402
-1.8094437 1.1838098 1.0218157 1.3937324 1.2576964 1.2266893 1.5552864 0.9579475
-1.6905007 -1.3335512 -1.1750355 1.0911723 1.6623982 1.2724822 -1.6293901 0.78173804
0.9624213 -1.1274886 -0.99737835 1.1281043 0.93509746 1.2715968 1.0231061 -1.109449
1.455123 1.1245029 1.195529 -0.99312645 -1.2421024 0.9653557 1.5785818 -1.6073532
1.3944291 1.5810449 0.93901116 -0.7020192 1.2628794 1.1857241 -1.2235904 1.2087301
1.2228177 1.1092097 -1.2791345 -0.8532953 -1.290725 1.2827595 1.2396666 -1.5053664
-0.9924476 1.6113068 1.1194816 1.2902067 -1.963602 -1.1442373 -0.9891003 -0.42527547
0.75945324 -0.9521476 -1.5201085 -0.84300613 -1.4406717 -1.0824944 1.226822 -0.8097761
-0.5845682 0.97648114 -2.295703 1.0496475 -1.2921149 -0.5262858 1.4326884 1.2787324
-1.2999985 1.0654173 1.689716 0.5947165 -1.4384907 1.3018826 1.3644887 1.0225593
-0.9447237 -1.9043349 0.990196 -1.2152411 -1.0861068 -1.4316447 -0.94346607 1.4133354
-1.8987619 1.5843259 -0.95340437 0.6262272 0.8806237 -0.9680681 1.2323835 0.96171623
-1.4834226 1.5039017 1.1122618 -1.227867 1.418258 0.91336143 1.5278609 1.4138645
-1.2055057 0.7081782 1.0499287 1.468123 -1.4139849 1.2355971 0.86929023 -2.1264796
1.0815845 -1.5999657 -1.699877 0.7703022 1.1047252 -0.6314879 0.6865354 1.2336396
00000000: d71f 7cbf d98e 943f 6fc5 97bf 2aeb ccbf
00000010: cccb 8b3f d9d9 a1bf 916a 963f a6be 22bf
00000020: 1e17 853f 269e 8ebf 6f1a afbf 6ab6 ad3f
00000030: 61d2 be3f 1cf5 7d3f 812b 0dbf 0eea 2e3f
00000040: 6db8 933f 4341 15bf e3d6 583f 0df4 e1bf
00000050: 0f04 9d3f fe40 a13f 4f32 83bf 14c5 b93f
00000060: f585 bd3f 9310 34bf 52f3 55bf 813c 9dbf
00000070: 2bdf 5bbf 1674 893f 7b91 44bf 2143 8f3f
00000080: 3bff 87bf 5b86 97bf c9fd 51bf 901b 8cbf
00000090: ee11 7e3f 581f 9fbf 7008 ad3f 5258 613f
000000a0: 67d2 6fbf b0fa 763f b780 a93f 2436 58bf
000000b0: 20ba c1bf f89a 823f 6ccf c13f ae6b 05c0
000000c0: 6d08 98bf a3b1 b33f 3ea5 663f 84cf 8fbf
000000d0: 4fd8 963f 0d95 9bbf b8dd c8bf 2c09 fcbf
000000e0: b7ae 8c3f ba1f c9bf 277a 20bf f8a7 b33f
000000f0: 321d ae3f a3b2 5f3f 0733 b83f 195c a1bf
00000100: ca29 813f 03ad 563f a044 0fbf 648c 883f
00000110: 099e d5bf ee8a 59bf fb97 58bf 3734 cebf
00000120: 9ae9 9b3f 251a c83f 974c d1bf 5431 a63f
00000130: cb51 a8bf 4fc3 05bf 081e e23f 7185 9f3f
00000140: 8fb1 9c3f 6c84 973f d6e5 7c3f 4d7b f6bf
00000150: b61b d23f 670e ba3f 7552 80bf 2aa2 59bf
00000160: 9ca7 a4bf 0435 70bf 5f14 443f e44d 913f
00000170: 8f25 bfbf 4425 eebf 3d96 a2bf b5af a73f
00000180: 2659 173f 9de7 d0bf d022 a83f a8d9 45bf
00000190: 73ed 55bf a3b6 893f 5a85 4ebf 6d18 a73f
000001a0: f6f4 bcbe 7311 a93f 7557 873f b1e2 b8bf
000001b0: e963 0fbf fa26 b13f f7cc 753f 7ad7 c6bf
000001c0: 4c09 9a3f 48ef 58bf bbbf 90bf d18b 27bf
000001d0: 1e1a 553f 6504 833f f88c d3bf 251c ab3f
000001e0: 7ca9 ab3f 1083 ffbf 3cd0 923f f39a 5bbf
000001f0: 7a30 d0bf 3976 763f 1605 a3bf 4146 76bf
00000200: fe2d 8e3f 2e66 b8bf 58ac 93bf a94e 673f
00000210: 2d45 82bf b769 80bf 1d1b 373f 3dc2 a9bf
00000220: da9b e7bf 1487 973f dbca 823f d365 b23f
00000230: 32fc a03f 2804 9d3f a013 c73f 0c3c 753f
00000240: 5462 d8bf ceb1 aabf 9067 96bf 89ab 8b3f
00000250: 77c9 d43f b2e0 a23f db8f d0bf fc1f 483f
00000260: 3e61 763f 8c51 90bf 3054 7fbf b965 903f
00000270: 8c62 6f3f afc3 a23f 24f5 823f 6d02 8ebf
00000280: 7841 ba3f b6ef 8f3f 1807 993f 893d 7ebf
00000290: 36fd 9ebf 8d21 773f f80e ca3f c0bd cdbf
000002a0: a77c b23f ae5f ca3f 0963 703f 88b7 33bf
000002b0: 08a6 a13f cfc5 973f 9c9e 9cbf abb7 9a3f
000002c0: 4a85 9c3f 95fa 8d3f aeba a3bf 9071 5abf
000002d0: 7a36 a5bf 7731 a43f 65ad 9e3f d9af c0bf
000002e0: 0c11 7ebf 4d3f ce3f 2c4b 8f3f 7e25 a53f
000002f0: 4f57 fbbf 5e76 92bf ad35 7dbf b5bd d9be
00000300: 876b 423f f2bf 73bf ea92 c2bf 40cf 57bf
00000310: ee67 b8bf 2d8f 8abf 8108 9d3f 7d4d 4fbf
00000320: 43a6 15bf abfa 793f ccec 12c0 d95a 863f
00000330: 0564 a5bf abba 06bf 5562 b73f 81ad a33f
00000340: 5a66 a6bf 985f 883f 9d48 d83f 573f 183f
00000350: 7720 b8bf 17a4 a63f 91a7 ae3f 39e3 823f
00000360: 6ad9 71bf 3fc1 f3bf 7c7d 7d3f 058d 9bbf
00000370: 8c05 8bbf 2240 b7bf fe86 71bf 2de8 b43f
00000380: a10a f3bf 31cb ca3f 4f12 74bf 6d50 203f
00000390: 8e70 613f 50d3 77bf bebe 9d3f 0933 763f
000003a0: cbe0 bdbf da7f c03f 985e 8e3f bf2a 9dbf
000003b0: 7a89 b53f 0ed2 693f f290 c33f 83f9 b43f
000003c0: 034e 9abf 2b4b 353f 1064 863f 74eb bb3f
000003d0: 75fd b4bf 0c28 9e3f ce89 5e3f 3e18 08c0
000003e0: 5c71 8a3f adcb ccbf 9295 d9bf 8632 453f
000003f0: a367 8d3f 31a9 21bf c9c0 2f3f e7e7 9d3f
