fixed_route_safe_slac/Safe_Slac_CARLA/logs/CarlaRlEnv-v0-run/slac-seed0-20241201-1119/models/step0/safety_critic.pth (torch, 507716 bytes, 5 tensors)

net1.0.weight f4 [256, 234]
-0.044035282 0.021012334 -0.09294855 0.11517475 -0.017522002 -0.024909707 -0.06552565 0.15576385
-0.20730034 0.010459115 0.18606642 -0.075514846 -0.033585835 -0.01549236 -0.3185677 -0.0560025
-0.011153436 -0.03995006 0.0562339 -0.07479729 -0.05789059 0.06448197 0.053862337 -0.11213559
-0.059088547 -0.008941317 0.040273298 -0.041732162 -0.16963898 -0.06477859 -0.04275689 0.03288359
-0.07720224 0.10804999 -0.09850721 0.0492314 0.0253445 0.014961837 0.015736667 -0.25669652
0.11418118 -0.363327 -0.0716643 -0.12083315 0.12202378 0.37713858 0.14507535 0.42689013
-0.3137985 0.17461336 -0.35348463 0.04018472 -0.6710007 0.092789665 0.0634993 -0.25051033
-0.06543211 -0.1674506 0.2740441 -0.08501033 0.5638098 -0.07802116 0.037101172 0.086265825
0.046044268 -0.503776 -0.5005948 -0.015361636 -0.15704998 -0.37188318 -0.47065148 0.8180854
0.6304995 -0.06374526 0.1420816 0.05770983 0.20797367 -0.18867587 0.07277309 -0.14407396
-0.7696583 -0.010840311 0.35948527 -0.27234873 0.102792606 0.51763433 -0.28133684 0.2517721
-1.1407887 0.2064367 0.13035487 -0.24515899 -0.27157012 -0.6033928 -0.039448004 0.7126319
0.9202945 -0.2390092 0.27061054 0.17512998 -0.2566339 -0.13208984 0.024510892 -0.709449
-0.22615133 -0.018958366 -0.17690645 0.22849882 0.31193492 -0.2678692 0.24319334 0.1342755
-0.24093671 -0.32613358 0.43553698 0.27548543 0.24778481 0.44417894 -0.26284444 0.09808729
-0.47206336 -0.59169376 0.38675877 0.4311336 0.6274497 0.5211299 -0.4472993 -0.047432143
0.5327513 0.36868626 -0.21015535 0.4109796 0.08704594 -0.42472947 0.3379907 -0.5873322
0.88513803 -0.15417358 -0.17305878 0.3782473 -0.67715085 -0.1994048 -1.0483775 0.69931257
0.19116162 -0.93187666 -0.29714176 0.022083318 0.13347779 -0.22899468 0.28882763 -0.15052411
0.1719099 0.21653731 -0.13566326 0.09977811 -0.15144284 -0.8283579 0.76255345 0.010604672
-0.01658801 0.13347216 -0.9283625 -0.06906304 -0.7504469 -0.44100866 -0.22093849 -0.7927436
0.1702502 0.04411168 -0.13540804 0.060053095 0.74707264 0.09656714 -0.2702735 0.01744069
-0.19697604 0.41631535 0.1021312 0.08389302 0.025530811 0.20438327 -0.015240861 -0.15238097
0.7348272 -0.44418162 0.47676957 0.044849955 -0.7313324 -0.14678846 0.073533975 0.028719751
-0.793912 -0.27804482 -0.44879538 -0.08068979 0.3105063 0.721484 0.47923926 -0.09588521
-0.3821934 -0.5102093 -0.08369041 0.05388652 0.10658753 0.099428274 -0.16864912 -0.14301945
0.31580782 -0.35790536 0.24688736 0.26140362 0.18823579 -0.042807173 -0.055010177 0.03795166
0.1800809 0.75228816 -0.27184442 -0.15184289 0.0075636944 0.0462323 -0.5220494 0.19150846
0.16015905 0.59403425 -0.1357386 0.7573042 0.6542767 -0.7372391 -0.66326505 0.2839268
0.7051438 -0.91141236 -0.02447476 -0.3290238 -0.093790874 -0.033808738 -0.071550414 0.006220224
-0.073570654 0.20290864 -0.36100438 -0.019911263 0.21079937 0.02541384 0.016137969 -0.00992805
0.45611343 -0.015837457 -0.022691568 0.0105351955 0.049976364 0.058723025 0.081887394 0.04529368
00000000: 575e 34bd 0f22 ac3c cf5b bebd bde0 eb3d
00000010: 4d8a 8fbc 710f ccbc 5032 86bd 8f80 1f3e
00000020: 8a46 54be b55c 2b3c 3288 3e3e 87a7 9abd
00000030: 4d91 09bd abd3 7dbc 4e1b a3be e162 65bd
00000040: e7bc 36bc ada2 23bd 8555 663d 522f 99bd
00000050: af1e 6dbd 200f 843d c19e 5c3d 58a7 e5bd
00000060: d506 72bd 9a7e 12bc 9df5 243d 58ef 2abd
00000070: d7b5 2dbe a3aa 84bd d921 2fbd f1b0 063d
00000080: 351c 9ebd 5049 dd3d 26be c9bd dda6 493d
00000090: 459f cf3c 7e22 753c 2fea 803c ba6d 83be
000000a0: d3d7 e93d ff05 babe bcc4 92bd 5f77 f7bd
000000b0: 9be7 f93d 4f18 c13e a28e 143e 5891 da3e
000000c0: 32aa a0be d8cd 323e f0fb b4be bc98 243d
000000d0: b4c6 2bbf 8208 be3d ec0b 823d e442 80be
000000e0: 4501 86bd 2c78 2bbe 824f 8c3e e519 aebd
000000f0: d755 103f 8fc9 9fbd 66f7 173d 23ac b03d
00000100: ea98 3c3d 77f7 00bf fb26 00bf 5faf 7bbc
00000110: b6d1 20be 7967 bebe 3bf9 f0be 0b6e 513f
00000120: 6a68 213f e08c 82bd d77d 113e 2561 6c3d
00000130: 0df7 543e 3f34 41be 0f0a 953d 2088 13be
00000140: 5408 45bf 8f9b 31bc 740e b83e 4b71 8bbe
00000150: ee84 d23d af83 043f 620b 90be 46e8 803e
00000160: 5d05 92bf 2464 533e bf7b 053e f50a 7bbe
00000170: 3d0b 8bbe f377 1abf 3b94 21bd 0b6f 363f
00000180: 6c98 6b3f d4be 74be 778d 8a3e 4655 333e
00000190: 8565 83be 8f42 07be 11cb c83c 739e 35bf
000001a0: 3794 67be 934e 9bbc f726 35be 98fb 693e
000001b0: efb5 9f3e 2726 89be ad07 793e 847f 093e
000001c0: 1db8 76be fbfa a6be b4fe de3e 6d0c 8d3e
000001d0: 4dbb 7d3e 6c6b e33e 8c93 86be fde1 c83d
000001e0: 4ab2 f1be 3e79 17bf 3f05 c63e 8bbd dc3e
000001f0: 8ba0 203f c568 053f 6a04 e5be 3548 42bd
00000200: 6462 083f 72c4 bc3e f732 57be eb6b d23e
00000210: 2445 b23d 2476 d9be 1e0d ad3e 675b 16bf
00000220: 6898 623f aedf 1dbe 5236 31be a1a9 c13e
00000230: c259 2dbf c630 4cbe 3c31 86bf 2606 333f
00000240: dfbf 433e 788f 6ebf f722 98be 13e8 b43c
00000250: 67ae 083e 957d 6abe 37e1 933e fe22 1abe
00000260: 2609 303e f5bb 5d3e 4feb 0abe 7758 cc3d
00000270: d513 1bbe 430f 54bf b436 433f 38bf 2d3c
00000280: 94e3 87bc edac 083e 2aa9 6dbf ec70 8dbd
00000290: 4a1d 40bf e3cb e1be b33d 62be 3ff1 4abf
000002a0: 1256 2e3e 73ae 343d 68a8 0abe 3cfa 753d
000002b0: 2740 3f3f fec4 c53d 4a61 8abe c7df 8e3c
000002c0: 16b4 49be 4927 d53e 2a2a d13d 1bd0 ab3d
000002d0: fe25 d13c d949 513e ceb4 79bc c209 1cbe
000002e0: a31d 3c3f c66b e3be 241b f43e 96b4 373d
000002f0: 9a38 3bbf b74f 16be fb98 963d af45 eb3c
00000300: d13d 4bbf e45b 8ebe 82c8 e5be b040 a5bd
00000310: affa 9e3e 2db3 383f d95e f53e 775f c4bd
00000320: daae c3be 149d 02bf e165 abbd 1db8 5c3d
00000330: 904a da3d 0da1 cb3d 5bb2 2cbe b173 12be
00000340: 90b1 a13e 5f3f b7be 0ad0 7c3e b2d6 853e
00000350: e2c0 403e 9356 2fbd 5a52 61bd 3373 1b3d
00000360: 2167 383e f595 403f 312f 8bbe b47c 1bbe
00000370: ded8 f73b 155e 3d3d 08a5 05bf cb1a 443e
00000380: bc00 243e a112 183f 0fff 0abe b0de 413f
00000390: ae7e 273f b4bb 3cbf bdcb 29bf db5e 913e
000003a0: 4e84 343f 5252 69bf 4b7f c8bc cf75 a8be
000003b0: 6e15 c0bd 087b 0abd 0689 92bd 05d3 cb3b
000003c0: 36ac 96bd 48c7 4f3e 91d5 b8be f21c a3bc
000003d0: cadb 573e af30 d03c c633 843c 43a9 22bc
000003e0: b387 e93e 8ebd 81bc abe3 b9bc d09b 2c3c
000003f0: 04b4 4c3d 8e87 703d 94b4 a73d de85 393d

net1.0.bias f4 [256]
0.09458563 -0.28954998 -0.64898926 -0.49751693 -0.209052 -0.1458857 -0.25706315 1.1274546
-0.6281373 -0.7081835 -0.14893517 -0.24768655 -0.22169532 -0.552877 -0.48518676 0.28001246
-0.5270792 -0.12291982 0.007558788 -0.19317847 -0.44354728 -0.011676359 -0.06182548 -0.41042587
-0.40664524 0.035596248 0.922269 -0.6747623 -0.25042677 -0.6701627 -0.05274574 0.0085431645
-0.36319205 0.124742754 -0.52102566 -0.2722149 -0.3469634 -0.46433243 -0.3231281 -0.09346937
-0.28644827 0.21235053 0.04460024 -0.10060745 -0.4280449 -0.19159502 -0.21611635 -0.1704121
-0.42936 0.17521322 -0.20541595 0.12130209 -0.54174966 -0.0817537 -0.71434003 -0.4998725
-0.49405232 -0.78283113 -0.68733066 0.061955493 -0.7835987 -0.40246034 -0.53398544 -0.28243494
-0.38732398 -0.26262274 -0.58121043 -0.07206011 -0.4503284 -0.40059963 -0.1281928 -0.4251857
-0.5213699 -0.39772698 -0.5177522 0.21834078 -0.05111636 -0.008564125 -0.32520744 -0.065742426
-0.16663873 -0.5606652 -0.47742927 -0.8504075 -0.56948304 -0.7929533 -0.38597894 0.09145068
-0.22822401 -0.45948488 -0.04035509 0.335778 -0.77192444 -0.1941321 -0.18911076 -0.02937422
-0.7076096 -0.58990985 -0.6948209 -0.10668801 -0.5195064 -0.0030282596 0.11649026 -0.43809193
-0.31272703 -0.65356046 -0.7519084 -0.60503244 -0.5792836 -0.57764196 0.05477452 -0.804191
-0.18530723 -0.5972265 -0.7171566 -0.63246197 0.010818448 -0.10492991 -0.37564698 -0.3285989
-0.6845538 1.027183 0.10225344 -0.7807732 0.002544936 0.33506572 -0.5808586 -0.18409799
-0.6304584 -0.57836896 -0.24552456 -0.5063372 0.00541322 0.37074563 0.096167326 -0.24902865
0.011131288 -0.30130035 -0.50652987 -0.30544946 -0.37847468 -0.51612 -0.6579063 0.04754119
0.049713653 -0.6222892 -0.35554963 -0.16627622 -0.3758565 -0.20952457 -0.10915103 -0.7218898
-0.68026006 -0.22917812 -0.12565152 -0.94214827 -0.54417974 -0.67226815 0.021295203 -0.6738226
-0.40769696 -0.23896158 0.0034232186 -0.030318914 -0.35815975 -0.065023705 -0.39576566 -0.13437565
-0.10482802 -0.48013794 0.31762576 0.3817211 -0.28982875 -0.37599546 -0.14845182 -0.31776866
-0.37208527 -0.36397928 -0.634707 0.50644475 -0.050305247 -0.18860455 -0.46637845 -0.17210276
0.06960258 -0.3310235 0.05332023 -0.3270496 -0.044158973 -0.23023431 -1.1036388 -0.26028326
-0.5460687 -0.028826647 -0.023358593 0.32166725 -0.28957272 -0.33622605 0.018390104 -0.7547766
-0.096893065 -0.44176236 -0.58480996 -0.2829056 0.059940428 -0.54434717 0.36445355 -0.6960962
-0.292984 -0.6462876 -0.12216996 -0.021131804 -0.5225284 -0.63317215 -0.14221604 -0.8553876
-0.21450229 0.41201895 -0.809834 -0.034845777 -0.22242324 -0.052418202 0.49156308 -0.20746736
-0.4970646 -0.5044665 0.2696236 0.271514 -0.10107597 -0.6679242 -0.46990758 -0.07941413
-0.63093734 -0.45420432 -0.3684882 -0.65068525 -0.14571625 -0.27159554 -0.18299925 -0.29619294
-0.21039084 0.34052262 -0.21608028 -0.39868742 -0.5947076 -0.03783718 -0.26777822 -0.46652743
-0.79715794 -0.34356105 -0.20438756 -0.1801027 0.06701854 0.046382744 0.28878307 -0.29380986
00000000: 1cb6 c13d e53f 94be 2924 26bf 8aba febe
00000010: ba11 56be 1063 15be c89d 83be 6f50 903f
00000020: 9bcd 20bf 844b 35bf 7682 18be 8ba1 7dbe
00000030: 1904 63be 5989 0dbf 666a f8be cb5d 8f3e
00000040: aaee 06bf 63bd fbbd b6af f73b 94d0 45be
00000050: a118 e3be 334e 3fbc b73c 7dbd 5723 d2be
00000060: ce33 d0be 5fcd 113d d219 6c3f 39bd 2cbf
00000070: f037 80be c88f 2bbf eb0b 58bd a1f8 0b3c
00000080: 4ff4 b9be 2179 ff3d f061 05bf c05f 8bbe
00000090: 30a5 b1be fbbc edbe 0c71 a5be de6c bfbd
000000a0: 59a9 92be 6b72 593e beae 363d 470b cebd
000000b0: b328 dbbe 7c31 44be 9b4d 5dbe 8280 2ebe
000000c0: 13d5 dbbe 186b 333e 8f58 52be 3b6d f83d
000000d0: 1bb0 0abf 7c6e a7bd fdde 36bf 4aef ffbe
000000e0: 6df4 fcbe 9f67 48bf e7f4 2fbf 0bc5 7d3d
000000f0: ed99 48bf 480f cebe 45b3 08bf 509b 90be
00000100: 544f c6be 7d76 86be 35ca 14bf 4094 93bd
00000110: 7291 e6be 651b cdbe f944 03be f1b1 d9be
00000120: 7f78 05bf dfa2 cbbe 688b 04bf ba94 5f3e
00000130: 635f 51bd 8b50 0cbc 9781 a6be f7a3 86bd
00000140: 58a3 2abe c187 0fbf 9c71 f4be 4eb4 59bf
00000150: a4c9 11bf fdfe 4abf 089f c5be 7e4a bb3d
00000160: 8eb3 69be 9a41 ebbe 614b 25bd 18eb ab3e
00000170: d79c 45bf 91ca 46be 40a6 41be 34a2 f0bc
00000180: e725 35bf 5504 17bf c8df 31bf 3e7f dabd
00000190: 5ffe 04bf c475 46bb 7292 ee3d 964d e0be
000001a0: c21d a0be bd4f 27bf 127d 40bf 68e3 1abf
000001b0: ee4b 14bf 58e0 13bf 3f5b 603d 76df 4dbf
000001c0: 2ec1 3dbe d6e3 18bf 9397 37bf 07e9 21bf
000001d0: dc3f 313c 7ee5 d6bd cd54 c0be 1d3e a8be
000001e0: eb3e 2fbf bc7a 833f 406a d13d c1e0 47bf
000001f0: f1c8 263b bc8d ab3e 26b3 14bf 2f84 3cbe
00000200: b965 21bf fd0f 14bf ca6a 7bbe 519f 01bf
00000210: 6161 b13b 5fd2 bd3e 60f3 c43d 5e01 7fbe
00000220: 0160 363c 0a44 9abe f1ab 01bf df63 9cbe
00000230: 6fc7 c1be 7120 04bf 8c6c 28bf 8dba 423d
00000240: 8ba0 4b3d 584e 1fbf 9a0a b6be 5044 2abe
00000250: 4370 c0be 9c8d 56be 938a dfbd c5cd 38bf
00000260: 8625 2ebf abad 6abe cbaa 00be a130 71bf
00000270: 5d4f 0bbf c419 2cbf 4773 ae3c a37f 2cbf
00000280: a8bd d0be 58b2 74be 1458 603b 5f5f f8bc
00000290: b760 b7be 262b 85bd cca1 cabe c599 09be
000002a0: 13b0 d6bd a4d4 f5be d89f a23e f370 c33e
000002b0: 6f64 94be 7a82 c0be c103 18be 93b2 a2be
000002c0: f681 bebe 7e5b babe 287c 22bf 5da6 013f
000002d0: e00c 4ebd 8d21 41be 28c9 eebe b53b 30be
000002e0: cc8b 8e3d ea7b a9be 5066 5a3d 0c73 a7be
000002f0: 0ae0 34bd 8bc2 6bbe 0944 8dbf d943 85be
00000300: 29cb 0bbf dc25 ecbc 855a bfbc 92b1 a43e
00000310: e042 94be d225 acbe d8a6 963c 0a39 41bf
00000320: df6f c6bd ad2e e2be 1bb6 15bf 01d9 90be
00000330: 1884 753d 565a 0bbf a899 ba3e 5c33 32bf
00000340: 0002 96be 1b73 25bf 3e34 fabd 9b1c adbc
00000350: 6cc4 05bf 9217 22bf 15a1 11be affa 5abf
00000360: 7da6 5bbe 26f4 d23e 4851 4fbf 72ba 0ebd
00000370: ebc2 63be 78b4 56bd 28ae fb3e 5372 54be
00000380: 407f febe b724 01bf 1b0c 8a3e e203 8b3e
00000390: eb00 cfbd 15fd 2abf ba97 f0be e0a3 a2bd
000003a0: 1c85 21bf 788d e8be 7caa bcbe 4f93 26bf
000003b0: a436 15be 920e 8bbe 2864 3bbe 9aa6 97be
000003c0: b270 57be fb58 ae3e 2644 5dbe c220 ccbe
000003d0: c23e 18bf 29fb 1abd 3a1a 89be afdc eebe
000003e0: 8b12 4cbf 3ce7 afbe f94a 51be d86c 38be
000003f0: 0441 893d d5fb 3d3d 60db 933e 3f6e 96be

net1.2.weight f4 [256, 256]
0.068100974 -0.12901777 0.042698026 -0.511161 0.2917892 -0.29422772 0.012694565 -0.35636765
0.4567991 -0.24442701 -0.83995956 -0.18481323 0.110812485 0.42888716 -0.03005997 -0.13931936
-0.05814404 -0.48053658 -0.58005327 0.012216023 0.1289423 -0.24206391 0.28559175 -0.44536245
0.18340322 0.46882793 -0.5553565 0.89132994 -0.42151433 0.57622766 -0.29019725 0.25598305
-0.07229359 -0.33797964 -0.27528945 0.26937655 0.103461705 0.20162958 0.46164164 -0.09577149
-0.27943903 0.16765693 0.081766196 0.7199856 -0.4577297 0.026327547 0.5942657 -0.15642536
0.77862483 0.20983085 -0.33470154 -0.8531836 -0.30908597 -0.18413779 0.0037173147 -0.094325475
0.22262241 -0.5815091 -0.03005485 -0.18557297 0.026861513 -0.045402687 0.558667 -0.537182
0.66945463 -0.039808456 -0.20935611 -0.028500676 0.07401901 0.98968786 0.33391252 -0.11886353
-0.54333603 -0.1588827 -0.2994433 -0.14537741 0.12999205 -0.226128 -0.30297336 -0.21870491
-0.011363589 -0.3052215 -0.12794241 -0.5253787 -0.0813833 0.027941843 0.14896235 0.07834624
-0.11669171 -0.5103582 -0.46408495 -0.38794985 -0.24812369 0.28329507 -0.6798924 -0.6196183
-0.3641741 0.15248136 -0.35124362 -0.53338015 -0.98474383 -0.109874316 -0.017813694 -0.33383772
-0.10887383 0.021870077 0.6961413 -0.13765457 -0.032929774 -0.4437713 -0.6865148 -0.4855839
-0.072326675 0.31594756 0.22318514 -0.6118407 0.044259727 0.020043274 -0.6332398 -0.26403075
-0.27120146 -0.7427825 -0.31688273 -0.48247072 -0.6947394 -0.68059146 -0.41512907 -0.08187804
0.46427944 -0.5430111 -0.07546408 0.35906222 -0.7078903 -0.3708968 -0.16625825 0.07085504
-0.7845403 -0.11455449 0.46130797 0.16278924 -0.4073913 0.04063091 -0.45428985 -0.0018775308
-0.07389616 -0.27804416 -0.20735323 0.34314597 -0.5014258 -0.2627501 0.38043872 0.6340612
-0.15356876 0.38545483 -0.37788987 -0.3694451 -0.47668594 0.51574075 0.015748871 -0.45966795
0.23749414 0.36738795 0.16631399 -0.005851245 0.6908738 0.19439122 -0.09043354 0.08120159
-0.16147642 0.4079365 -0.40532002 0.02863593 -0.06150516 -0.16818671 -0.036055434 0.2834947
0.1340467 -0.17277366 -0.019850358 -0.64928097 0.10661395 -0.84242576 0.123060554 0.015251329
0.07163263 0.09519267 -0.2883949 -0.43487057 -0.6292108 -0.11904143 -0.39253825 0.28751114
0.34094444 -0.38863808 -0.15196773 0.105755724 -0.44017297 -0.0047855377 -0.122741476 0.41583985
0.042934317 -0.4712049 -0.26459366 0.2827319 0.4514938 -0.24095225 -0.6973475 -0.16723984
0.3613422 1.0850275 -0.6980018 0.14690872 -0.63615227 -0.21099906 -0.41298693 -0.16785674
-0.28801617 -0.42385295 0.22350775 -0.1666382 -0.00609949 -0.5218414 -0.6940813 -0.1647489
-0.4462466 0.6755258 0.030597728 -0.2766655 -0.6500055 -0.44359487 0.2347803 -0.118367456
0.28940555 -0.34917918 -0.030753035 0.030060386 -0.15282615 0.69232726 -0.007057706 0.21897636
-0.7147218 -0.18923347 -0.9903108 -0.53557724 -0.31968758 0.36845163 -0.5375362 -0.60189563
-0.22350271 0.4420147 0.11382201 -0.37740138 -0.29001692 0.24602306 -0.7246129 -0.91208607
00000000: 8678 8b3d 3c1d 04be 20e4 2e3d 73db 02bf
00000010: 6565 953e 04a5 96be ddfc 4f3c d275 b6be
00000020: 92e1 e93e 134b 7abe 9707 57bf ae3f 3dbe
00000030: a8f1 e23d 1997 db3e 5440 f6bc bca9 0ebe
00000040: 7228 6ebd e408 f6be 5f7e 14bf b725 483c
00000050: 7309 043e 9adf 77be 1539 923e 8c06 e4be
00000060: 0ece 3b3e 370a f03e d82b 0ebf 332e 643f
00000070: bad0 d7be a883 133f bc94 94be 3610 833e
00000080: a90e 94bd ab0b adbe bdf2 8cbe b9eb 893e
00000090: bbe3 d33d fc77 4e3e 4b5c ec3e d823 c4bd
000000a0: a212 8fbe 42ae 2b3e 0975 a73d fa50 383f
000000b0: 8c5b eabe deac d73c cc21 183f f82d 20be
000000c0: f553 473f e6dd 563e 005e abbe 3e6a 5abf
000000d0: 8440 9ebe 9e8e 3cbe 319e 733b b72d c1bd
000000e0: 21f7 633e c8dd 14bf 9735 f6bc d706 3ebe
000000f0: ad0c dc3c 2bf8 39bd cd04 0f3f c284 09bf
00000100: 6161 2b3f 310e 23bd 7361 56be 407a e9bc
00000110: 4797 973d 2f5c 7d3f 95f6 aa3e b96e f3bd
00000120: 1218 0bbf 26b2 22be a250 99be d1dd 14be
00000130: a31c 053e 198e 67be 531f 9bbe 2ef4 5fbe
00000140: 592e 3abc fe45 9cbe 5603 03be 387f 06bf
00000150: 4aac a6bd 4be6 e43c 9689 183e fe73 a03d
00000160: 10fc eebd d6a6 02bf 8b9c edbe 5da1 c6be
00000170: 2314 7ebe 0d0c 913e 6e0d 2ebf 4e9f 1ebf
00000180: 0775 babe 1324 1c3e 34d6 b3be 9a8b 08bf
00000190: 2c18 7cbf c905 e1bd 06ee 91bc c7ec aabe
000001a0: 3ef9 debd e028 b33c 5136 323f 52f5 0cbe
000001b0: 5fe1 06bd fe35 e3be 6fbf 2fbf 749e f8be
000001c0: 0220 94bd e1c3 a13e a58a 643e 98a1 1cbf
000001d0: b049 353d cb31 a43c 011c 22bf 0a2f 87be
000001e0: ebda 8abe fe26 3ebf 743e a2be 6706 f7be
000001f0: 71da 31bf 3e3b 2ebf cc8b d4be adaf a7bd
00000200: 09b6 ed3e c702 0bbf e98c 9abd 01d7 b73e
00000210: 4c38 35bf 2fe6 bdbe 9a3f 2abe 721c 913d
00000220: a2d7 48bf 8b9b eabd 8f30 ec3e 39b2 263e
00000230: 9895 d0be 996c 263d ae98 e8be 7b17 f6ba
00000240: df56 97bd ce5b 8ebe 6854 54be d4b0 af3e
00000250: 715d 00bf 2e87 86be ddc8 c23e d651 223f
00000260: 2141 1dbe 565a c53e c87a c1be e827 bdbe
00000270: 2e10 f4be 9607 043f c703 813c 9959 ebbe
00000280: aa31 733e 461a bc3e 374e 2a3e cdbb bfbb
00000290: 1bdd 303f 7e0e 473e 3835 b9bd 054d a63d
000002a0: 135a 25be 0edd d03e 1b86 cfbe e695 ea3c
000002b0: d6ec 7bbd 2339 2cbe ddae 13bd 3826 913e
000002c0: 8a43 093e 94eb 30be 389d a2bc 4737 26bf
000002d0: 6a58 da3d 37a9 57bf 2c07 fc3d b6e0 793c
000002e0: 21b4 923d 60f4 c23d 7fa8 93be 5ba7 debe
000002f0: f613 21bf fecb f3bd c6fa c8be a934 933e
00000300: 4590 ae3e 92fb c6be 6e9d 1bbe 7596 d83d
00000310: 5a5e e1be 00d0 9cbb e25f fbbd f6e8 d43e
00000320: e5db 2f3d c541 f1be d278 87be 3cc2 903e
00000330: 322a e73e 30bc 76be 5e85 32bf ec40 2bbe
00000340: d801 b93e 2ee2 8a3f 3fb0 32bf 3d6f 163e
00000350: e0da 22bf 2310 58be 0673 d3be a3e2 2bbe
00000360: db76 93be 4103 d9be 37df 643e 34a3 2abe
00000370: 3bde c7bb 6697 05bf 50af 31bf f0b3 28be
00000380: 6f7a e4be 42ef 2c3f 16a8 fa3c 1aa7 8dbe
00000390: c366 26bf de1e e3be 3f6a 703e a36a f2bd
000003a0: f72c 943e 9dc7 b2be caed fbbc 3341 f63c
000003b0: 757e 1cbe 5c3c 313f 5444 e7bb 573b 603e
000003c0: 02f8 36bf 6bc6 41be 0285 7dbf 971b 09bf
000003d0: 17ae a3be b1a5 bc3e f99b 09bf d515 1abf
000003e0: e5dd 64be c04f e23e 841b e93d c13a c1be
000003f0: 197d 94be 78ed 7b3e 3b80 39bf 797e 69bf

net1.2.bias f4 [256]
0.27265736 -0.19072983 0.11093186 -0.098025784 -0.088625126 0.061670635 -0.23656006 0.18394208
-0.08052639 0.26607808 0.37928605 -0.16914415 -0.099291906 -0.11722484 0.2677956 -0.22349162
-0.37186784 -0.0037713929 -0.22768101 0.31595024 -0.14192347 -0.255019 0.19575912 0.04680853
-0.2571326 0.36421955 -0.14918463 -0.09701841 -0.039649595 -0.22830537 0.012405478 -0.18845318
0.098524585 0.1995116 0.52657306 -0.057903983 -0.122615784 0.36527884 -0.24808116 0.059599176
0.3283419 -0.08441484 -0.14140514 0.11563582 0.14375296 -0.24014169 -0.17595388 0.37370902
0.22861968 0.18418312 -0.23312289 0.16577539 -0.17172606 0.05519971 0.053391345 0.32293043
-0.124762066 0.20368734 0.05305881 -0.23202406 -0.11817864 0.0065703066 -0.15335791 0.6204664
-0.2807979 0.24192284 0.5291744 -0.016966678 0.34719068 0.04866032 0.36795682 0.28391767
-0.15540549 -0.067678235 0.2695756 -0.059480686 0.22819047 -0.17104359 0.18269788 -0.16615307
-0.27039853 -0.1648787 -0.18819153 0.20071432 -0.27383184 -0.14108601 -0.054620426 0.03536017
0.39610845 0.37712896 0.09108683 0.20178328 0.28742415 0.21452971 0.37925848 -0.3497979
-0.14224812 0.29904222 -0.08405044 0.2638592 0.33072504 0.14086656 0.2117202 -0.12536342
0.16974373 -0.1017055 -0.19715892 0.10210918 0.25366506 -0.18195304 -0.23542854 0.2978806
-0.1003258 0.34464347 0.48292902 0.21969287 -0.13158475 -0.10052122 0.23757423 -0.18376292
-0.08168737 0.059223205 -0.41471517 0.18583922 0.45054227 -0.018480582 0.05466999 0.09276337
0.042003293 0.42906094 0.2876362 -0.30523342 0.1276041 -0.13834411 -0.3565942 -0.0700563
0.3048057 -0.2409206 -0.24391659 -0.076945715 -0.12547277 -0.14843361 -0.13169149 -0.27284932
-0.006756319 0.29164487 0.19739853 -0.19491674 -0.22740817 -0.14922245 0.3864365 -0.24770524
-0.1458428 0.22741166 -0.051135886 -0.24619901 0.006220106 -0.105148435 -0.3474631 0.29952005
-0.1562789 -0.34875864 -0.2853262 0.09403731 0.21780853 -0.22464652 -0.115008034 0.16554151
-0.18567884 -0.15762518 -0.21080913 0.14706166 -0.16689691 -0.14112866 0.31135774 0.02087982
-0.16491441 -0.17414558 0.2658933 0.25585142 0.21528289 -0.0999214 -0.24440286 0.30813652
0.022976108 -0.114843465 -0.13016753 -0.20584854 0.18126392 0.35091275 0.12791567 0.3694325
0.36946282 0.5145661 0.5404186 0.5218291 0.1771592 0.20571867 -0.26491714 0.28817523
0.011618581 -0.1526278 0.38763362 -0.043927163 0.5146001 0.46082208 -0.07706496 -0.37383047
0.3185802 0.03206034 0.18140262 -0.14816926 0.5917555 -0.22104947 -0.04439491 -0.15588751
0.38104782 0.45064664 -0.061831612 0.19159213 0.358722 0.3551979 0.34677476 0.01231948
0.45943204 -0.056838192 0.2551928 -0.28779188 -0.33013234 0.2480442 -0.2104327 -0.115463115
0.3996374 -0.13761654 -0.116049625 0.58931905 -0.2307325 -0.15253216 -0.27634338 -0.18686259
0.21923885 -0.088355765 -0.079684794 -0.37283057 0.38610753 -0.12921314 -0.19655143 0.18747318
-0.25649297 0.11721377 -0.047033627 -0.16758798 -0.17738083 0.22694927 -0.29806516 -0.06785174
00000000: bf99 8b3e ae4e 43be 3e30 e33d bec1 c8bd
00000010: 1781 b5bd 599a 7c3d cd3c 72be 505b 3c3e
00000020: 05eb a4bd 633b 883e c831 c23e 2034 2dbe
00000030: 8e59 cbbd 9413 f0bd 811c 893e fdda 64be
00000040: 7665 bebe 7929 77bb 3625 69be 3bc4 a13e
00000050: 6354 11be da91 82be 1475 483e 4dba 3f3d
00000060: e2a6 83be fc7a ba3e dbc3 18be 97b1 c6bd
00000070: 9d67 22bd e2c8 69be 5940 4b3c dff9 40be
00000080: 42c7 c93d c54c 4c3e 7ecd 063f ba2c 6dbd
00000090: fc1d fbbd d405 bb3e fd08 7ebe 441e 743d
000000a0: 6e1c a83e b0e1 acbd 82cc 10be 79d2 ec3d
000000b0: fa33 133e b4e7 75be 412d 34be ca56 bf3e
000000c0: 471b 6a3e 809a 3c3e c4b7 6ebe 06c1 293e
000000d0: f5d8 2fbe 1719 623d e2b0 5a3d 2357 a53e
000000e0: 4183 ffbd 6a93 503e 3254 593d b797 6dbe
000000f0: a507 f2bd ba4b d73b db09 1dbe e3d6 1e3f
00000100: bec4 8fbe 9fba 773e f977 073f b4fd 8abc
00000110: fac2 b13e 0b50 473d d664 bc3e a85d 913e
00000120: 9e22 1fbe e39a 8abd d005 8a3e 05a2 73bd
00000130: c3aa 693e 0d26 2fbe 2715 3b3e 0824 2abe
00000140: ad71 8abe f6d5 28be 48b5 40be 0e88 4d3e
00000150: b033 8cbe da78 10be abb9 5fbd d3d5 103d
00000160: bace ca3e 0c17 c13e bb8b ba3d 47a0 4e3e
00000170: 4229 933e adad 5b3e 2b2e c23e b618 b3be
00000180: 7ea9 11be 101c 993e a322 acbd 8e18 873e
00000190: cb54 a93e 533f 103e 2ecd 583e 455f 00be
000001a0: 4dd1 2d3e f94a d0bd 07e4 49be 9e1e d13d
000001b0: 63e0 813e e651 3abe 2e14 71be ce83 983e
000001c0: 9d77 cdbd 1c75 b03e 7942 f73e 2bf7 603e
000001d0: 27be 06be 12de cdbd a946 733e 592c 3cbe
000001e0: b54b a7bd 0894 723d 8c55 d4be a34c 3e3e
000001f0: 7aad e63e 9764 97bc a4ed 5f3d b9fa bd3d
00000200: a50b 2c3d e0ad db3e 0d45 933e 8e47 9cbe
00000210: a6aa 023e 14aa 0dbe 8493 b6be ad79 8fbd
00000220: 7e0f 9c3e e4b3 76be 45c5 79be b795 9dbd
00000230: ef7b 00be fbfe 17be 22da 06be e8b2 8bbe
00000240: 1d64 ddbb 7a52 953e d722 4a3e 4198 47be
00000250: b0dd 68be c5cd 18be 01db c53e 71a6 7dbe
00000260: d157 15be 9ade 683e dd73 51bd 981b 7cbe
00000270: 08d2 cb3b 1058 d7bd afe6 b1be b15a 993e
00000280: 9307 20be 7e90 b2be 4716 92be a296 c03d
00000290: 3309 5f3e bd09 66be 5589 ebbd b783 293e
000002a0: 9822 3ebe 7f68 21be 59de 57be 5597 163e
000002b0: 06e7 2abe 0884 10be 486a 9f3e 280c ab3c
000002c0: 53df 28be 3853 32be 2b23 883e f5fe 823e
000002d0: 1e73 5c3e 97a3 ccbd be44 7abe 12c4 9d3e
000002e0: 6438 bc3c 0d33 ebbd a34a 05be f6c9 52be
000002f0: 409d 393e d6aa b33e 53fc 023e 4226 bd3e
00000300: 3b2a bd3e 9bba 033f e058 0a3f 9896 053f
00000310: 3969 353e eaa7 523e 38a3 87be b48b 933e
00000320: dc5b 3e3c 764a 1cbe ea77 c63e f8ec 33bd
00000330: d5bc 033f dff0 eb3e 3cd4 9dbd b566 bfbe
00000340: f21c a33e b451 033d 9cc1 393e afb9 17be
00000350: 4a7d 173f cb5a 62be 70d7 35bd faa0 1fbe
00000360: b318 c33e 28bb e63e 2543 7dbd ba30 443e
00000370: 69aa b73e 80dc b53e 768c b13e a5d7 493c
00000380: ad3a eb3e 2acf 68bd a1a8 823e 7559 93be
00000390: 1b07 a9be 4cff 7d3e ab7b 57be ed77 ecbd
000003a0: 469d cc3e 5aeb 0cbe 6dab edbd 9ddd 163f
000003b0: 2445 6cbe 6431 1cbe e17c 8dbe e858 3fbe
000003c0: 2680 603e def3 b4bd c831 a3bd a6e3 bebe
000003d0: e3af c53e 7350 04be c744 49be f8f8 3f3e
000003e0: 0c53 83be c60d f03d 55a6 40bd 2f9c 2bbe
000003f0: 52a3 35be 6465 683e ff9b 98be daf5 8abd

net1.last_linear.weight f4 [1, 256]
-0.9846935 1.1613148 -1.1853712 -1.600585 1.0927806 -1.2643422 1.1758509 -0.6352025
1.0404981 -1.1140277 -1.3685622 1.357715 1.4912933 0.9925999 -0.551015 0.68435735
1.1551834 -0.5827104 0.8477185 -1.76489 1.2276143 1.2604196 -1.0246595 1.4514601
1.4819127 -0.7029154 -0.8354084 -1.2279962 -0.8586082 1.0744603 -0.7675776 1.1199938
-1.0624944 -1.1836215 -0.8201496 -1.0938268 0.9932089 -1.2429565 1.3521605 0.88048863
-0.9365215 0.9662488 1.3247929 -0.8441527 -1.5133575 1.0210656 1.5148327 -2.087009
-1.187192 1.40378 0.90159833 -1.1231563 1.1788918 -1.2152914 -1.5703726 -1.9686404
1.0998281 -1.5708158 -0.627128 1.4041632 1.3609539 0.87465304 1.4400301 -1.261156
1.0095369 0.83841246 -0.5608189 1.0677109 -1.6686819 -0.84944874 -0.8460167 -1.6125185
1.2186786 1.5642675 -1.634293 1.2987237 -1.3143781 -0.5222259 1.7665756 1.2467207
1.2245823 1.1844131 0.98885274 -1.9262292 1.6421814 1.4542272 -1.0020719 -0.8498506
-1.2866968 -0.9377075 0.76704735 1.1350354 -1.4931393 -1.8602083 -1.269824 1.3105862
0.59193414 -1.6316502 1.3140666 -0.77247244 -0.83511305 1.0756503 -0.80660707 1.3059905
-0.36879864 1.321484 1.0602365 -1.4440559 -0.55981433 1.3849727 0.960569 -1.5531268
1.2041794 -0.84691143 -1.1306427 -0.6542508 0.8330436 1.0241901 -1.6523638 1.3373867
1.3419566 -1.9954553 1.1476765 -0.857282 -1.626719 0.9629262 -1.2732244 -0.9617398
1.1119999 -1.4420458 -1.1532984 0.9040666 -1.0174471 -1.0025575 0.7159883 -1.3261414
-1.8092251 1.1846428 1.0226606 1.3943365 1.258224 1.2273282 1.5559051 0.95874864
-1.6902039 -1.3336823 -1.1750826 1.091718 1.6632224 1.2730563 -1.6296266 0.7823498
0.9636761 -1.1268948 -0.997172 1.128698 0.9354278 1.2722658 1.0236713 -1.1089026
1.4556412 1.12512 1.1961046 -0.99269855 -1.2422177 0.96598214 1.5790849 -1.6071454
1.3950154 1.5817047 0.9399878 -0.70169955 1.2637728 1.1864675 -1.2232616 1.2096026
1.2233255 1.1099303 -1.2784827 -0.8530959 -1.2910285 1.2830485 1.2402233 -1.5049294
-0.99237823 1.6122944 1.1199237 1.2908639 -1.96341 -1.1442682 -0.989121 -0.4252222
0.7598069 -0.9518401 -1.5229821 -0.84272957 -1.4405715 -1.0828165 1.2284826 -0.809312
-0.5842255 0.9770794 -2.2973564 1.0505913 -1.2940913 -0.5259933 1.433351 1.2796081
-1.2996602 1.0660574 1.6894332 0.5947667 -1.4393758 1.3029898 1.3653928 1.0237771
-0.9443593 -1.9044677 0.9907346 -1.2149391 -1.085693 -1.4313033 -0.9430482 1.4150909
-1.8999515 1.5857257 -0.95349777 0.62697566 0.8814083 -0.9676411 1.2329586 0.9622668
-1.4827889 1.5049243 1.1129513 -1.2280587 1.418612 0.9138474 1.5300484 1.4139369
-1.2053953 0.7092868 1.0505887 1.4688387 -1.4138516 1.23617 0.86983913 -2.1260853
1.0821998 -1.5994103 -1.699328 0.7708883 1.1053998 -0.63121104 0.68726957 1.2341716
00000000: e014 7cbf f7a5 943f 3eba 97bf f8df ccbf
00000010: 3ce0 8b3f f7d5 a1bf 4882 963f a29c 22bf
00000020: 0b2f 853f 7698 8ebf 0c2d afbf 9bc9 ad3f
00000030: b3e2 be3f 071b 7e3f 520f 0dbf 0b32 2f3f
00000040: 0ddd 933f 822c 15bf 1404 593f eae7 e1bf
00000050: 7722 9d3f 6e55 a13f 0b28 83bf 72c9 b93f
00000060: 51af bd3f 43f2 33bf 53dd 55bf fb2e 9dbf
00000070: bfcd 5bbf ea87 893f f77f 44bf f55b 8f3f
00000080: d1ff 87bf e980 97bf 53f5 51bf 8402 8cbf
00000090: f042 7e3f 3319 9fbf 9813 ad3f b467 613f
000000a0: dfbf 6fbf 155c 773f d092 a93f 641a 58bf
000000b0: b3b5 c1bf 47b2 823f 0ae6 c13f 8e91 05c0
000000c0: e8f5 97bf 10af b33f 26cf 663f 96c3 8fbf
000000d0: ede5 963f ab8e 9bbf f801 c9bf 69fc fbbf
000000e0: 2bc7 8c3f 7e10 c9bf 768b 20bf 9fbb b33f
000000f0: bd33 ae3f 43e9 5f3f e852 b83f 8f6d a1bf
00000100: 8138 813f 33a2 563f d491 0fbf c0aa 883f
00000110: 5e97 d5bf 7975 59bf 8d94 58bf 0267 cebf
00000120: a9fd 9b3f eb39 c83f 8330 d1bf 943c a63f
00000130: 8b3d a8bf 99b0 05bf 261f e23f 8b94 9f3f
00000140: 1dbf 9c3f d99a 973f 7425 7d3f ae8e f6bf
00000150: 0033 d23f 1e24 ba3f e443 80bf cf8f 59bf
00000160: 7bb2 a4bf 990d 70bf 375d 443f d748 913f
00000170: 301f bfbf 4e1b eebf 9889 a2bf 4ac1 a73f
00000180: ff88 173f ead9 d0bf 5633 a83f c1c0 45bf
00000190: f8c9 55bf e9ae 893f cd7d 4ebf b22a a73f
000001a0: 2dd3 bcbe 6326 a93f d4b5 873f d3d6 b8bf
000001b0: fe4f 0fbf c946 b13f dae7 753f dccc c6bf
000001c0: 8d22 9a3f 30cf 58bf e6b8 90bf fb7c 27bf
000001d0: 5842 553f a918 833f a880 d3bf 7d2f ab3f
000001e0: 3cc5 ab3f 146b ffbf 10e7 923f d576 5bbf
000001f0: 5438 d0bf 5582 763f 04f9 a2bf 9434 76bf
00000200: 0356 8e3f f594 b8bf 489f 93bf e970 673f
00000210: b53b 82bf ce53 80bf 024b 373f 00bf a9bf
00000220: b094 e7bf 60a2 973f 8be6 823f 9e79 b23f
00000230: 7c0d a13f 1719 9d3f e627 c73f 8d70 753f
00000240: 9a58 d8bf 1ab6 aabf 1b69 96bf 6abd 8b3f
00000250: 79e4 d43f 82f3 a23f 9b97 d0bf 1448 483f
00000260: 7ab3 763f 173e 90bf aa46 7fbf 2d79 903f
00000270: 3278 6f3f 9bd9 a23f a907 833f 85f0 8dbf
00000280: 7352 ba3f ef03 903f f519 993f 7e21 7ebf
00000290: fd00 9fbf 9b4a 773f 741f ca3f f1b6 cdbf
000002a0: dd8f b23f 4d75 ca3f 0aa3 703f 95a2 33bf
000002b0: 4fc3 a13f 2bde 973f d693 9cbf 42d4 9a3f
000002c0: ee95 9c3f 3212 8e3f 52a5 a3bf 7e64 5abf
000002d0: 6c40 a5bf ef3a a43f a3bf 9e3f 87a1 c0bf
000002e0: 800c 7ebf aa5f ce3f a959 8f3f 073b a53f
000002f0: 0551 fbbf 6177 92bf 0937 7dbf b9b6 d9be
00000300: b482 423f cbab 73bf 14f1 c2bf 20bd 57bf
00000310: a664 b8bf bb99 8abf eb3e 9d3f 122f 4fbf
00000320: cd8f 15bf e021 7a3f e307 13c0 c779 863f
00000330: c9a4 a5bf 7fa7 06bf 0c78 b73f 33ca a33f
00000340: 445b a6bf 9274 883f 593f d83f a142 183f
00000350: 773d b8bf 5fc8 a63f 31c5 ae3f 210b 833f
00000360: 88c1 71bf 99c5 f3bf c8a0 7d3f 2083 9bbf
00000370: fdf7 8abf f234 b7bf 9b6b 71bf b321 b53f
00000380: 9c31 f3bf 0ff9 ca3f 6e18 74bf 7a81 203f
00000390: f9a3 613f 54b7 77bf 96d1 9d3f 1e57 763f
000003a0: 07cc bdbf 5ca1 c03f 3075 8e3f 0731 9dbf
000003b0: 1495 b53f e7f1 693f a0d8 c33f e2fb b43f
000003c0: 654a 9abf d293 353f b179 863f e802 bc3f
000003d0: 17f9 b4bf d23a 9e3f c7ad 5e3f c811 08c0
000003e0: 8685 8a3f 7ab9 ccbf 9483 d9bf f058 453f
000003f0: be7d 8d3f 0c97 21bf e6f0 2f3f 56f9 9d3f
